#loc1 = loc("model_params.model.embed_tokens.weight")
#loc2 = loc("model_params.model.layers.self_attn.q_proj.weight")
#loc3 = loc("model_params.model.layers.self_attn.q_proj.lora_A")
#loc4 = loc("model_params.model.layers.self_attn.k_proj.lora_A")
#loc5 = loc("model_params.model.layers.self_attn.k_proj.lora_B")
#loc6 = loc("model_params.model.layers.self_attn.v_proj.weight")
#loc7 = loc("model_params.model.layers.self_attn.v_proj.lora_A")
#loc8 = loc("model_params.model.layers.self_attn.v_proj.lora_B")
#loc9 = loc("model_params.model.layers.self_attn.o_proj.weight")
#loc10 = loc("model_params.model.layers.self_attn.o_proj.lora_A")
#loc11 = loc("model_params.model.layers.self_attn.o_proj.lora_B")
#loc12 = loc("model_params.model.layers.self_attn.rotary_emb.inv_freq")
#loc13 = loc("model_params.model.layers.mlp.gate_proj.weight")
#loc14 = loc("model_params.model.layers.mlp.gate_proj.lora_A")
#loc15 = loc("model_params.model.layers.mlp.gate_proj.lora_B")
#loc16 = loc("model_params.model.layers.mlp.up_proj.weight")
#loc17 = loc("model_params.model.layers.mlp.up_proj.lora_A")
#loc18 = loc("model_params.model.layers.mlp.up_proj.lora_B")
#loc19 = loc("model_params.model.layers.mlp.down_proj.weight")
#loc20 = loc("model_params.model.layers.mlp.down_proj.lora_A")
#loc21 = loc("model_params.model.layers.mlp.down_proj.lora_B")
#loc22 = loc("model_params.model.layers.input_layernorm.weight")
#loc23 = loc("model_params.model.layers.post_attention_layernorm.weight")
#loc24 = loc("model_params.model.norm.weight")
#loc25 = loc("model_params.lm_head.weight")
#loc26 = loc("model_params.lm_head.lora_A")
#loc27 = loc("model_params.lm_head.lora_B")
#loc28 = loc("optimizer_state[1][0].count")
#loc29 = loc("optimizer_state[1][0].mu.model.layers.self_attn.q_proj.lora_A")
#loc30 = loc("optimizer_state[1][0].mu.model.layers.self_attn.q_proj.lora_B")
#loc31 = loc("optimizer_state[1][0].mu.model.layers.self_attn.k_proj.lora_A")
#loc32 = loc("optimizer_state[1][0].mu.model.layers.self_attn.k_proj.lora_B")
#loc33 = loc("optimizer_state[1][0].mu.model.layers.self_attn.v_proj.lora_A")
#loc34 = loc("optimizer_state[1][0].mu.model.layers.self_attn.v_proj.lora_B")
#loc35 = loc("optimizer_state[1][0].mu.model.layers.self_attn.o_proj.lora_A")
#loc36 = loc("optimizer_state[1][0].mu.model.layers.self_attn.o_proj.lora_B")
#loc37 = loc("optimizer_state[1][0].mu.model.layers.mlp.gate_proj.lora_A")
#loc38 = loc("optimizer_state[1][0].mu.model.layers.mlp.gate_proj.lora_B")
#loc39 = loc("optimizer_state[1][0].mu.model.layers.mlp.up_proj.lora_A")
#loc40 = loc("optimizer_state[1][0].mu.model.layers.mlp.up_proj.lora_B")
#loc41 = loc("optimizer_state[1][0].mu.model.layers.mlp.down_proj.lora_A")
#loc42 = loc("optimizer_state[1][0].mu.model.layers.mlp.down_proj.lora_B")
#loc43 = loc("optimizer_state[1][0].mu.lm_head.lora_A")
#loc44 = loc("optimizer_state[1][0].mu.lm_head.lora_B")
#loc45 = loc("optimizer_state[1][0].nu.model.layers.self_attn.q_proj.lora_A")
#loc46 = loc("optimizer_state[1][0].nu.model.layers.self_attn.q_proj.lora_B")
#loc47 = loc("optimizer_state[1][0].nu.model.layers.self_attn.k_proj.lora_A")
#loc48 = loc("optimizer_state[1][0].nu.model.layers.self_attn.k_proj.lora_B")
#loc49 = loc("optimizer_state[1][0].nu.model.layers.self_attn.v_proj.lora_A")
#loc50 = loc("optimizer_state[1][0].nu.model.layers.self_attn.v_proj.lora_B")
#loc51 = loc("optimizer_state[1][0].nu.model.layers.self_attn.o_proj.lora_A")
#loc52 = loc("optimizer_state[1][0].nu.model.layers.self_attn.o_proj.lora_B")
#loc53 = loc("optimizer_state[1][0].nu.model.layers.mlp.gate_proj.lora_A")
#loc54 = loc("optimizer_state[1][0].nu.model.layers.mlp.gate_proj.lora_B")
#loc55 = loc("optimizer_state[1][0].nu.model.layers.mlp.up_proj.lora_A")
#loc56 = loc("optimizer_state[1][0].nu.model.layers.mlp.up_proj.lora_B")
#loc57 = loc("optimizer_state[1][0].nu.model.layers.mlp.down_proj.lora_A")
#loc58 = loc("optimizer_state[1][0].nu.model.layers.mlp.down_proj.lora_B")
#loc59 = loc("optimizer_state[1][0].nu.lm_head.lora_A")
#loc60 = loc("optimizer_state[1][0].nu.lm_head.lora_B")
#loc61 = loc("batch['input_ids']")
#loc62 = loc("batch['labels']")
#loc63 = loc("batch['position_ids']")
#loc64 = loc("batch['prompt_length']")
#loc65 = loc("batch['response_length']")
#loc66 = loc("/home/ubuntu/roadrunner-fork/src/felafax/trainer_engine/trainer.py":196:0)
#loc67 = loc("/home/ubuntu/roadrunner-fork/src/felafax/trainer_engine/trainer.py":305:0)
#loc68 = loc("/home/ubuntu/roadrunner-fork/trainers/llama3_alpaca_finetune/pipeline.py":127:0)
#loc72 = loc("/opt/aws_neuronx_venv_pytorch_2_1/lib/python3.10/site-packages/optax/_src/base.py":333:0)
#loc73 = loc("/opt/aws_neuronx_venv_pytorch_2_1/lib/python3.10/site-packages/optax/transforms/_combining.py":75:0)
#loc74 = loc("/home/ubuntu/roadrunner-fork/src/felafax/trainer_engine/trainer.py":215:0)
#loc79 = loc("/opt/aws_neuronx_venv_pytorch_2_1/lib/python3.10/site-packages/optax/tree_utils/_tree_math.py":308:0)
#loc80 = loc("/opt/aws_neuronx_venv_pytorch_2_1/lib/python3.10/site-packages/optax/tree_utils/_tree_math.py":306:0)
#loc81 = loc("/opt/aws_neuronx_venv_pytorch_2_1/lib/python3.10/site-packages/optax/_src/transform.py":284:0)
#loc86 = loc("/opt/aws_neuronx_venv_pytorch_2_1/lib/python3.10/site-packages/optax/_src/numerics.py":142:0)
#loc87 = loc("/opt/aws_neuronx_venv_pytorch_2_1/lib/python3.10/site-packages/optax/_src/transform.py":286:0)
#loc96 = loc("/home/ubuntu/roadrunner-fork/src/felafax/trainer_engine/models/llama3/jax/model.py":118:0)
#loc97 = loc("/home/ubuntu/roadrunner-fork/src/felafax/trainer_engine/models/llama3/jax/model.py":595:0)
#loc98 = loc("/home/ubuntu/roadrunner-fork/src/felafax/trainer_engine/models/llama3/jax/model.py":647:0)
#loc99 = loc("/home/ubuntu/roadrunner-fork/src/felafax/trainer_engine/trainer.py":173:0)
#loc103 = loc("/home/ubuntu/roadrunner-fork/src/felafax/trainer_engine/models/llama3/jax/model.py":537:0)
#loc104 = loc("/opt/aws_neuronx_venv_pytorch_2_1/lib/python3.10/site-packages/equinox/_ad.py":1209:0)
#loc105 = loc("/opt/aws_neuronx_venv_pytorch_2_1/lib/python3.10/site-packages/equinox/_ad.py":1214:0)
#loc106 = loc("/home/ubuntu/roadrunner-fork/src/felafax/trainer_engine/models/llama3/jax/model.py":604:0)
#loc107 = loc("/home/ubuntu/roadrunner-fork/src/felafax/trainer_engine/models/llama3/jax/model.py":609:0)
#loc111 = loc("/home/ubuntu/roadrunner-fork/src/felafax/trainer_engine/models/llama3/jax/model.py":404:0)
#loc113 = loc("/home/ubuntu/roadrunner-fork/src/felafax/trainer_engine/models/llama3/jax/model.py":417:0)
#loc114 = loc("/home/ubuntu/roadrunner-fork/src/felafax/trainer_engine/models/llama3/jax/model.py":259:0)
#loc115 = loc("/home/ubuntu/roadrunner-fork/src/felafax/trainer_engine/models/llama3/jax/model.py":611:0)
#loc125 = loc("/home/ubuntu/roadrunner-fork/src/felafax/trainer_engine/trainer.py":184:0)
#loc131 = loc("/home/ubuntu/roadrunner-fork/src/felafax/trainer_engine/trainer.py":490:0)
#loc132 = loc("/home/ubuntu/roadrunner-fork/src/felafax/trainer_engine/trainer.py":491:0)
#loc136 = loc("/home/ubuntu/roadrunner-fork/src/felafax/trainer_engine/trainer.py":497:0)
#loc139 = loc("/home/ubuntu/roadrunner-fork/src/felafax/trainer_engine/models/llama3/jax/model.py":543:0)
#loc140 = loc("/home/ubuntu/roadrunner-fork/src/felafax/trainer_engine/models/llama3/jax/model.py":536:0)
#loc159 = loc("/home/ubuntu/roadrunner-fork/src/felafax/trainer_engine/models/llama3/jax/model.py":419:0)
#loc169 = loc("/home/ubuntu/roadrunner-fork/src/felafax/trainer_engine/models/llama3/jax/model.py":482:0)
#loc170 = loc("/home/ubuntu/roadrunner-fork/src/felafax/trainer_engine/models/llama3/jax/model.py":544:0)
#loc173 = loc("training_step"(#loc66))
#loc174 = loc("train"(#loc67))
#loc175 = loc("<module>"(#loc68))
#loc180 = loc("update"(#loc72))
#loc181 = loc("update_fn"(#loc73))
#loc182 = loc("training_step"(#loc74))
#loc187 = loc("<lambda>"(#loc79))
#loc188 = loc("tree_update_moment"(#loc80))
#loc189 = loc("update_fn"(#loc81))
#loc194 = loc("safe_increment"(#loc86))
#loc195 = loc("update_fn"(#loc87))
#loc205 = loc("__call__"(#loc96))
#loc206 = loc("__call__"(#loc97))
#loc207 = loc("__call__"(#loc98))
#loc208 = loc("forward"(#loc99))
#loc212 = loc("__call__"(#loc103))
#loc213 = loc("fun_checkpoint"(#loc104))
#loc214 = loc("__call__"(#loc105))
#loc215 = loc("f"(#loc106))
#loc216 = loc("__call__"(#loc107))
#loc220 = loc("__call__"(#loc111))
#loc222 = loc("__call__"(#loc113))
#loc223 = loc("__call__"(#loc114))
#loc224 = loc("__call__"(#loc115))
#loc234 = loc("forward"(#loc125))
#loc240 = loc("_cross_entropy_loss_and_accuracy"(#loc131))
#loc241 = loc("_cross_entropy_loss_and_accuracy"(#loc132))
#loc245 = loc("_cross_entropy_loss_and_accuracy"(#loc136))
#loc248 = loc("__call__"(#loc139))
#loc249 = loc("__call__"(#loc140))
#loc268 = loc("__call__"(#loc159))
#loc278 = loc("__call__"(#loc169))
#loc279 = loc("__call__"(#loc170))
#loc282 = loc(callsite(#loc174 at #loc175))
#loc284 = loc(callsite(#loc173 at #loc174))
#loc286 = loc(callsite(#loc173 at #loc282))
#loc287 = loc(callsite(#loc182 at #loc282))
#loc290 = loc(callsite(#loc208 at #loc284))
#loc292 = loc("jit(training_step)/jit(main)/pjit"(#loc286))
#loc293 = loc(callsite(#loc181 at #loc287))
#loc295 = loc(callsite(#loc208 at #loc286))
#loc297 = loc(callsite(#loc207 at #loc290))
#loc300 = loc(callsite(#loc234 at #loc286))
#loc303 = loc(callsite(#loc181 at #loc293))
#loc305 = loc(callsite(#loc207 at #loc295))
#loc307 = loc(callsite(#loc216 at #loc297))
#loc317 = loc(callsite(#loc240 at #loc300))
#loc318 = loc(callsite(#loc241 at #loc300))
#loc322 = loc(callsite(#loc245 at #loc300))
#loc330 = loc(callsite(#loc180 at #loc303))
#loc332 = loc(callsite(#loc206 at #loc305))
#loc335 = loc(callsite(#loc215 at #loc307))
#loc336 = loc(callsite(#loc216 at #loc305))
#loc337 = loc(callsite(#loc224 at #loc305))
#loc348 = loc("jit(training_step)/jit(main)/jvp(jit(forward))/pjit"(#loc317))
#loc361 = loc("jit(training_step)/jit(main)/jvp(jit(forward))/argmax"(#loc322))
#loc376 = loc("jit(training_step)/jit(main)/jvp(jit(forward))/reduce"(#loc322))
#loc390 = loc("jit(training_step)/jit(main)/transpose(jvp(jit(forward)))/scatter-add"(#loc318))
#loc392 = loc("jit(training_step)/jit(main)/transpose(jvp(jit(forward)))/pjit"(#loc317))
#loc406 = loc(callsite(#loc189 at #loc330))
#loc408 = loc(callsite(#loc195 at #loc330))
#loc413 = loc(callsite(#loc205 at #loc332))
#loc416 = loc(callsite(#loc214 at #loc335))
#loc428 = loc("jit(training_step)/jit(main)/jvp(jit(forward))/while/body/closed_call"(#loc336))
#loc431 = loc(callsite(#loc223 at #loc337))
#loc458 = loc("jit(training_step)/jit(main)/transpose(jvp(jit(forward)))/while/body/closed_call"(#loc336))
#loc467 = loc(callsite(#loc188 at #loc406))
#loc469 = loc(callsite(#loc194 at #loc408))
#loc480 = loc("jit(training_step)/jit(main)/jvp(jit(forward))/pjit"(#loc413))
#loc482 = loc(callsite(#loc213 at #loc416))
#loc483 = loc("jit(training_step)/jit(main)/jvp(jit(forward))/integer_pow"(#loc431))
#loc498 = loc("jit(training_step)/jit(main)/jvp(jit(forward))/jit(_take)/pjit"(#loc413))
#loc525 = loc(callsite(#loc187 at #loc467))
#loc529 = loc("jit(training_step)/jit(main)/pjit"(#loc469))
#loc535 = loc(callsite(#loc212 at #loc482))
#loc536 = loc(callsite(#loc248 at #loc482))
#loc537 = loc(callsite(#loc249 at #loc482))
#loc547 = loc(callsite(#loc279 at #loc482))
#loc552 = loc("jit(training_step)/jit(main)/integer_pow"(#loc525))
#loc562 = loc(callsite(#loc220 at #loc535))
#loc564 = loc(callsite(#loc222 at #loc535))
#loc567 = loc(callsite(#loc223 at #loc537))
#loc592 = loc(callsite(#loc268 at #loc535))
#loc606 = loc(callsite(#loc223 at #loc536))
#loc611 = loc(callsite(#loc278 at #loc547))
#loc622 = loc("jit(training_step)/jit(main)/jvp(jit(forward))/pjit"(#loc562))
#loc625 = loc("jit(training_step)/jit(main)/jvp(jit(forward))/pjit"(#loc564))
#loc683 = loc("jit(training_step)/jit(main)/jvp(jit(forward))/while/body/pjit"(#loc564))
#loc724 = loc("jit(training_step)/jit(main)/jvp(jit(forward))/while/body/pjit"(#loc611))
#loc739 = loc("jit(training_step)/jit(main)/transpose(jvp(jit(forward)))/while/body/checkpoint/rematted_computation/integer_pow"(#loc567))
#loc803 = loc("jit(training_step)/jit(main)/transpose(jvp(jit(forward)))/while/body/checkpoint/rematted_computation/pjit"(#loc562))
#loc806 = loc("jit(training_step)/jit(main)/transpose(jvp(jit(forward)))/while/body/checkpoint/rematted_computation/pjit"(#loc564))
#loc814 = loc("jit(training_step)/jit(main)/transpose(jvp(jit(forward)))/while/body/checkpoint/rematted_computation/integer_pow"(#loc592))
#loc825 = loc("jit(training_step)/jit(main)/transpose(jvp(jit(forward)))/while/body/checkpoint/rematted_computation/integer_pow"(#loc606))
#loc843 = loc("jit(training_step)/jit(main)/transpose(jvp(jit(forward)))/while/body/checkpoint/rematted_computation/pjit"(#loc611))
module @jit_training_step attributes {mhlo.num_partitions = 2 : i32, mhlo.num_replicas = 1 : i32} {
  func.func public @main(%arg0: tensor<8x32xi32> {mhlo.sharding = "{replicated}"} loc("model_params.model.embed_tokens.weight"), %arg1: tensor<8x32xi32> {mhlo.sharding = "{replicated}"} loc("model_params.model.layers.self_attn.q_proj.weight"), %arg2: tensor<8x32xi32> {mhlo.sharding = "{replicated}"} loc("model_params.model.layers.self_attn.q_proj.lora_A"), %arg3: tensor<128256x2048xf32> {mhlo.sharding = "{devices=[2,1]<=[2]}"} loc("model_params.model.layers.self_attn.k_proj.lora_A"), %arg4: tensor<16x2048x2048xbf16> {mhlo.sharding = "{devices=[1,2,1]<=[2]}"} loc("model_params.model.layers.self_attn.k_proj.lora_B"), %arg5: tensor<16x2048x16xbf16> loc("model_params.model.layers.self_attn.v_proj.weight"), %arg6: tensor<16x16x2048xbf16> loc("model_params.model.layers.self_attn.v_proj.lora_A"), %arg7: tensor<16x512x2048xbf16> {mhlo.sharding = "{devices=[1,2,1]<=[2]}"} loc("model_params.model.layers.self_attn.v_proj.lora_B"), %arg8: tensor<16x2048x16xbf16> loc("model_params.model.layers.self_attn.o_proj.weight"), %arg9: tensor<16x16x512xbf16> loc("model_params.model.layers.self_attn.o_proj.lora_A"), %arg10: tensor<16x512x2048xbf16> {mhlo.sharding = "{devices=[1,2,1]<=[2]}"} loc("model_params.model.layers.self_attn.o_proj.lora_B"), %arg11: tensor<16x2048x16xbf16> loc("model_params.model.layers.self_attn.rotary_emb.inv_freq"), %arg12: tensor<16x16x512xbf16> loc("model_params.model.layers.mlp.gate_proj.weight"), %arg13: tensor<16x2048x2048xbf16> {mhlo.sharding = "{devices=[1,2,1]<=[2]}"} loc("model_params.model.layers.mlp.gate_proj.lora_A"), %arg14: tensor<16x2048x16xbf16> loc("model_params.model.layers.mlp.gate_proj.lora_B"), %arg15: tensor<16x16x2048xbf16> loc("model_params.model.layers.mlp.up_proj.weight"), %arg16: tensor<16x32xf32> loc("model_params.model.layers.mlp.up_proj.lora_A"), %arg17: tensor<16x8192x2048xbf16> {mhlo.sharding = "{devices=[1,2,1]<=[2]}"} loc("model_params.model.layers.mlp.up_proj.lora_B"), %arg18: tensor<16x2048x16xbf16> loc("model_params.model.layers.mlp.down_proj.weight"), %arg19: tensor<16x16x8192xbf16> loc("model_params.model.layers.mlp.down_proj.lora_A"), %arg20: tensor<16x8192x2048xbf16> {mhlo.sharding = "{devices=[1,2,1]<=[2]}"} loc("model_params.model.layers.mlp.down_proj.lora_B"), %arg21: tensor<16x2048x16xbf16> loc("model_params.model.layers.input_layernorm.weight"), %arg22: tensor<16x16x8192xbf16> loc("model_params.model.layers.post_attention_layernorm.weight"), %arg23: tensor<16x2048x8192xbf16> {mhlo.sharding = "{devices=[1,2,1]<=[2]}"} loc("model_params.model.norm.weight"), %arg24: tensor<16x8192x16xbf16> loc("model_params.lm_head.weight"), %arg25: tensor<16x16x2048xbf16> loc("model_params.lm_head.lora_A"), %arg26: tensor<16x2048xf32> {mhlo.sharding = "{replicated}"} loc("model_params.lm_head.lora_B"), %arg27: tensor<16x2048xf32> {mhlo.sharding = "{replicated}"} loc("optimizer_state[1][0].count"), %arg28: tensor<2048xf32> {mhlo.sharding = "{replicated}"} loc("optimizer_state[1][0].mu.model.layers.self_attn.q_proj.lora_A"), %arg29: tensor<128256x2048xbf16> {mhlo.sharding = "{devices=[2,1]<=[2]}"} loc("optimizer_state[1][0].mu.model.layers.self_attn.q_proj.lora_B"), %arg30: tensor<2048x16xbf16> loc("optimizer_state[1][0].mu.model.layers.self_attn.k_proj.lora_A"), %arg31: tensor<16x128256xbf16> loc("optimizer_state[1][0].mu.model.layers.self_attn.k_proj.lora_B"), %arg32: tensor<i32> {mhlo.sharding = "{replicated}"} loc("optimizer_state[1][0].mu.model.layers.self_attn.v_proj.lora_A"), %arg33: tensor<16x2048x16xbf16> {mhlo.sharding = "{replicated}"} loc("optimizer_state[1][0].mu.model.layers.self_attn.v_proj.lora_B"), %arg34: tensor<16x16x2048xbf16> {mhlo.sharding = "{replicated}"} loc("optimizer_state[1][0].mu.model.layers.self_attn.o_proj.lora_A"), %arg35: tensor<16x2048x16xbf16> {mhlo.sharding = "{replicated}"} loc("optimizer_state[1][0].mu.model.layers.self_attn.o_proj.lora_B"), %arg36: tensor<16x16x512xbf16> {mhlo.sharding = "{replicated}"} loc("optimizer_state[1][0].mu.model.layers.mlp.gate_proj.lora_A"), %arg37: tensor<16x2048x16xbf16> {mhlo.sharding = "{replicated}"} loc("optimizer_state[1][0].mu.model.layers.mlp.gate_proj.lora_B"), %arg38: tensor<16x16x512xbf16> {mhlo.sharding = "{replicated}"} loc("optimizer_state[1][0].mu.model.layers.mlp.up_proj.lora_A"), %arg39: tensor<16x2048x16xbf16> {mhlo.sharding = "{replicated}"} loc("optimizer_state[1][0].mu.model.layers.mlp.up_proj.lora_B"), %arg40: tensor<16x16x2048xbf16> {mhlo.sharding = "{replicated}"} loc("optimizer_state[1][0].mu.model.layers.mlp.down_proj.lora_A"), %arg41: tensor<16x2048x16xbf16> {mhlo.sharding = "{replicated}"} loc("optimizer_state[1][0].mu.model.layers.mlp.down_proj.lora_B"), %arg42: tensor<16x16x8192xbf16> {mhlo.sharding = "{replicated}"} loc("optimizer_state[1][0].mu.lm_head.lora_A"), %arg43: tensor<16x2048x16xbf16> {mhlo.sharding = "{replicated}"} loc("optimizer_state[1][0].mu.lm_head.lora_B"), %arg44: tensor<16x16x8192xbf16> {mhlo.sharding = "{replicated}"} loc("optimizer_state[1][0].nu.model.layers.self_attn.q_proj.lora_A"), %arg45: tensor<16x8192x16xbf16> {mhlo.sharding = "{replicated}"} loc("optimizer_state[1][0].nu.model.layers.self_attn.q_proj.lora_B"), %arg46: tensor<16x16x2048xbf16> {mhlo.sharding = "{replicated}"} loc("optimizer_state[1][0].nu.model.layers.self_attn.k_proj.lora_A"), %arg47: tensor<2048x16xbf16> {mhlo.sharding = "{replicated}"} loc("optimizer_state[1][0].nu.model.layers.self_attn.k_proj.lora_B"), %arg48: tensor<16x128256xbf16> {mhlo.sharding = "{replicated}"} loc("optimizer_state[1][0].nu.model.layers.self_attn.v_proj.lora_A"), %arg49: tensor<16x2048x16xbf16> {mhlo.sharding = "{replicated}"} loc("optimizer_state[1][0].nu.model.layers.self_attn.v_proj.lora_B"), %arg50: tensor<16x16x2048xbf16> {mhlo.sharding = "{replicated}"} loc("optimizer_state[1][0].nu.model.layers.self_attn.o_proj.lora_A"), %arg51: tensor<16x2048x16xbf16> {mhlo.sharding = "{replicated}"} loc("optimizer_state[1][0].nu.model.layers.self_attn.o_proj.lora_B"), %arg52: tensor<16x16x512xbf16> {mhlo.sharding = "{replicated}"} loc("optimizer_state[1][0].nu.model.layers.mlp.gate_proj.lora_A"), %arg53: tensor<16x2048x16xbf16> {mhlo.sharding = "{replicated}"} loc("optimizer_state[1][0].nu.model.layers.mlp.gate_proj.lora_B"), %arg54: tensor<16x16x512xbf16> {mhlo.sharding = "{replicated}"} loc("optimizer_state[1][0].nu.model.layers.mlp.up_proj.lora_A"), %arg55: tensor<16x2048x16xbf16> {mhlo.sharding = "{replicated}"} loc("optimizer_state[1][0].nu.model.layers.mlp.up_proj.lora_B"), %arg56: tensor<16x16x2048xbf16> {mhlo.sharding = "{replicated}"} loc("optimizer_state[1][0].nu.model.layers.mlp.down_proj.lora_A"), %arg57: tensor<16x2048x16xbf16> {mhlo.sharding = "{replicated}"} loc("optimizer_state[1][0].nu.model.layers.mlp.down_proj.lora_B"), %arg58: tensor<16x16x8192xbf16> {mhlo.sharding = "{replicated}"} loc("optimizer_state[1][0].nu.lm_head.lora_A"), %arg59: tensor<16x2048x16xbf16> {mhlo.sharding = "{replicated}"} loc("optimizer_state[1][0].nu.lm_head.lora_B"), %arg60: tensor<16x16x8192xbf16> {mhlo.sharding = "{replicated}"} loc("batch['input_ids']"), %arg61: tensor<16x8192x16xbf16> {mhlo.sharding = "{replicated}"} loc("batch['labels']"), %arg62: tensor<16x16x2048xbf16> {mhlo.sharding = "{replicated}"} loc("batch['position_ids']"), %arg63: tensor<2048x16xbf16> {mhlo.sharding = "{replicated}"} loc("batch['prompt_length']"), %arg64: tensor<16x128256xbf16> {mhlo.sharding = "{replicated}"} loc("batch['response_length']")) -> (tensor<f32> {jax.result_info = "[0]"}, tensor<f32> {jax.result_info = "[1][0]"}, tensor<128256x2048xf32> {jax.result_info = "[1][1].model.embed_tokens.weight"}, tensor<16x2048x2048xbf16> {jax.result_info = "[1][1].model.layers.self_attn.q_proj.weight"}, tensor<16x2048x16xbf16> {jax.result_info = "[1][1].model.layers.self_attn.q_proj.lora_A"}, tensor<16x16x2048xbf16> {jax.result_info = "[1][1].model.layers.self_attn.q_proj.lora_B"}, tensor<16x512x2048xbf16> {jax.result_info = "[1][1].model.layers.self_attn.k_proj.weight"}, tensor<16x2048x16xbf16> {jax.result_info = "[1][1].model.layers.self_attn.k_proj.lora_A"}, tensor<16x16x512xbf16> {jax.result_info = "[1][1].model.layers.self_attn.k_proj.lora_B"}, tensor<16x512x2048xbf16> {jax.result_info = "[1][1].model.layers.self_attn.v_proj.weight"}, tensor<16x2048x16xbf16> {jax.result_info = "[1][1].model.layers.self_attn.v_proj.lora_A"}, tensor<16x16x512xbf16> {jax.result_info = "[1][1].model.layers.self_attn.v_proj.lora_B"}, tensor<16x2048x2048xbf16> {jax.result_info = "[1][1].model.layers.self_attn.o_proj.weight"}, tensor<16x2048x16xbf16> {jax.result_info = "[1][1].model.layers.self_attn.o_proj.lora_A"}, tensor<16x16x2048xbf16> {jax.result_info = "[1][1].model.layers.self_attn.o_proj.lora_B"}, tensor<16x32xf32> {jax.result_info = "[1][1].model.layers.self_attn.rotary_emb.inv_freq"}, tensor<16x8192x2048xbf16> {jax.result_info = "[1][1].model.layers.mlp.gate_proj.weight"}, tensor<16x2048x16xbf16> {jax.result_info = "[1][1].model.layers.mlp.gate_proj.lora_A"}, tensor<16x16x8192xbf16> {jax.result_info = "[1][1].model.layers.mlp.gate_proj.lora_B"}, tensor<16x8192x2048xbf16> {jax.result_info = "[1][1].model.layers.mlp.up_proj.weight"}, tensor<16x2048x16xbf16> {jax.result_info = "[1][1].model.layers.mlp.up_proj.lora_A"}, tensor<16x16x8192xbf16> {jax.result_info = "[1][1].model.layers.mlp.up_proj.lora_B"}, tensor<16x2048x8192xbf16> {jax.result_info = "[1][1].model.layers.mlp.down_proj.weight"}, tensor<16x8192x16xbf16> {jax.result_info = "[1][1].model.layers.mlp.down_proj.lora_A"}, tensor<16x16x2048xbf16> {jax.result_info = "[1][1].model.layers.mlp.down_proj.lora_B"}, tensor<16x2048xf32> {jax.result_info = "[1][1].model.layers.input_layernorm.weight"}, tensor<16x2048xf32> {jax.result_info = "[1][1].model.layers.post_attention_layernorm.weight"}, tensor<2048xf32> {jax.result_info = "[1][1].model.norm.weight"}, tensor<128256x2048xbf16> {jax.result_info = "[1][1].lm_head.weight"}, tensor<2048x16xbf16> {jax.result_info = "[1][1].lm_head.lora_A"}, tensor<16x128256xbf16> {jax.result_info = "[1][1].lm_head.lora_B"}, tensor<i32> {jax.result_info = "[1][2][1][0].count"}, tensor<16x2048x16xbf16> {jax.result_info = "[1][2][1][0].mu.model.layers.self_attn.q_proj.lora_A"}, tensor<16x16x2048xbf16> {jax.result_info = "[1][2][1][0].mu.model.layers.self_attn.q_proj.lora_B"}, tensor<16x2048x16xbf16> {jax.result_info = "[1][2][1][0].mu.model.layers.self_attn.k_proj.lora_A"}, tensor<16x16x512xbf16> {jax.result_info = "[1][2][1][0].mu.model.layers.self_attn.k_proj.lora_B"}, tensor<16x2048x16xbf16> {jax.result_info = "[1][2][1][0].mu.model.layers.self_attn.v_proj.lora_A"}, tensor<16x16x512xbf16> {jax.result_info = "[1][2][1][0].mu.model.layers.self_attn.v_proj.lora_B"}, tensor<16x2048x16xbf16> {jax.result_info = "[1][2][1][0].mu.model.layers.self_attn.o_proj.lora_A"}, tensor<16x16x2048xbf16> {jax.result_info = "[1][2][1][0].mu.model.layers.self_attn.o_proj.lora_B"}, tensor<16x2048x16xbf16> {jax.result_info = "[1][2][1][0].mu.model.layers.mlp.gate_proj.lora_A"}, tensor<16x16x8192xbf16> {jax.result_info = "[1][2][1][0].mu.model.layers.mlp.gate_proj.lora_B"}, tensor<16x2048x16xbf16> {jax.result_info = "[1][2][1][0].mu.model.layers.mlp.up_proj.lora_A"}, tensor<16x16x8192xbf16> {jax.result_info = "[1][2][1][0].mu.model.layers.mlp.up_proj.lora_B"}, tensor<16x8192x16xbf16> {jax.result_info = "[1][2][1][0].mu.model.layers.mlp.down_proj.lora_A"}, tensor<16x16x2048xbf16> {jax.result_info = "[1][2][1][0].mu.model.layers.mlp.down_proj.lora_B"}, tensor<2048x16xbf16> {jax.result_info = "[1][2][1][0].mu.lm_head.lora_A"}, tensor<16x128256xbf16> {jax.result_info = "[1][2][1][0].mu.lm_head.lora_B"}, tensor<16x2048x16xbf16> {jax.result_info = "[1][2][1][0].nu.model.layers.self_attn.q_proj.lora_A"}, tensor<16x16x2048xbf16> {jax.result_info = "[1][2][1][0].nu.model.layers.self_attn.q_proj.lora_B"}, tensor<16x2048x16xbf16> {jax.result_info = "[1][2][1][0].nu.model.layers.self_attn.k_proj.lora_A"}, tensor<16x16x512xbf16> {jax.result_info = "[1][2][1][0].nu.model.layers.self_attn.k_proj.lora_B"}, tensor<16x2048x16xbf16> {jax.result_info = "[1][2][1][0].nu.model.layers.self_attn.v_proj.lora_A"}, tensor<16x16x512xbf16> {jax.result_info = "[1][2][1][0].nu.model.layers.self_attn.v_proj.lora_B"}, tensor<16x2048x16xbf16> {jax.result_info = "[1][2][1][0].nu.model.layers.self_attn.o_proj.lora_A"}, tensor<16x16x2048xbf16> {jax.result_info = "[1][2][1][0].nu.model.layers.self_attn.o_proj.lora_B"}, tensor<16x2048x16xbf16> {jax.result_info = "[1][2][1][0].nu.model.layers.mlp.gate_proj.lora_A"}, tensor<16x16x8192xbf16> {jax.result_info = "[1][2][1][0].nu.model.layers.mlp.gate_proj.lora_B"}, tensor<16x2048x16xbf16> {jax.result_info = "[1][2][1][0].nu.model.layers.mlp.up_proj.lora_A"}, tensor<16x16x8192xbf16> {jax.result_info = "[1][2][1][0].nu.model.layers.mlp.up_proj.lora_B"}, tensor<16x8192x16xbf16> {jax.result_info = "[1][2][1][0].nu.model.layers.mlp.down_proj.lora_A"}, tensor<16x16x2048xbf16> {jax.result_info = "[1][2][1][0].nu.model.layers.mlp.down_proj.lora_B"}, tensor<2048x16xbf16> {jax.result_info = "[1][2][1][0].nu.lm_head.lora_A"}, tensor<16x128256xbf16> {jax.result_info = "[1][2][1][0].nu.lm_head.lora_B"}) {
    %0:16 = call @forward(%arg3, %arg4, %arg5, %arg6, %arg7, %arg8, %arg9, %arg10, %arg11, %arg12, %arg13, %arg14, %arg15, %arg16, %arg17, %arg18, %arg19, %arg20, %arg21, %arg22, %arg23, %arg24, %arg25, %arg26, %arg27, %arg28, %arg29, %arg30, %arg31, %arg0, %arg1, %arg2) : (tensor<128256x2048xf32>, tensor<16x2048x2048xbf16>, tensor<16x2048x16xbf16>, tensor<16x16x2048xbf16>, tensor<16x512x2048xbf16>, tensor<16x2048x16xbf16>, tensor<16x16x512xbf16>, tensor<16x512x2048xbf16>, tensor<16x2048x16xbf16>, tensor<16x16x512xbf16>, tensor<16x2048x2048xbf16>, tensor<16x2048x16xbf16>, tensor<16x16x2048xbf16>, tensor<16x32xf32>, tensor<16x8192x2048xbf16>, tensor<16x2048x16xbf16>, tensor<16x16x8192xbf16>, tensor<16x8192x2048xbf16>, tensor<16x2048x16xbf16>, tensor<16x16x8192xbf16>, tensor<16x2048x8192xbf16>, tensor<16x8192x16xbf16>, tensor<16x16x2048xbf16>, tensor<16x2048xf32>, tensor<16x2048xf32>, tensor<2048xf32>, tensor<128256x2048xbf16>, tensor<2048x16xbf16>, tensor<16x128256xbf16>, tensor<8x32xi32>, tensor<8x32xi32>, tensor<8x32xi32>) -> (tensor<f32>, tensor<f32>, tensor<1x1x2048xbf16>, tensor<16x8x32x2048xbf16>, tensor<8x32x1xbf16>, tensor<8x32x2048xbf16>, tensor<8x32x2048xbf16>, tensor<8x32x1xbf16>, tensor<2048x128256xbf16>, tensor<8x32x2048xbf16>, tensor<8x32x16xbf16>, tensor<248x128256xf32>, tensor<248x1xf32>, tensor<248x2xi32>, tensor<248xf32>, tensor<8xf32>) loc(#loc292)
    %cst = stablehlo.constant dense<1.000000e+00> : tensor<f32> loc(#loc)
    %1:16 = call @forward_2(%0#2, %arg2, %arg26, %arg4, %arg5, %arg6, %arg7, %arg8, %arg9, %arg10, %arg11, %arg12, %arg16, %arg13, %arg14, %arg15, %arg27, %arg17, %arg18, %arg19, %arg20, %arg21, %arg22, %arg23, %arg24, %arg25, %0#3, %0#4, %0#5, %0#6, %0#7, %0#8, %0#9, %arg30, %arg31, %0#10, %0#11, %0#12, %0#13, %0#14, %0#15, %cst) : (tensor<1x1x2048xbf16>, tensor<8x32xi32>, tensor<16x2048xf32>, tensor<16x2048x2048xbf16>, tensor<16x2048x16xbf16>, tensor<16x16x2048xbf16>, tensor<16x512x2048xbf16>, tensor<16x2048x16xbf16>, tensor<16x16x512xbf16>, tensor<16x512x2048xbf16>, tensor<16x2048x16xbf16>, tensor<16x16x512xbf16>, tensor<16x32xf32>, tensor<16x2048x2048xbf16>, tensor<16x2048x16xbf16>, tensor<16x16x2048xbf16>, tensor<16x2048xf32>, tensor<16x8192x2048xbf16>, tensor<16x2048x16xbf16>, tensor<16x16x8192xbf16>, tensor<16x8192x2048xbf16>, tensor<16x2048x16xbf16>, tensor<16x16x8192xbf16>, tensor<16x2048x8192xbf16>, tensor<16x8192x16xbf16>, tensor<16x16x2048xbf16>, tensor<16x8x32x2048xbf16>, tensor<8x32x1xbf16>, tensor<8x32x2048xbf16>, tensor<8x32x2048xbf16>, tensor<8x32x1xbf16>, tensor<2048x128256xbf16>, tensor<8x32x2048xbf16>, tensor<2048x16xbf16>, tensor<16x128256xbf16>, tensor<8x32x16xbf16>, tensor<248x128256xf32>, tensor<248x1xf32>, tensor<248x2xi32>, tensor<248xf32>, tensor<8xf32>, tensor<f32>) -> (tensor<16x2048x16xbf16>, tensor<16x16x2048xbf16>, tensor<16x2048x16xbf16>, tensor<16x16x512xbf16>, tensor<16x2048x16xbf16>, tensor<16x16x512xbf16>, tensor<16x2048x16xbf16>, tensor<16x16x2048xbf16>, tensor<16x2048x16xbf16>, tensor<16x16x8192xbf16>, tensor<16x2048x16xbf16>, tensor<16x16x8192xbf16>, tensor<16x8192x16xbf16>, tensor<16x16x2048xbf16>, tensor<2048x16xbf16>, tensor<16x128256xbf16>) loc(#loc292)
    %2 = stablehlo.multiply %1#0, %1#0 : tensor<16x2048x16xbf16> loc(#loc551)
    %3 = stablehlo.convert %2 : (tensor<16x2048x16xbf16>) -> tensor<16x2048x16xf32> loc(#loc523)
    %cst_0 = stablehlo.constant dense<0.000000e+00> : tensor<f32> loc(#loc524)
    %4 = stablehlo.reduce(%3 init: %cst_0) applies stablehlo.add across dimensions = [0, 1, 2] : (tensor<16x2048x16xf32>, tensor<f32>) -> tensor<f32> loc(#loc524)
    %5 = stablehlo.convert %4 : (tensor<f32>) -> tensor<bf16> loc(#loc523)
    %cst_1 = stablehlo.constant dense<0.000000e+00> : tensor<bf16> loc(#loc)
    %6 = stablehlo.add %cst_1, %5 : tensor<bf16> loc(#loc462)
    %7 = stablehlo.multiply %1#1, %1#1 : tensor<16x16x2048xbf16> loc(#loc551)
    %8 = stablehlo.convert %7 : (tensor<16x16x2048xbf16>) -> tensor<16x16x2048xf32> loc(#loc523)
    %cst_2 = stablehlo.constant dense<0.000000e+00> : tensor<f32> loc(#loc524)
    %9 = stablehlo.reduce(%8 init: %cst_2) applies stablehlo.add across dimensions = [0, 1, 2] : (tensor<16x16x2048xf32>, tensor<f32>) -> tensor<f32> loc(#loc524)
    %10 = stablehlo.convert %9 : (tensor<f32>) -> tensor<bf16> loc(#loc523)
    %11 = stablehlo.add %6, %10 : tensor<bf16> loc(#loc462)
    %12 = stablehlo.multiply %1#2, %1#2 : tensor<16x2048x16xbf16> loc(#loc551)
    %13 = stablehlo.convert %12 : (tensor<16x2048x16xbf16>) -> tensor<16x2048x16xf32> loc(#loc523)
    %cst_3 = stablehlo.constant dense<0.000000e+00> : tensor<f32> loc(#loc524)
    %14 = stablehlo.reduce(%13 init: %cst_3) applies stablehlo.add across dimensions = [0, 1, 2] : (tensor<16x2048x16xf32>, tensor<f32>) -> tensor<f32> loc(#loc524)
    %15 = stablehlo.convert %14 : (tensor<f32>) -> tensor<bf16> loc(#loc523)
    %16 = stablehlo.add %11, %15 : tensor<bf16> loc(#loc462)
    %17 = stablehlo.multiply %1#3, %1#3 : tensor<16x16x512xbf16> loc(#loc551)
    %18 = stablehlo.convert %17 : (tensor<16x16x512xbf16>) -> tensor<16x16x512xf32> loc(#loc523)
    %cst_4 = stablehlo.constant dense<0.000000e+00> : tensor<f32> loc(#loc524)
    %19 = stablehlo.reduce(%18 init: %cst_4) applies stablehlo.add across dimensions = [0, 1, 2] : (tensor<16x16x512xf32>, tensor<f32>) -> tensor<f32> loc(#loc524)
    %20 = stablehlo.convert %19 : (tensor<f32>) -> tensor<bf16> loc(#loc523)
    %21 = stablehlo.add %16, %20 : tensor<bf16> loc(#loc462)
    %22 = stablehlo.multiply %1#4, %1#4 : tensor<16x2048x16xbf16> loc(#loc551)
    %23 = stablehlo.convert %22 : (tensor<16x2048x16xbf16>) -> tensor<16x2048x16xf32> loc(#loc523)
    %cst_5 = stablehlo.constant dense<0.000000e+00> : tensor<f32> loc(#loc524)
    %24 = stablehlo.reduce(%23 init: %cst_5) applies stablehlo.add across dimensions = [0, 1, 2] : (tensor<16x2048x16xf32>, tensor<f32>) -> tensor<f32> loc(#loc524)
    %25 = stablehlo.convert %24 : (tensor<f32>) -> tensor<bf16> loc(#loc523)
    %26 = stablehlo.add %21, %25 : tensor<bf16> loc(#loc462)
    %27 = stablehlo.multiply %1#5, %1#5 : tensor<16x16x512xbf16> loc(#loc551)
    %28 = stablehlo.convert %27 : (tensor<16x16x512xbf16>) -> tensor<16x16x512xf32> loc(#loc523)
    %cst_6 = stablehlo.constant dense<0.000000e+00> : tensor<f32> loc(#loc524)
    %29 = stablehlo.reduce(%28 init: %cst_6) applies stablehlo.add across dimensions = [0, 1, 2] : (tensor<16x16x512xf32>, tensor<f32>) -> tensor<f32> loc(#loc524)
    %30 = stablehlo.convert %29 : (tensor<f32>) -> tensor<bf16> loc(#loc523)
    %31 = stablehlo.add %26, %30 : tensor<bf16> loc(#loc462)
    %32 = stablehlo.multiply %1#6, %1#6 : tensor<16x2048x16xbf16> loc(#loc551)
    %33 = stablehlo.convert %32 : (tensor<16x2048x16xbf16>) -> tensor<16x2048x16xf32> loc(#loc523)
    %cst_7 = stablehlo.constant dense<0.000000e+00> : tensor<f32> loc(#loc524)
    %34 = stablehlo.reduce(%33 init: %cst_7) applies stablehlo.add across dimensions = [0, 1, 2] : (tensor<16x2048x16xf32>, tensor<f32>) -> tensor<f32> loc(#loc524)
    %35 = stablehlo.convert %34 : (tensor<f32>) -> tensor<bf16> loc(#loc523)
    %36 = stablehlo.add %31, %35 : tensor<bf16> loc(#loc462)
    %37 = stablehlo.multiply %1#7, %1#7 : tensor<16x16x2048xbf16> loc(#loc551)
    %38 = stablehlo.convert %37 : (tensor<16x16x2048xbf16>) -> tensor<16x16x2048xf32> loc(#loc523)
    %cst_8 = stablehlo.constant dense<0.000000e+00> : tensor<f32> loc(#loc524)
    %39 = stablehlo.reduce(%38 init: %cst_8) applies stablehlo.add across dimensions = [0, 1, 2] : (tensor<16x16x2048xf32>, tensor<f32>) -> tensor<f32> loc(#loc524)
    %40 = stablehlo.convert %39 : (tensor<f32>) -> tensor<bf16> loc(#loc523)
    %41 = stablehlo.add %36, %40 : tensor<bf16> loc(#loc462)
    %42 = stablehlo.multiply %1#8, %1#8 : tensor<16x2048x16xbf16> loc(#loc551)
    %43 = stablehlo.convert %42 : (tensor<16x2048x16xbf16>) -> tensor<16x2048x16xf32> loc(#loc523)
    %cst_9 = stablehlo.constant dense<0.000000e+00> : tensor<f32> loc(#loc524)
    %44 = stablehlo.reduce(%43 init: %cst_9) applies stablehlo.add across dimensions = [0, 1, 2] : (tensor<16x2048x16xf32>, tensor<f32>) -> tensor<f32> loc(#loc524)
    %45 = stablehlo.convert %44 : (tensor<f32>) -> tensor<bf16> loc(#loc523)
    %46 = stablehlo.add %41, %45 : tensor<bf16> loc(#loc462)
    %47 = stablehlo.multiply %1#9, %1#9 : tensor<16x16x8192xbf16> loc(#loc551)
    %48 = stablehlo.convert %47 : (tensor<16x16x8192xbf16>) -> tensor<16x16x8192xf32> loc(#loc523)
    %cst_10 = stablehlo.constant dense<0.000000e+00> : tensor<f32> loc(#loc524)
    %49 = stablehlo.reduce(%48 init: %cst_10) applies stablehlo.add across dimensions = [0, 1, 2] : (tensor<16x16x8192xf32>, tensor<f32>) -> tensor<f32> loc(#loc524)
    %50 = stablehlo.convert %49 : (tensor<f32>) -> tensor<bf16> loc(#loc523)
    %51 = stablehlo.add %46, %50 : tensor<bf16> loc(#loc462)
    %52 = stablehlo.multiply %1#10, %1#10 : tensor<16x2048x16xbf16> loc(#loc551)
    %53 = stablehlo.convert %52 : (tensor<16x2048x16xbf16>) -> tensor<16x2048x16xf32> loc(#loc523)
    %cst_11 = stablehlo.constant dense<0.000000e+00> : tensor<f32> loc(#loc524)
    %54 = stablehlo.reduce(%53 init: %cst_11) applies stablehlo.add across dimensions = [0, 1, 2] : (tensor<16x2048x16xf32>, tensor<f32>) -> tensor<f32> loc(#loc524)
    %55 = stablehlo.convert %54 : (tensor<f32>) -> tensor<bf16> loc(#loc523)
    %56 = stablehlo.add %51, %55 : tensor<bf16> loc(#loc462)
    %57 = stablehlo.multiply %1#11, %1#11 : tensor<16x16x8192xbf16> loc(#loc551)
    %58 = stablehlo.convert %57 : (tensor<16x16x8192xbf16>) -> tensor<16x16x8192xf32> loc(#loc523)
    %cst_12 = stablehlo.constant dense<0.000000e+00> : tensor<f32> loc(#loc524)
    %59 = stablehlo.reduce(%58 init: %cst_12) applies stablehlo.add across dimensions = [0, 1, 2] : (tensor<16x16x8192xf32>, tensor<f32>) -> tensor<f32> loc(#loc524)
    %60 = stablehlo.convert %59 : (tensor<f32>) -> tensor<bf16> loc(#loc523)
    %61 = stablehlo.add %56, %60 : tensor<bf16> loc(#loc462)
    %62 = stablehlo.multiply %1#12, %1#12 : tensor<16x8192x16xbf16> loc(#loc551)
    %63 = stablehlo.convert %62 : (tensor<16x8192x16xbf16>) -> tensor<16x8192x16xf32> loc(#loc523)
    %cst_13 = stablehlo.constant dense<0.000000e+00> : tensor<f32> loc(#loc524)
    %64 = stablehlo.reduce(%63 init: %cst_13) applies stablehlo.add across dimensions = [0, 1, 2] : (tensor<16x8192x16xf32>, tensor<f32>) -> tensor<f32> loc(#loc524)
    %65 = stablehlo.convert %64 : (tensor<f32>) -> tensor<bf16> loc(#loc523)
    %66 = stablehlo.add %61, %65 : tensor<bf16> loc(#loc462)
    %67 = stablehlo.multiply %1#13, %1#13 : tensor<16x16x2048xbf16> loc(#loc551)
    %68 = stablehlo.convert %67 : (tensor<16x16x2048xbf16>) -> tensor<16x16x2048xf32> loc(#loc523)
    %cst_14 = stablehlo.constant dense<0.000000e+00> : tensor<f32> loc(#loc524)
    %69 = stablehlo.reduce(%68 init: %cst_14) applies stablehlo.add across dimensions = [0, 1, 2] : (tensor<16x16x2048xf32>, tensor<f32>) -> tensor<f32> loc(#loc524)
    %70 = stablehlo.convert %69 : (tensor<f32>) -> tensor<bf16> loc(#loc523)
    %71 = stablehlo.add %66, %70 : tensor<bf16> loc(#loc462)
    %72 = stablehlo.multiply %1#14, %1#14 : tensor<2048x16xbf16> loc(#loc551)
    %73 = stablehlo.convert %72 : (tensor<2048x16xbf16>) -> tensor<2048x16xf32> loc(#loc523)
    %cst_15 = stablehlo.constant dense<0.000000e+00> : tensor<f32> loc(#loc524)
    %74 = stablehlo.reduce(%73 init: %cst_15) applies stablehlo.add across dimensions = [0, 1] : (tensor<2048x16xf32>, tensor<f32>) -> tensor<f32> loc(#loc524)
    %75 = stablehlo.convert %74 : (tensor<f32>) -> tensor<bf16> loc(#loc523)
    %76 = stablehlo.add %71, %75 : tensor<bf16> loc(#loc462)
    %77 = stablehlo.multiply %1#15, %1#15 : tensor<16x128256xbf16> loc(#loc551)
    %78 = stablehlo.convert %77 : (tensor<16x128256xbf16>) -> tensor<16x128256xf32> loc(#loc523)
    %cst_16 = stablehlo.constant dense<0.000000e+00> : tensor<f32> loc(#loc524)
    %79 = stablehlo.reduce(%78 init: %cst_16) applies stablehlo.add across dimensions = [0, 1] : (tensor<16x128256xf32>, tensor<f32>) -> tensor<f32> loc(#loc524)
    %80 = stablehlo.convert %79 : (tensor<f32>) -> tensor<bf16> loc(#loc523)
    %81 = stablehlo.add %76, %80 : tensor<bf16> loc(#loc462)
    %82 = stablehlo.sqrt %81 : tensor<bf16> loc(#loc463)
    %cst_17 = stablehlo.constant dense<1.000000e+00> : tensor<bf16> loc(#loc)
    %83 = stablehlo.compare  LT, %82, %cst_17,  FLOAT : (tensor<bf16>, tensor<bf16>) -> tensor<i1> loc(#loc404)
    %84 = stablehlo.broadcast_in_dim %82, dims = [] : (tensor<bf16>) -> tensor<16x2048x16xbf16> loc(#loc464)
    %85 = stablehlo.divide %1#0, %84 : tensor<16x2048x16xbf16> loc(#loc464)
    %cst_18 = stablehlo.constant dense<1.000000e+00> : tensor<bf16> loc(#loc)
    %86 = stablehlo.broadcast_in_dim %cst_18, dims = [] : (tensor<bf16>) -> tensor<16x2048x16xbf16> loc(#loc465)
    %87 = stablehlo.multiply %85, %86 : tensor<16x2048x16xbf16> loc(#loc465)
    %88 = stablehlo.select %83, %1#0, %87 : tensor<i1>, tensor<16x2048x16xbf16> loc(#loc466)
    %89 = stablehlo.broadcast_in_dim %82, dims = [] : (tensor<bf16>) -> tensor<16x16x2048xbf16> loc(#loc464)
    %90 = stablehlo.divide %1#1, %89 : tensor<16x16x2048xbf16> loc(#loc464)
    %cst_19 = stablehlo.constant dense<1.000000e+00> : tensor<bf16> loc(#loc)
    %91 = stablehlo.broadcast_in_dim %cst_19, dims = [] : (tensor<bf16>) -> tensor<16x16x2048xbf16> loc(#loc465)
    %92 = stablehlo.multiply %90, %91 : tensor<16x16x2048xbf16> loc(#loc465)
    %93 = stablehlo.select %83, %1#1, %92 : tensor<i1>, tensor<16x16x2048xbf16> loc(#loc466)
    %94 = stablehlo.broadcast_in_dim %82, dims = [] : (tensor<bf16>) -> tensor<16x2048x16xbf16> loc(#loc464)
    %95 = stablehlo.divide %1#2, %94 : tensor<16x2048x16xbf16> loc(#loc464)
    %cst_20 = stablehlo.constant dense<1.000000e+00> : tensor<bf16> loc(#loc)
    %96 = stablehlo.broadcast_in_dim %cst_20, dims = [] : (tensor<bf16>) -> tensor<16x2048x16xbf16> loc(#loc465)
    %97 = stablehlo.multiply %95, %96 : tensor<16x2048x16xbf16> loc(#loc465)
    %98 = stablehlo.select %83, %1#2, %97 : tensor<i1>, tensor<16x2048x16xbf16> loc(#loc466)
    %99 = stablehlo.broadcast_in_dim %82, dims = [] : (tensor<bf16>) -> tensor<16x16x512xbf16> loc(#loc464)
    %100 = stablehlo.divide %1#3, %99 : tensor<16x16x512xbf16> loc(#loc464)
    %cst_21 = stablehlo.constant dense<1.000000e+00> : tensor<bf16> loc(#loc)
    %101 = stablehlo.broadcast_in_dim %cst_21, dims = [] : (tensor<bf16>) -> tensor<16x16x512xbf16> loc(#loc465)
    %102 = stablehlo.multiply %100, %101 : tensor<16x16x512xbf16> loc(#loc465)
    %103 = stablehlo.select %83, %1#3, %102 : tensor<i1>, tensor<16x16x512xbf16> loc(#loc466)
    %104 = stablehlo.broadcast_in_dim %82, dims = [] : (tensor<bf16>) -> tensor<16x2048x16xbf16> loc(#loc464)
    %105 = stablehlo.divide %1#4, %104 : tensor<16x2048x16xbf16> loc(#loc464)
    %cst_22 = stablehlo.constant dense<1.000000e+00> : tensor<bf16> loc(#loc)
    %106 = stablehlo.broadcast_in_dim %cst_22, dims = [] : (tensor<bf16>) -> tensor<16x2048x16xbf16> loc(#loc465)
    %107 = stablehlo.multiply %105, %106 : tensor<16x2048x16xbf16> loc(#loc465)
    %108 = stablehlo.select %83, %1#4, %107 : tensor<i1>, tensor<16x2048x16xbf16> loc(#loc466)
    %109 = stablehlo.broadcast_in_dim %82, dims = [] : (tensor<bf16>) -> tensor<16x16x512xbf16> loc(#loc464)
    %110 = stablehlo.divide %1#5, %109 : tensor<16x16x512xbf16> loc(#loc464)
    %cst_23 = stablehlo.constant dense<1.000000e+00> : tensor<bf16> loc(#loc)
    %111 = stablehlo.broadcast_in_dim %cst_23, dims = [] : (tensor<bf16>) -> tensor<16x16x512xbf16> loc(#loc465)
    %112 = stablehlo.multiply %110, %111 : tensor<16x16x512xbf16> loc(#loc465)
    %113 = stablehlo.select %83, %1#5, %112 : tensor<i1>, tensor<16x16x512xbf16> loc(#loc466)
    %114 = stablehlo.broadcast_in_dim %82, dims = [] : (tensor<bf16>) -> tensor<16x2048x16xbf16> loc(#loc464)
    %115 = stablehlo.divide %1#6, %114 : tensor<16x2048x16xbf16> loc(#loc464)
    %cst_24 = stablehlo.constant dense<1.000000e+00> : tensor<bf16> loc(#loc)
    %116 = stablehlo.broadcast_in_dim %cst_24, dims = [] : (tensor<bf16>) -> tensor<16x2048x16xbf16> loc(#loc465)
    %117 = stablehlo.multiply %115, %116 : tensor<16x2048x16xbf16> loc(#loc465)
    %118 = stablehlo.select %83, %1#6, %117 : tensor<i1>, tensor<16x2048x16xbf16> loc(#loc466)
    %119 = stablehlo.broadcast_in_dim %82, dims = [] : (tensor<bf16>) -> tensor<16x16x2048xbf16> loc(#loc464)
    %120 = stablehlo.divide %1#7, %119 : tensor<16x16x2048xbf16> loc(#loc464)
    %cst_25 = stablehlo.constant dense<1.000000e+00> : tensor<bf16> loc(#loc)
    %121 = stablehlo.broadcast_in_dim %cst_25, dims = [] : (tensor<bf16>) -> tensor<16x16x2048xbf16> loc(#loc465)
    %122 = stablehlo.multiply %120, %121 : tensor<16x16x2048xbf16> loc(#loc465)
    %123 = stablehlo.select %83, %1#7, %122 : tensor<i1>, tensor<16x16x2048xbf16> loc(#loc466)
    %124 = stablehlo.broadcast_in_dim %82, dims = [] : (tensor<bf16>) -> tensor<16x2048x16xbf16> loc(#loc464)
    %125 = stablehlo.divide %1#8, %124 : tensor<16x2048x16xbf16> loc(#loc464)
    %cst_26 = stablehlo.constant dense<1.000000e+00> : tensor<bf16> loc(#loc)
    %126 = stablehlo.broadcast_in_dim %cst_26, dims = [] : (tensor<bf16>) -> tensor<16x2048x16xbf16> loc(#loc465)
    %127 = stablehlo.multiply %125, %126 : tensor<16x2048x16xbf16> loc(#loc465)
    %128 = stablehlo.select %83, %1#8, %127 : tensor<i1>, tensor<16x2048x16xbf16> loc(#loc466)
    %129 = stablehlo.broadcast_in_dim %82, dims = [] : (tensor<bf16>) -> tensor<16x16x8192xbf16> loc(#loc464)
    %130 = stablehlo.divide %1#9, %129 : tensor<16x16x8192xbf16> loc(#loc464)
    %cst_27 = stablehlo.constant dense<1.000000e+00> : tensor<bf16> loc(#loc)
    %131 = stablehlo.broadcast_in_dim %cst_27, dims = [] : (tensor<bf16>) -> tensor<16x16x8192xbf16> loc(#loc465)
    %132 = stablehlo.multiply %130, %131 : tensor<16x16x8192xbf16> loc(#loc465)
    %133 = stablehlo.select %83, %1#9, %132 : tensor<i1>, tensor<16x16x8192xbf16> loc(#loc466)
    %134 = stablehlo.broadcast_in_dim %82, dims = [] : (tensor<bf16>) -> tensor<16x2048x16xbf16> loc(#loc464)
    %135 = stablehlo.divide %1#10, %134 : tensor<16x2048x16xbf16> loc(#loc464)
    %cst_28 = stablehlo.constant dense<1.000000e+00> : tensor<bf16> loc(#loc)
    %136 = stablehlo.broadcast_in_dim %cst_28, dims = [] : (tensor<bf16>) -> tensor<16x2048x16xbf16> loc(#loc465)
    %137 = stablehlo.multiply %135, %136 : tensor<16x2048x16xbf16> loc(#loc465)
    %138 = stablehlo.select %83, %1#10, %137 : tensor<i1>, tensor<16x2048x16xbf16> loc(#loc466)
    %139 = stablehlo.broadcast_in_dim %82, dims = [] : (tensor<bf16>) -> tensor<16x16x8192xbf16> loc(#loc464)
    %140 = stablehlo.divide %1#11, %139 : tensor<16x16x8192xbf16> loc(#loc464)
    %cst_29 = stablehlo.constant dense<1.000000e+00> : tensor<bf16> loc(#loc)
    %141 = stablehlo.broadcast_in_dim %cst_29, dims = [] : (tensor<bf16>) -> tensor<16x16x8192xbf16> loc(#loc465)
    %142 = stablehlo.multiply %140, %141 : tensor<16x16x8192xbf16> loc(#loc465)
    %143 = stablehlo.select %83, %1#11, %142 : tensor<i1>, tensor<16x16x8192xbf16> loc(#loc466)
    %144 = stablehlo.broadcast_in_dim %82, dims = [] : (tensor<bf16>) -> tensor<16x8192x16xbf16> loc(#loc464)
    %145 = stablehlo.divide %1#12, %144 : tensor<16x8192x16xbf16> loc(#loc464)
    %cst_30 = stablehlo.constant dense<1.000000e+00> : tensor<bf16> loc(#loc)
    %146 = stablehlo.broadcast_in_dim %cst_30, dims = [] : (tensor<bf16>) -> tensor<16x8192x16xbf16> loc(#loc465)
    %147 = stablehlo.multiply %145, %146 : tensor<16x8192x16xbf16> loc(#loc465)
    %148 = stablehlo.select %83, %1#12, %147 : tensor<i1>, tensor<16x8192x16xbf16> loc(#loc466)
    %149 = stablehlo.broadcast_in_dim %82, dims = [] : (tensor<bf16>) -> tensor<16x16x2048xbf16> loc(#loc464)
    %150 = stablehlo.divide %1#13, %149 : tensor<16x16x2048xbf16> loc(#loc464)
    %cst_31 = stablehlo.constant dense<1.000000e+00> : tensor<bf16> loc(#loc)
    %151 = stablehlo.broadcast_in_dim %cst_31, dims = [] : (tensor<bf16>) -> tensor<16x16x2048xbf16> loc(#loc465)
    %152 = stablehlo.multiply %150, %151 : tensor<16x16x2048xbf16> loc(#loc465)
    %153 = stablehlo.select %83, %1#13, %152 : tensor<i1>, tensor<16x16x2048xbf16> loc(#loc466)
    %154 = stablehlo.broadcast_in_dim %82, dims = [] : (tensor<bf16>) -> tensor<2048x16xbf16> loc(#loc464)
    %155 = stablehlo.divide %1#14, %154 : tensor<2048x16xbf16> loc(#loc464)
    %cst_32 = stablehlo.constant dense<1.000000e+00> : tensor<bf16> loc(#loc)
    %156 = stablehlo.broadcast_in_dim %cst_32, dims = [] : (tensor<bf16>) -> tensor<2048x16xbf16> loc(#loc465)
    %157 = stablehlo.multiply %155, %156 : tensor<2048x16xbf16> loc(#loc465)
    %158 = stablehlo.select %83, %1#14, %157 : tensor<i1>, tensor<2048x16xbf16> loc(#loc466)
    %159 = stablehlo.broadcast_in_dim %82, dims = [] : (tensor<bf16>) -> tensor<16x128256xbf16> loc(#loc464)
    %160 = stablehlo.divide %1#15, %159 : tensor<16x128256xbf16> loc(#loc464)
    %cst_33 = stablehlo.constant dense<1.000000e+00> : tensor<bf16> loc(#loc)
    %161 = stablehlo.broadcast_in_dim %cst_33, dims = [] : (tensor<bf16>) -> tensor<16x128256xbf16> loc(#loc465)
    %162 = stablehlo.multiply %160, %161 : tensor<16x128256xbf16> loc(#loc465)
    %163 = stablehlo.select %83, %1#15, %162 : tensor<i1>, tensor<16x128256xbf16> loc(#loc466)
    %164 = call @integer_pow_13(%88) : (tensor<16x2048x16xbf16>) -> tensor<16x2048x16xbf16> loc(#loc552)
    %cst_34 = stablehlo.constant dense<1.000980e-01> : tensor<bf16> loc(#loc)
    %165 = stablehlo.broadcast_in_dim %cst_34, dims = [] : (tensor<bf16>) -> tensor<16x2048x16xbf16> loc(#loc553)
    %166 = stablehlo.multiply %165, %164 : tensor<16x2048x16xbf16> loc(#loc553)
    %cst_35 = stablehlo.constant dense<8.984370e-01> : tensor<bf16> loc(#loc)
    %167 = stablehlo.broadcast_in_dim %cst_35, dims = [] : (tensor<bf16>) -> tensor<16x2048x16xbf16> loc(#loc553)
    %168 = stablehlo.multiply %167, %arg33 : tensor<16x2048x16xbf16> loc(#loc553)
    %169 = stablehlo.add %166, %168 : tensor<16x2048x16xbf16> loc(#loc554)
    %170 = call @integer_pow_14(%93) : (tensor<16x16x2048xbf16>) -> tensor<16x16x2048xbf16> loc(#loc552)
    %cst_36 = stablehlo.constant dense<1.000980e-01> : tensor<bf16> loc(#loc)
    %171 = stablehlo.broadcast_in_dim %cst_36, dims = [] : (tensor<bf16>) -> tensor<16x16x2048xbf16> loc(#loc553)
    %172 = stablehlo.multiply %171, %170 : tensor<16x16x2048xbf16> loc(#loc553)
    %cst_37 = stablehlo.constant dense<8.984370e-01> : tensor<bf16> loc(#loc)
    %173 = stablehlo.broadcast_in_dim %cst_37, dims = [] : (tensor<bf16>) -> tensor<16x16x2048xbf16> loc(#loc553)
    %174 = stablehlo.multiply %173, %arg34 : tensor<16x16x2048xbf16> loc(#loc553)
    %175 = stablehlo.add %172, %174 : tensor<16x16x2048xbf16> loc(#loc554)
    %176 = call @integer_pow_15(%98) : (tensor<16x2048x16xbf16>) -> tensor<16x2048x16xbf16> loc(#loc552)
    %cst_38 = stablehlo.constant dense<1.000980e-01> : tensor<bf16> loc(#loc)
    %177 = stablehlo.broadcast_in_dim %cst_38, dims = [] : (tensor<bf16>) -> tensor<16x2048x16xbf16> loc(#loc553)
    %178 = stablehlo.multiply %177, %176 : tensor<16x2048x16xbf16> loc(#loc553)
    %cst_39 = stablehlo.constant dense<8.984370e-01> : tensor<bf16> loc(#loc)
    %179 = stablehlo.broadcast_in_dim %cst_39, dims = [] : (tensor<bf16>) -> tensor<16x2048x16xbf16> loc(#loc553)
    %180 = stablehlo.multiply %179, %arg35 : tensor<16x2048x16xbf16> loc(#loc553)
    %181 = stablehlo.add %178, %180 : tensor<16x2048x16xbf16> loc(#loc554)
    %182 = call @integer_pow_16(%103) : (tensor<16x16x512xbf16>) -> tensor<16x16x512xbf16> loc(#loc552)
    %cst_40 = stablehlo.constant dense<1.000980e-01> : tensor<bf16> loc(#loc)
    %183 = stablehlo.broadcast_in_dim %cst_40, dims = [] : (tensor<bf16>) -> tensor<16x16x512xbf16> loc(#loc553)
    %184 = stablehlo.multiply %183, %182 : tensor<16x16x512xbf16> loc(#loc553)
    %cst_41 = stablehlo.constant dense<8.984370e-01> : tensor<bf16> loc(#loc)
    %185 = stablehlo.broadcast_in_dim %cst_41, dims = [] : (tensor<bf16>) -> tensor<16x16x512xbf16> loc(#loc553)
    %186 = stablehlo.multiply %185, %arg36 : tensor<16x16x512xbf16> loc(#loc553)
    %187 = stablehlo.add %184, %186 : tensor<16x16x512xbf16> loc(#loc554)
    %188 = call @integer_pow_17(%108) : (tensor<16x2048x16xbf16>) -> tensor<16x2048x16xbf16> loc(#loc552)
    %cst_42 = stablehlo.constant dense<1.000980e-01> : tensor<bf16> loc(#loc)
    %189 = stablehlo.broadcast_in_dim %cst_42, dims = [] : (tensor<bf16>) -> tensor<16x2048x16xbf16> loc(#loc553)
    %190 = stablehlo.multiply %189, %188 : tensor<16x2048x16xbf16> loc(#loc553)
    %cst_43 = stablehlo.constant dense<8.984370e-01> : tensor<bf16> loc(#loc)
    %191 = stablehlo.broadcast_in_dim %cst_43, dims = [] : (tensor<bf16>) -> tensor<16x2048x16xbf16> loc(#loc553)
    %192 = stablehlo.multiply %191, %arg37 : tensor<16x2048x16xbf16> loc(#loc553)
    %193 = stablehlo.add %190, %192 : tensor<16x2048x16xbf16> loc(#loc554)
    %194 = call @integer_pow_18(%113) : (tensor<16x16x512xbf16>) -> tensor<16x16x512xbf16> loc(#loc552)
    %cst_44 = stablehlo.constant dense<1.000980e-01> : tensor<bf16> loc(#loc)
    %195 = stablehlo.broadcast_in_dim %cst_44, dims = [] : (tensor<bf16>) -> tensor<16x16x512xbf16> loc(#loc553)
    %196 = stablehlo.multiply %195, %194 : tensor<16x16x512xbf16> loc(#loc553)
    %cst_45 = stablehlo.constant dense<8.984370e-01> : tensor<bf16> loc(#loc)
    %197 = stablehlo.broadcast_in_dim %cst_45, dims = [] : (tensor<bf16>) -> tensor<16x16x512xbf16> loc(#loc553)
    %198 = stablehlo.multiply %197, %arg38 : tensor<16x16x512xbf16> loc(#loc553)
    %199 = stablehlo.add %196, %198 : tensor<16x16x512xbf16> loc(#loc554)
    %200 = call @integer_pow_19(%118) : (tensor<16x2048x16xbf16>) -> tensor<16x2048x16xbf16> loc(#loc552)
    %cst_46 = stablehlo.constant dense<1.000980e-01> : tensor<bf16> loc(#loc)
    %201 = stablehlo.broadcast_in_dim %cst_46, dims = [] : (tensor<bf16>) -> tensor<16x2048x16xbf16> loc(#loc553)
    %202 = stablehlo.multiply %201, %200 : tensor<16x2048x16xbf16> loc(#loc553)
    %cst_47 = stablehlo.constant dense<8.984370e-01> : tensor<bf16> loc(#loc)
    %203 = stablehlo.broadcast_in_dim %cst_47, dims = [] : (tensor<bf16>) -> tensor<16x2048x16xbf16> loc(#loc553)
    %204 = stablehlo.multiply %203, %arg39 : tensor<16x2048x16xbf16> loc(#loc553)
    %205 = stablehlo.add %202, %204 : tensor<16x2048x16xbf16> loc(#loc554)
    %206 = call @integer_pow_20(%123) : (tensor<16x16x2048xbf16>) -> tensor<16x16x2048xbf16> loc(#loc552)
    %cst_48 = stablehlo.constant dense<1.000980e-01> : tensor<bf16> loc(#loc)
    %207 = stablehlo.broadcast_in_dim %cst_48, dims = [] : (tensor<bf16>) -> tensor<16x16x2048xbf16> loc(#loc553)
    %208 = stablehlo.multiply %207, %206 : tensor<16x16x2048xbf16> loc(#loc553)
    %cst_49 = stablehlo.constant dense<8.984370e-01> : tensor<bf16> loc(#loc)
    %209 = stablehlo.broadcast_in_dim %cst_49, dims = [] : (tensor<bf16>) -> tensor<16x16x2048xbf16> loc(#loc553)
    %210 = stablehlo.multiply %209, %arg40 : tensor<16x16x2048xbf16> loc(#loc553)
    %211 = stablehlo.add %208, %210 : tensor<16x16x2048xbf16> loc(#loc554)
    %212 = call @integer_pow_21(%128) : (tensor<16x2048x16xbf16>) -> tensor<16x2048x16xbf16> loc(#loc552)
    %cst_50 = stablehlo.constant dense<1.000980e-01> : tensor<bf16> loc(#loc)
    %213 = stablehlo.broadcast_in_dim %cst_50, dims = [] : (tensor<bf16>) -> tensor<16x2048x16xbf16> loc(#loc553)
    %214 = stablehlo.multiply %213, %212 : tensor<16x2048x16xbf16> loc(#loc553)
    %cst_51 = stablehlo.constant dense<8.984370e-01> : tensor<bf16> loc(#loc)
    %215 = stablehlo.broadcast_in_dim %cst_51, dims = [] : (tensor<bf16>) -> tensor<16x2048x16xbf16> loc(#loc553)
    %216 = stablehlo.multiply %215, %arg41 : tensor<16x2048x16xbf16> loc(#loc553)
    %217 = stablehlo.add %214, %216 : tensor<16x2048x16xbf16> loc(#loc554)
    %218 = call @integer_pow_22(%133) : (tensor<16x16x8192xbf16>) -> tensor<16x16x8192xbf16> loc(#loc552)
    %cst_52 = stablehlo.constant dense<1.000980e-01> : tensor<bf16> loc(#loc)
    %219 = stablehlo.broadcast_in_dim %cst_52, dims = [] : (tensor<bf16>) -> tensor<16x16x8192xbf16> loc(#loc553)
    %220 = stablehlo.multiply %219, %218 : tensor<16x16x8192xbf16> loc(#loc553)
    %cst_53 = stablehlo.constant dense<8.984370e-01> : tensor<bf16> loc(#loc)
    %221 = stablehlo.broadcast_in_dim %cst_53, dims = [] : (tensor<bf16>) -> tensor<16x16x8192xbf16> loc(#loc553)
    %222 = stablehlo.multiply %221, %arg42 : tensor<16x16x8192xbf16> loc(#loc553)
    %223 = stablehlo.add %220, %222 : tensor<16x16x8192xbf16> loc(#loc554)
    %224 = call @integer_pow_23(%138) : (tensor<16x2048x16xbf16>) -> tensor<16x2048x16xbf16> loc(#loc552)
    %cst_54 = stablehlo.constant dense<1.000980e-01> : tensor<bf16> loc(#loc)
    %225 = stablehlo.broadcast_in_dim %cst_54, dims = [] : (tensor<bf16>) -> tensor<16x2048x16xbf16> loc(#loc553)
    %226 = stablehlo.multiply %225, %224 : tensor<16x2048x16xbf16> loc(#loc553)
    %cst_55 = stablehlo.constant dense<8.984370e-01> : tensor<bf16> loc(#loc)
    %227 = stablehlo.broadcast_in_dim %cst_55, dims = [] : (tensor<bf16>) -> tensor<16x2048x16xbf16> loc(#loc553)
    %228 = stablehlo.multiply %227, %arg43 : tensor<16x2048x16xbf16> loc(#loc553)
    %229 = stablehlo.add %226, %228 : tensor<16x2048x16xbf16> loc(#loc554)
    %230 = call @integer_pow_24(%143) : (tensor<16x16x8192xbf16>) -> tensor<16x16x8192xbf16> loc(#loc552)
    %cst_56 = stablehlo.constant dense<1.000980e-01> : tensor<bf16> loc(#loc)
    %231 = stablehlo.broadcast_in_dim %cst_56, dims = [] : (tensor<bf16>) -> tensor<16x16x8192xbf16> loc(#loc553)
    %232 = stablehlo.multiply %231, %230 : tensor<16x16x8192xbf16> loc(#loc553)
    %cst_57 = stablehlo.constant dense<8.984370e-01> : tensor<bf16> loc(#loc)
    %233 = stablehlo.broadcast_in_dim %cst_57, dims = [] : (tensor<bf16>) -> tensor<16x16x8192xbf16> loc(#loc553)
    %234 = stablehlo.multiply %233, %arg44 : tensor<16x16x8192xbf16> loc(#loc553)
    %235 = stablehlo.add %232, %234 : tensor<16x16x8192xbf16> loc(#loc554)
    %236 = call @integer_pow_25(%148) : (tensor<16x8192x16xbf16>) -> tensor<16x8192x16xbf16> loc(#loc552)
    %cst_58 = stablehlo.constant dense<1.000980e-01> : tensor<bf16> loc(#loc)
    %237 = stablehlo.broadcast_in_dim %cst_58, dims = [] : (tensor<bf16>) -> tensor<16x8192x16xbf16> loc(#loc553)
    %238 = stablehlo.multiply %237, %236 : tensor<16x8192x16xbf16> loc(#loc553)
    %cst_59 = stablehlo.constant dense<8.984370e-01> : tensor<bf16> loc(#loc)
    %239 = stablehlo.broadcast_in_dim %cst_59, dims = [] : (tensor<bf16>) -> tensor<16x8192x16xbf16> loc(#loc553)
    %240 = stablehlo.multiply %239, %arg45 : tensor<16x8192x16xbf16> loc(#loc553)
    %241 = stablehlo.add %238, %240 : tensor<16x8192x16xbf16> loc(#loc554)
    %242 = call @integer_pow_26(%153) : (tensor<16x16x2048xbf16>) -> tensor<16x16x2048xbf16> loc(#loc552)
    %cst_60 = stablehlo.constant dense<1.000980e-01> : tensor<bf16> loc(#loc)
    %243 = stablehlo.broadcast_in_dim %cst_60, dims = [] : (tensor<bf16>) -> tensor<16x16x2048xbf16> loc(#loc553)
    %244 = stablehlo.multiply %243, %242 : tensor<16x16x2048xbf16> loc(#loc553)
    %cst_61 = stablehlo.constant dense<8.984370e-01> : tensor<bf16> loc(#loc)
    %245 = stablehlo.broadcast_in_dim %cst_61, dims = [] : (tensor<bf16>) -> tensor<16x16x2048xbf16> loc(#loc553)
    %246 = stablehlo.multiply %245, %arg46 : tensor<16x16x2048xbf16> loc(#loc553)
    %247 = stablehlo.add %244, %246 : tensor<16x16x2048xbf16> loc(#loc554)
    %248 = call @integer_pow_27(%158) : (tensor<2048x16xbf16>) -> tensor<2048x16xbf16> loc(#loc552)
    %cst_62 = stablehlo.constant dense<1.000980e-01> : tensor<bf16> loc(#loc)
    %249 = stablehlo.broadcast_in_dim %cst_62, dims = [] : (tensor<bf16>) -> tensor<2048x16xbf16> loc(#loc553)
    %250 = stablehlo.multiply %249, %248 : tensor<2048x16xbf16> loc(#loc553)
    %cst_63 = stablehlo.constant dense<8.984370e-01> : tensor<bf16> loc(#loc)
    %251 = stablehlo.broadcast_in_dim %cst_63, dims = [] : (tensor<bf16>) -> tensor<2048x16xbf16> loc(#loc553)
    %252 = stablehlo.multiply %251, %arg47 : tensor<2048x16xbf16> loc(#loc553)
    %253 = stablehlo.add %250, %252 : tensor<2048x16xbf16> loc(#loc554)
    %254 = call @integer_pow_28(%163) : (tensor<16x128256xbf16>) -> tensor<16x128256xbf16> loc(#loc552)
    %cst_64 = stablehlo.constant dense<1.000980e-01> : tensor<bf16> loc(#loc)
    %255 = stablehlo.broadcast_in_dim %cst_64, dims = [] : (tensor<bf16>) -> tensor<16x128256xbf16> loc(#loc553)
    %256 = stablehlo.multiply %255, %254 : tensor<16x128256xbf16> loc(#loc553)
    %cst_65 = stablehlo.constant dense<8.984370e-01> : tensor<bf16> loc(#loc)
    %257 = stablehlo.broadcast_in_dim %cst_65, dims = [] : (tensor<bf16>) -> tensor<16x128256xbf16> loc(#loc553)
    %258 = stablehlo.multiply %257, %arg48 : tensor<16x128256xbf16> loc(#loc553)
    %259 = stablehlo.add %256, %258 : tensor<16x128256xbf16> loc(#loc554)
    %260 = stablehlo.multiply %88, %88 : tensor<16x2048x16xbf16> loc(#loc616)
    %cst_66 = stablehlo.constant dense<9.994500e-04> : tensor<bf16> loc(#loc)
    %261 = stablehlo.broadcast_in_dim %cst_66, dims = [] : (tensor<bf16>) -> tensor<16x2048x16xbf16> loc(#loc556)
    %262 = stablehlo.multiply %261, %260 : tensor<16x2048x16xbf16> loc(#loc556)
    %cst_67 = stablehlo.constant dense<1.000000e+00> : tensor<bf16> loc(#loc)
    %263 = stablehlo.broadcast_in_dim %cst_67, dims = [] : (tensor<bf16>) -> tensor<16x2048x16xbf16> loc(#loc556)
    %264 = stablehlo.multiply %263, %arg49 : tensor<16x2048x16xbf16> loc(#loc556)
    %265 = stablehlo.add %262, %264 : tensor<16x2048x16xbf16> loc(#loc557)
    %266 = stablehlo.multiply %93, %93 : tensor<16x16x2048xbf16> loc(#loc616)
    %cst_68 = stablehlo.constant dense<9.994500e-04> : tensor<bf16> loc(#loc)
    %267 = stablehlo.broadcast_in_dim %cst_68, dims = [] : (tensor<bf16>) -> tensor<16x16x2048xbf16> loc(#loc556)
    %268 = stablehlo.multiply %267, %266 : tensor<16x16x2048xbf16> loc(#loc556)
    %cst_69 = stablehlo.constant dense<1.000000e+00> : tensor<bf16> loc(#loc)
    %269 = stablehlo.broadcast_in_dim %cst_69, dims = [] : (tensor<bf16>) -> tensor<16x16x2048xbf16> loc(#loc556)
    %270 = stablehlo.multiply %269, %arg50 : tensor<16x16x2048xbf16> loc(#loc556)
    %271 = stablehlo.add %268, %270 : tensor<16x16x2048xbf16> loc(#loc557)
    %272 = stablehlo.multiply %98, %98 : tensor<16x2048x16xbf16> loc(#loc616)
    %cst_70 = stablehlo.constant dense<9.994500e-04> : tensor<bf16> loc(#loc)
    %273 = stablehlo.broadcast_in_dim %cst_70, dims = [] : (tensor<bf16>) -> tensor<16x2048x16xbf16> loc(#loc556)
    %274 = stablehlo.multiply %273, %272 : tensor<16x2048x16xbf16> loc(#loc556)
    %cst_71 = stablehlo.constant dense<1.000000e+00> : tensor<bf16> loc(#loc)
    %275 = stablehlo.broadcast_in_dim %cst_71, dims = [] : (tensor<bf16>) -> tensor<16x2048x16xbf16> loc(#loc556)
    %276 = stablehlo.multiply %275, %arg51 : tensor<16x2048x16xbf16> loc(#loc556)
    %277 = stablehlo.add %274, %276 : tensor<16x2048x16xbf16> loc(#loc557)
    %278 = stablehlo.multiply %103, %103 : tensor<16x16x512xbf16> loc(#loc616)
    %cst_72 = stablehlo.constant dense<9.994500e-04> : tensor<bf16> loc(#loc)
    %279 = stablehlo.broadcast_in_dim %cst_72, dims = [] : (tensor<bf16>) -> tensor<16x16x512xbf16> loc(#loc556)
    %280 = stablehlo.multiply %279, %278 : tensor<16x16x512xbf16> loc(#loc556)
    %cst_73 = stablehlo.constant dense<1.000000e+00> : tensor<bf16> loc(#loc)
    %281 = stablehlo.broadcast_in_dim %cst_73, dims = [] : (tensor<bf16>) -> tensor<16x16x512xbf16> loc(#loc556)
    %282 = stablehlo.multiply %281, %arg52 : tensor<16x16x512xbf16> loc(#loc556)
    %283 = stablehlo.add %280, %282 : tensor<16x16x512xbf16> loc(#loc557)
    %284 = stablehlo.multiply %108, %108 : tensor<16x2048x16xbf16> loc(#loc616)
    %cst_74 = stablehlo.constant dense<9.994500e-04> : tensor<bf16> loc(#loc)
    %285 = stablehlo.broadcast_in_dim %cst_74, dims = [] : (tensor<bf16>) -> tensor<16x2048x16xbf16> loc(#loc556)
    %286 = stablehlo.multiply %285, %284 : tensor<16x2048x16xbf16> loc(#loc556)
    %cst_75 = stablehlo.constant dense<1.000000e+00> : tensor<bf16> loc(#loc)
    %287 = stablehlo.broadcast_in_dim %cst_75, dims = [] : (tensor<bf16>) -> tensor<16x2048x16xbf16> loc(#loc556)
    %288 = stablehlo.multiply %287, %arg53 : tensor<16x2048x16xbf16> loc(#loc556)
    %289 = stablehlo.add %286, %288 : tensor<16x2048x16xbf16> loc(#loc557)
    %290 = stablehlo.multiply %113, %113 : tensor<16x16x512xbf16> loc(#loc616)
    %cst_76 = stablehlo.constant dense<9.994500e-04> : tensor<bf16> loc(#loc)
    %291 = stablehlo.broadcast_in_dim %cst_76, dims = [] : (tensor<bf16>) -> tensor<16x16x512xbf16> loc(#loc556)
    %292 = stablehlo.multiply %291, %290 : tensor<16x16x512xbf16> loc(#loc556)
    %cst_77 = stablehlo.constant dense<1.000000e+00> : tensor<bf16> loc(#loc)
    %293 = stablehlo.broadcast_in_dim %cst_77, dims = [] : (tensor<bf16>) -> tensor<16x16x512xbf16> loc(#loc556)
    %294 = stablehlo.multiply %293, %arg54 : tensor<16x16x512xbf16> loc(#loc556)
    %295 = stablehlo.add %292, %294 : tensor<16x16x512xbf16> loc(#loc557)
    %296 = stablehlo.multiply %118, %118 : tensor<16x2048x16xbf16> loc(#loc616)
    %cst_78 = stablehlo.constant dense<9.994500e-04> : tensor<bf16> loc(#loc)
    %297 = stablehlo.broadcast_in_dim %cst_78, dims = [] : (tensor<bf16>) -> tensor<16x2048x16xbf16> loc(#loc556)
    %298 = stablehlo.multiply %297, %296 : tensor<16x2048x16xbf16> loc(#loc556)
    %cst_79 = stablehlo.constant dense<1.000000e+00> : tensor<bf16> loc(#loc)
    %299 = stablehlo.broadcast_in_dim %cst_79, dims = [] : (tensor<bf16>) -> tensor<16x2048x16xbf16> loc(#loc556)
    %300 = stablehlo.multiply %299, %arg55 : tensor<16x2048x16xbf16> loc(#loc556)
    %301 = stablehlo.add %298, %300 : tensor<16x2048x16xbf16> loc(#loc557)
    %302 = stablehlo.multiply %123, %123 : tensor<16x16x2048xbf16> loc(#loc616)
    %cst_80 = stablehlo.constant dense<9.994500e-04> : tensor<bf16> loc(#loc)
    %303 = stablehlo.broadcast_in_dim %cst_80, dims = [] : (tensor<bf16>) -> tensor<16x16x2048xbf16> loc(#loc556)
    %304 = stablehlo.multiply %303, %302 : tensor<16x16x2048xbf16> loc(#loc556)
    %cst_81 = stablehlo.constant dense<1.000000e+00> : tensor<bf16> loc(#loc)
    %305 = stablehlo.broadcast_in_dim %cst_81, dims = [] : (tensor<bf16>) -> tensor<16x16x2048xbf16> loc(#loc556)
    %306 = stablehlo.multiply %305, %arg56 : tensor<16x16x2048xbf16> loc(#loc556)
    %307 = stablehlo.add %304, %306 : tensor<16x16x2048xbf16> loc(#loc557)
    %308 = stablehlo.multiply %128, %128 : tensor<16x2048x16xbf16> loc(#loc616)
    %cst_82 = stablehlo.constant dense<9.994500e-04> : tensor<bf16> loc(#loc)
    %309 = stablehlo.broadcast_in_dim %cst_82, dims = [] : (tensor<bf16>) -> tensor<16x2048x16xbf16> loc(#loc556)
    %310 = stablehlo.multiply %309, %308 : tensor<16x2048x16xbf16> loc(#loc556)
    %cst_83 = stablehlo.constant dense<1.000000e+00> : tensor<bf16> loc(#loc)
    %311 = stablehlo.broadcast_in_dim %cst_83, dims = [] : (tensor<bf16>) -> tensor<16x2048x16xbf16> loc(#loc556)
    %312 = stablehlo.multiply %311, %arg57 : tensor<16x2048x16xbf16> loc(#loc556)
    %313 = stablehlo.add %310, %312 : tensor<16x2048x16xbf16> loc(#loc557)
    %314 = stablehlo.multiply %133, %133 : tensor<16x16x8192xbf16> loc(#loc616)
    %cst_84 = stablehlo.constant dense<9.994500e-04> : tensor<bf16> loc(#loc)
    %315 = stablehlo.broadcast_in_dim %cst_84, dims = [] : (tensor<bf16>) -> tensor<16x16x8192xbf16> loc(#loc556)
    %316 = stablehlo.multiply %315, %314 : tensor<16x16x8192xbf16> loc(#loc556)
    %cst_85 = stablehlo.constant dense<1.000000e+00> : tensor<bf16> loc(#loc)
    %317 = stablehlo.broadcast_in_dim %cst_85, dims = [] : (tensor<bf16>) -> tensor<16x16x8192xbf16> loc(#loc556)
    %318 = stablehlo.multiply %317, %arg58 : tensor<16x16x8192xbf16> loc(#loc556)
    %319 = stablehlo.add %316, %318 : tensor<16x16x8192xbf16> loc(#loc557)
    %320 = stablehlo.multiply %138, %138 : tensor<16x2048x16xbf16> loc(#loc616)
    %cst_86 = stablehlo.constant dense<9.994500e-04> : tensor<bf16> loc(#loc)
    %321 = stablehlo.broadcast_in_dim %cst_86, dims = [] : (tensor<bf16>) -> tensor<16x2048x16xbf16> loc(#loc556)
    %322 = stablehlo.multiply %321, %320 : tensor<16x2048x16xbf16> loc(#loc556)
    %cst_87 = stablehlo.constant dense<1.000000e+00> : tensor<bf16> loc(#loc)
    %323 = stablehlo.broadcast_in_dim %cst_87, dims = [] : (tensor<bf16>) -> tensor<16x2048x16xbf16> loc(#loc556)
    %324 = stablehlo.multiply %323, %arg59 : tensor<16x2048x16xbf16> loc(#loc556)
    %325 = stablehlo.add %322, %324 : tensor<16x2048x16xbf16> loc(#loc557)
    %326 = stablehlo.multiply %143, %143 : tensor<16x16x8192xbf16> loc(#loc616)
    %cst_88 = stablehlo.constant dense<9.994500e-04> : tensor<bf16> loc(#loc)
    %327 = stablehlo.broadcast_in_dim %cst_88, dims = [] : (tensor<bf16>) -> tensor<16x16x8192xbf16> loc(#loc556)
    %328 = stablehlo.multiply %327, %326 : tensor<16x16x8192xbf16> loc(#loc556)
    %cst_89 = stablehlo.constant dense<1.000000e+00> : tensor<bf16> loc(#loc)
    %329 = stablehlo.broadcast_in_dim %cst_89, dims = [] : (tensor<bf16>) -> tensor<16x16x8192xbf16> loc(#loc556)
    %330 = stablehlo.multiply %329, %arg60 : tensor<16x16x8192xbf16> loc(#loc556)
    %331 = stablehlo.add %328, %330 : tensor<16x16x8192xbf16> loc(#loc557)
    %332 = stablehlo.multiply %148, %148 : tensor<16x8192x16xbf16> loc(#loc616)
    %cst_90 = stablehlo.constant dense<9.994500e-04> : tensor<bf16> loc(#loc)
    %333 = stablehlo.broadcast_in_dim %cst_90, dims = [] : (tensor<bf16>) -> tensor<16x8192x16xbf16> loc(#loc556)
    %334 = stablehlo.multiply %333, %332 : tensor<16x8192x16xbf16> loc(#loc556)
    %cst_91 = stablehlo.constant dense<1.000000e+00> : tensor<bf16> loc(#loc)
    %335 = stablehlo.broadcast_in_dim %cst_91, dims = [] : (tensor<bf16>) -> tensor<16x8192x16xbf16> loc(#loc556)
    %336 = stablehlo.multiply %335, %arg61 : tensor<16x8192x16xbf16> loc(#loc556)
    %337 = stablehlo.add %334, %336 : tensor<16x8192x16xbf16> loc(#loc557)
    %338 = stablehlo.multiply %153, %153 : tensor<16x16x2048xbf16> loc(#loc616)
    %cst_92 = stablehlo.constant dense<9.994500e-04> : tensor<bf16> loc(#loc)
    %339 = stablehlo.broadcast_in_dim %cst_92, dims = [] : (tensor<bf16>) -> tensor<16x16x2048xbf16> loc(#loc556)
    %340 = stablehlo.multiply %339, %338 : tensor<16x16x2048xbf16> loc(#loc556)
    %cst_93 = stablehlo.constant dense<1.000000e+00> : tensor<bf16> loc(#loc)
    %341 = stablehlo.broadcast_in_dim %cst_93, dims = [] : (tensor<bf16>) -> tensor<16x16x2048xbf16> loc(#loc556)
    %342 = stablehlo.multiply %341, %arg62 : tensor<16x16x2048xbf16> loc(#loc556)
    %343 = stablehlo.add %340, %342 : tensor<16x16x2048xbf16> loc(#loc557)
    %344 = stablehlo.multiply %158, %158 : tensor<2048x16xbf16> loc(#loc616)
    %cst_94 = stablehlo.constant dense<9.994500e-04> : tensor<bf16> loc(#loc)
    %345 = stablehlo.broadcast_in_dim %cst_94, dims = [] : (tensor<bf16>) -> tensor<2048x16xbf16> loc(#loc556)
    %346 = stablehlo.multiply %345, %344 : tensor<2048x16xbf16> loc(#loc556)
    %cst_95 = stablehlo.constant dense<1.000000e+00> : tensor<bf16> loc(#loc)
    %347 = stablehlo.broadcast_in_dim %cst_95, dims = [] : (tensor<bf16>) -> tensor<2048x16xbf16> loc(#loc556)
    %348 = stablehlo.multiply %347, %arg63 : tensor<2048x16xbf16> loc(#loc556)
    %349 = stablehlo.add %346, %348 : tensor<2048x16xbf16> loc(#loc557)
    %350 = stablehlo.multiply %163, %163 : tensor<16x128256xbf16> loc(#loc616)
    %cst_96 = stablehlo.constant dense<9.994500e-04> : tensor<bf16> loc(#loc)
    %351 = stablehlo.broadcast_in_dim %cst_96, dims = [] : (tensor<bf16>) -> tensor<16x128256xbf16> loc(#loc556)
    %352 = stablehlo.multiply %351, %350 : tensor<16x128256xbf16> loc(#loc556)
    %cst_97 = stablehlo.constant dense<1.000000e+00> : tensor<bf16> loc(#loc)
    %353 = stablehlo.broadcast_in_dim %cst_97, dims = [] : (tensor<bf16>) -> tensor<16x128256xbf16> loc(#loc556)
    %354 = stablehlo.multiply %353, %arg64 : tensor<16x128256xbf16> loc(#loc556)
    %355 = stablehlo.add %352, %354 : tensor<16x128256xbf16> loc(#loc557)
    %c = stablehlo.constant dense<2147483647> : tensor<i32> loc(#loc)
    %356 = stablehlo.compare  LT, %arg32, %c,  SIGNED : (tensor<i32>, tensor<i32>) -> tensor<i1> loc(#loc527)
    %c_98 = stablehlo.constant dense<1> : tensor<i32> loc(#loc)
    %357 = stablehlo.add %arg32, %c_98 : tensor<i32> loc(#loc528)
    %c_99 = stablehlo.constant dense<2147483647> : tensor<i32> loc(#loc)
    %358 = call @_where_29(%356, %357, %c_99) : (tensor<i1>, tensor<i32>, tensor<i32>) -> tensor<i32> loc(#loc529)
    %cst_100 = stablehlo.constant dense<0.899999976> : tensor<f32> loc(#loc)
    %359 = stablehlo.convert %cst_100 : tensor<f32> loc(#loc470)
    %360 = stablehlo.convert %358 : (tensor<i32>) -> tensor<f32> loc(#loc470)
    %361 = stablehlo.power %359, %360 : tensor<f32> loc(#loc471)
    %cst_101 = stablehlo.constant dense<1.000000e+00> : tensor<f32> loc(#loc)
    %362 = stablehlo.subtract %cst_101, %361 : tensor<f32> loc(#loc472)
    %363 = stablehlo.convert %362 : (tensor<f32>) -> tensor<bf16> loc(#loc470)
    %364 = stablehlo.broadcast_in_dim %363, dims = [] : (tensor<bf16>) -> tensor<16x2048x16xbf16> loc(#loc473)
    %365 = stablehlo.divide %169, %364 : tensor<16x2048x16xbf16> loc(#loc473)
    %366 = stablehlo.convert %362 : (tensor<f32>) -> tensor<bf16> loc(#loc470)
    %367 = stablehlo.broadcast_in_dim %366, dims = [] : (tensor<bf16>) -> tensor<16x16x2048xbf16> loc(#loc473)
    %368 = stablehlo.divide %175, %367 : tensor<16x16x2048xbf16> loc(#loc473)
    %369 = stablehlo.convert %362 : (tensor<f32>) -> tensor<bf16> loc(#loc470)
    %370 = stablehlo.broadcast_in_dim %369, dims = [] : (tensor<bf16>) -> tensor<16x2048x16xbf16> loc(#loc473)
    %371 = stablehlo.divide %181, %370 : tensor<16x2048x16xbf16> loc(#loc473)
    %372 = stablehlo.convert %362 : (tensor<f32>) -> tensor<bf16> loc(#loc470)
    %373 = stablehlo.broadcast_in_dim %372, dims = [] : (tensor<bf16>) -> tensor<16x16x512xbf16> loc(#loc473)
    %374 = stablehlo.divide %187, %373 : tensor<16x16x512xbf16> loc(#loc473)
    %375 = stablehlo.convert %362 : (tensor<f32>) -> tensor<bf16> loc(#loc470)
    %376 = stablehlo.broadcast_in_dim %375, dims = [] : (tensor<bf16>) -> tensor<16x2048x16xbf16> loc(#loc473)
    %377 = stablehlo.divide %193, %376 : tensor<16x2048x16xbf16> loc(#loc473)
    %378 = stablehlo.convert %362 : (tensor<f32>) -> tensor<bf16> loc(#loc470)
    %379 = stablehlo.broadcast_in_dim %378, dims = [] : (tensor<bf16>) -> tensor<16x16x512xbf16> loc(#loc473)
    %380 = stablehlo.divide %199, %379 : tensor<16x16x512xbf16> loc(#loc473)
    %381 = stablehlo.convert %362 : (tensor<f32>) -> tensor<bf16> loc(#loc470)
    %382 = stablehlo.broadcast_in_dim %381, dims = [] : (tensor<bf16>) -> tensor<16x2048x16xbf16> loc(#loc473)
    %383 = stablehlo.divide %205, %382 : tensor<16x2048x16xbf16> loc(#loc473)
    %384 = stablehlo.convert %362 : (tensor<f32>) -> tensor<bf16> loc(#loc470)
    %385 = stablehlo.broadcast_in_dim %384, dims = [] : (tensor<bf16>) -> tensor<16x16x2048xbf16> loc(#loc473)
    %386 = stablehlo.divide %211, %385 : tensor<16x16x2048xbf16> loc(#loc473)
    %387 = stablehlo.convert %362 : (tensor<f32>) -> tensor<bf16> loc(#loc470)
    %388 = stablehlo.broadcast_in_dim %387, dims = [] : (tensor<bf16>) -> tensor<16x2048x16xbf16> loc(#loc473)
    %389 = stablehlo.divide %217, %388 : tensor<16x2048x16xbf16> loc(#loc473)
    %390 = stablehlo.convert %362 : (tensor<f32>) -> tensor<bf16> loc(#loc470)
    %391 = stablehlo.broadcast_in_dim %390, dims = [] : (tensor<bf16>) -> tensor<16x16x8192xbf16> loc(#loc473)
    %392 = stablehlo.divide %223, %391 : tensor<16x16x8192xbf16> loc(#loc473)
    %393 = stablehlo.convert %362 : (tensor<f32>) -> tensor<bf16> loc(#loc470)
    %394 = stablehlo.broadcast_in_dim %393, dims = [] : (tensor<bf16>) -> tensor<16x2048x16xbf16> loc(#loc473)
    %395 = stablehlo.divide %229, %394 : tensor<16x2048x16xbf16> loc(#loc473)
    %396 = stablehlo.convert %362 : (tensor<f32>) -> tensor<bf16> loc(#loc470)
    %397 = stablehlo.broadcast_in_dim %396, dims = [] : (tensor<bf16>) -> tensor<16x16x8192xbf16> loc(#loc473)
    %398 = stablehlo.divide %235, %397 : tensor<16x16x8192xbf16> loc(#loc473)
    %399 = stablehlo.convert %362 : (tensor<f32>) -> tensor<bf16> loc(#loc470)
    %400 = stablehlo.broadcast_in_dim %399, dims = [] : (tensor<bf16>) -> tensor<16x8192x16xbf16> loc(#loc473)
    %401 = stablehlo.divide %241, %400 : tensor<16x8192x16xbf16> loc(#loc473)
    %402 = stablehlo.convert %362 : (tensor<f32>) -> tensor<bf16> loc(#loc470)
    %403 = stablehlo.broadcast_in_dim %402, dims = [] : (tensor<bf16>) -> tensor<16x16x2048xbf16> loc(#loc473)
    %404 = stablehlo.divide %247, %403 : tensor<16x16x2048xbf16> loc(#loc473)
    %405 = stablehlo.convert %362 : (tensor<f32>) -> tensor<bf16> loc(#loc470)
    %406 = stablehlo.broadcast_in_dim %405, dims = [] : (tensor<bf16>) -> tensor<2048x16xbf16> loc(#loc473)
    %407 = stablehlo.divide %253, %406 : tensor<2048x16xbf16> loc(#loc473)
    %408 = stablehlo.convert %362 : (tensor<f32>) -> tensor<bf16> loc(#loc470)
    %409 = stablehlo.broadcast_in_dim %408, dims = [] : (tensor<bf16>) -> tensor<16x128256xbf16> loc(#loc473)
    %410 = stablehlo.divide %259, %409 : tensor<16x128256xbf16> loc(#loc473)
    %cst_102 = stablehlo.constant dense<9.990000e-01> : tensor<f32> loc(#loc)
    %411 = stablehlo.convert %cst_102 : tensor<f32> loc(#loc474)
    %412 = stablehlo.convert %358 : (tensor<i32>) -> tensor<f32> loc(#loc474)
    %413 = stablehlo.power %411, %412 : tensor<f32> loc(#loc475)
    %cst_103 = stablehlo.constant dense<1.000000e+00> : tensor<f32> loc(#loc)
    %414 = stablehlo.subtract %cst_103, %413 : tensor<f32> loc(#loc476)
    %415 = stablehlo.convert %414 : (tensor<f32>) -> tensor<bf16> loc(#loc474)
    %416 = stablehlo.broadcast_in_dim %415, dims = [] : (tensor<bf16>) -> tensor<16x2048x16xbf16> loc(#loc477)
    %417 = stablehlo.divide %265, %416 : tensor<16x2048x16xbf16> loc(#loc477)
    %418 = stablehlo.convert %414 : (tensor<f32>) -> tensor<bf16> loc(#loc474)
    %419 = stablehlo.broadcast_in_dim %418, dims = [] : (tensor<bf16>) -> tensor<16x16x2048xbf16> loc(#loc477)
    %420 = stablehlo.divide %271, %419 : tensor<16x16x2048xbf16> loc(#loc477)
    %421 = stablehlo.convert %414 : (tensor<f32>) -> tensor<bf16> loc(#loc474)
    %422 = stablehlo.broadcast_in_dim %421, dims = [] : (tensor<bf16>) -> tensor<16x2048x16xbf16> loc(#loc477)
    %423 = stablehlo.divide %277, %422 : tensor<16x2048x16xbf16> loc(#loc477)
    %424 = stablehlo.convert %414 : (tensor<f32>) -> tensor<bf16> loc(#loc474)
    %425 = stablehlo.broadcast_in_dim %424, dims = [] : (tensor<bf16>) -> tensor<16x16x512xbf16> loc(#loc477)
    %426 = stablehlo.divide %283, %425 : tensor<16x16x512xbf16> loc(#loc477)
    %427 = stablehlo.convert %414 : (tensor<f32>) -> tensor<bf16> loc(#loc474)
    %428 = stablehlo.broadcast_in_dim %427, dims = [] : (tensor<bf16>) -> tensor<16x2048x16xbf16> loc(#loc477)
    %429 = stablehlo.divide %289, %428 : tensor<16x2048x16xbf16> loc(#loc477)
    %430 = stablehlo.convert %414 : (tensor<f32>) -> tensor<bf16> loc(#loc474)
    %431 = stablehlo.broadcast_in_dim %430, dims = [] : (tensor<bf16>) -> tensor<16x16x512xbf16> loc(#loc477)
    %432 = stablehlo.divide %295, %431 : tensor<16x16x512xbf16> loc(#loc477)
    %433 = stablehlo.convert %414 : (tensor<f32>) -> tensor<bf16> loc(#loc474)
    %434 = stablehlo.broadcast_in_dim %433, dims = [] : (tensor<bf16>) -> tensor<16x2048x16xbf16> loc(#loc477)
    %435 = stablehlo.divide %301, %434 : tensor<16x2048x16xbf16> loc(#loc477)
    %436 = stablehlo.convert %414 : (tensor<f32>) -> tensor<bf16> loc(#loc474)
    %437 = stablehlo.broadcast_in_dim %436, dims = [] : (tensor<bf16>) -> tensor<16x16x2048xbf16> loc(#loc477)
    %438 = stablehlo.divide %307, %437 : tensor<16x16x2048xbf16> loc(#loc477)
    %439 = stablehlo.convert %414 : (tensor<f32>) -> tensor<bf16> loc(#loc474)
    %440 = stablehlo.broadcast_in_dim %439, dims = [] : (tensor<bf16>) -> tensor<16x2048x16xbf16> loc(#loc477)
    %441 = stablehlo.divide %313, %440 : tensor<16x2048x16xbf16> loc(#loc477)
    %442 = stablehlo.convert %414 : (tensor<f32>) -> tensor<bf16> loc(#loc474)
    %443 = stablehlo.broadcast_in_dim %442, dims = [] : (tensor<bf16>) -> tensor<16x16x8192xbf16> loc(#loc477)
    %444 = stablehlo.divide %319, %443 : tensor<16x16x8192xbf16> loc(#loc477)
    %445 = stablehlo.convert %414 : (tensor<f32>) -> tensor<bf16> loc(#loc474)
    %446 = stablehlo.broadcast_in_dim %445, dims = [] : (tensor<bf16>) -> tensor<16x2048x16xbf16> loc(#loc477)
    %447 = stablehlo.divide %325, %446 : tensor<16x2048x16xbf16> loc(#loc477)
    %448 = stablehlo.convert %414 : (tensor<f32>) -> tensor<bf16> loc(#loc474)
    %449 = stablehlo.broadcast_in_dim %448, dims = [] : (tensor<bf16>) -> tensor<16x16x8192xbf16> loc(#loc477)
    %450 = stablehlo.divide %331, %449 : tensor<16x16x8192xbf16> loc(#loc477)
    %451 = stablehlo.convert %414 : (tensor<f32>) -> tensor<bf16> loc(#loc474)
    %452 = stablehlo.broadcast_in_dim %451, dims = [] : (tensor<bf16>) -> tensor<16x8192x16xbf16> loc(#loc477)
    %453 = stablehlo.divide %337, %452 : tensor<16x8192x16xbf16> loc(#loc477)
    %454 = stablehlo.convert %414 : (tensor<f32>) -> tensor<bf16> loc(#loc474)
    %455 = stablehlo.broadcast_in_dim %454, dims = [] : (tensor<bf16>) -> tensor<16x16x2048xbf16> loc(#loc477)
    %456 = stablehlo.divide %343, %455 : tensor<16x16x2048xbf16> loc(#loc477)
    %457 = stablehlo.convert %414 : (tensor<f32>) -> tensor<bf16> loc(#loc474)
    %458 = stablehlo.broadcast_in_dim %457, dims = [] : (tensor<bf16>) -> tensor<2048x16xbf16> loc(#loc477)
    %459 = stablehlo.divide %349, %458 : tensor<2048x16xbf16> loc(#loc477)
    %460 = stablehlo.convert %414 : (tensor<f32>) -> tensor<bf16> loc(#loc474)
    %461 = stablehlo.broadcast_in_dim %460, dims = [] : (tensor<bf16>) -> tensor<16x128256xbf16> loc(#loc477)
    %462 = stablehlo.divide %355, %461 : tensor<16x128256xbf16> loc(#loc477)
    %cst_104 = stablehlo.constant dense<0.000000e+00> : tensor<bf16> loc(#loc)
    %463 = stablehlo.broadcast_in_dim %cst_104, dims = [] : (tensor<bf16>) -> tensor<16x2048x16xbf16> loc(#loc530)
    %464 = stablehlo.add %417, %463 : tensor<16x2048x16xbf16> loc(#loc530)
    %465 = stablehlo.sqrt %464 : tensor<16x2048x16xbf16> loc(#loc531)
    %cst_105 = stablehlo.constant dense<1.001170e-08> : tensor<bf16> loc(#loc)
    %466 = stablehlo.broadcast_in_dim %cst_105, dims = [] : (tensor<bf16>) -> tensor<16x2048x16xbf16> loc(#loc530)
    %467 = stablehlo.add %465, %466 : tensor<16x2048x16xbf16> loc(#loc530)
    %468 = stablehlo.divide %365, %467 : tensor<16x2048x16xbf16> loc(#loc532)
    %cst_106 = stablehlo.constant dense<0.000000e+00> : tensor<bf16> loc(#loc)
    %469 = stablehlo.broadcast_in_dim %cst_106, dims = [] : (tensor<bf16>) -> tensor<16x16x2048xbf16> loc(#loc530)
    %470 = stablehlo.add %420, %469 : tensor<16x16x2048xbf16> loc(#loc530)
    %471 = stablehlo.sqrt %470 : tensor<16x16x2048xbf16> loc(#loc531)
    %cst_107 = stablehlo.constant dense<1.001170e-08> : tensor<bf16> loc(#loc)
    %472 = stablehlo.broadcast_in_dim %cst_107, dims = [] : (tensor<bf16>) -> tensor<16x16x2048xbf16> loc(#loc530)
    %473 = stablehlo.add %471, %472 : tensor<16x16x2048xbf16> loc(#loc530)
    %474 = stablehlo.divide %368, %473 : tensor<16x16x2048xbf16> loc(#loc532)
    %cst_108 = stablehlo.constant dense<0.000000e+00> : tensor<bf16> loc(#loc)
    %475 = stablehlo.broadcast_in_dim %cst_108, dims = [] : (tensor<bf16>) -> tensor<16x2048x16xbf16> loc(#loc530)
    %476 = stablehlo.add %423, %475 : tensor<16x2048x16xbf16> loc(#loc530)
    %477 = stablehlo.sqrt %476 : tensor<16x2048x16xbf16> loc(#loc531)
    %cst_109 = stablehlo.constant dense<1.001170e-08> : tensor<bf16> loc(#loc)
    %478 = stablehlo.broadcast_in_dim %cst_109, dims = [] : (tensor<bf16>) -> tensor<16x2048x16xbf16> loc(#loc530)
    %479 = stablehlo.add %477, %478 : tensor<16x2048x16xbf16> loc(#loc530)
    %480 = stablehlo.divide %371, %479 : tensor<16x2048x16xbf16> loc(#loc532)
    %cst_110 = stablehlo.constant dense<0.000000e+00> : tensor<bf16> loc(#loc)
    %481 = stablehlo.broadcast_in_dim %cst_110, dims = [] : (tensor<bf16>) -> tensor<16x16x512xbf16> loc(#loc530)
    %482 = stablehlo.add %426, %481 : tensor<16x16x512xbf16> loc(#loc530)
    %483 = stablehlo.sqrt %482 : tensor<16x16x512xbf16> loc(#loc531)
    %cst_111 = stablehlo.constant dense<1.001170e-08> : tensor<bf16> loc(#loc)
    %484 = stablehlo.broadcast_in_dim %cst_111, dims = [] : (tensor<bf16>) -> tensor<16x16x512xbf16> loc(#loc530)
    %485 = stablehlo.add %483, %484 : tensor<16x16x512xbf16> loc(#loc530)
    %486 = stablehlo.divide %374, %485 : tensor<16x16x512xbf16> loc(#loc532)
    %cst_112 = stablehlo.constant dense<0.000000e+00> : tensor<bf16> loc(#loc)
    %487 = stablehlo.broadcast_in_dim %cst_112, dims = [] : (tensor<bf16>) -> tensor<16x2048x16xbf16> loc(#loc530)
    %488 = stablehlo.add %429, %487 : tensor<16x2048x16xbf16> loc(#loc530)
    %489 = stablehlo.sqrt %488 : tensor<16x2048x16xbf16> loc(#loc531)
    %cst_113 = stablehlo.constant dense<1.001170e-08> : tensor<bf16> loc(#loc)
    %490 = stablehlo.broadcast_in_dim %cst_113, dims = [] : (tensor<bf16>) -> tensor<16x2048x16xbf16> loc(#loc530)
    %491 = stablehlo.add %489, %490 : tensor<16x2048x16xbf16> loc(#loc530)
    %492 = stablehlo.divide %377, %491 : tensor<16x2048x16xbf16> loc(#loc532)
    %cst_114 = stablehlo.constant dense<0.000000e+00> : tensor<bf16> loc(#loc)
    %493 = stablehlo.broadcast_in_dim %cst_114, dims = [] : (tensor<bf16>) -> tensor<16x16x512xbf16> loc(#loc530)
    %494 = stablehlo.add %432, %493 : tensor<16x16x512xbf16> loc(#loc530)
    %495 = stablehlo.sqrt %494 : tensor<16x16x512xbf16> loc(#loc531)
    %cst_115 = stablehlo.constant dense<1.001170e-08> : tensor<bf16> loc(#loc)
    %496 = stablehlo.broadcast_in_dim %cst_115, dims = [] : (tensor<bf16>) -> tensor<16x16x512xbf16> loc(#loc530)
    %497 = stablehlo.add %495, %496 : tensor<16x16x512xbf16> loc(#loc530)
    %498 = stablehlo.divide %380, %497 : tensor<16x16x512xbf16> loc(#loc532)
    %cst_116 = stablehlo.constant dense<0.000000e+00> : tensor<bf16> loc(#loc)
    %499 = stablehlo.broadcast_in_dim %cst_116, dims = [] : (tensor<bf16>) -> tensor<16x2048x16xbf16> loc(#loc530)
    %500 = stablehlo.add %435, %499 : tensor<16x2048x16xbf16> loc(#loc530)
    %501 = stablehlo.sqrt %500 : tensor<16x2048x16xbf16> loc(#loc531)
    %cst_117 = stablehlo.constant dense<1.001170e-08> : tensor<bf16> loc(#loc)
    %502 = stablehlo.broadcast_in_dim %cst_117, dims = [] : (tensor<bf16>) -> tensor<16x2048x16xbf16> loc(#loc530)
    %503 = stablehlo.add %501, %502 : tensor<16x2048x16xbf16> loc(#loc530)
    %504 = stablehlo.divide %383, %503 : tensor<16x2048x16xbf16> loc(#loc532)
    %cst_118 = stablehlo.constant dense<0.000000e+00> : tensor<bf16> loc(#loc)
    %505 = stablehlo.broadcast_in_dim %cst_118, dims = [] : (tensor<bf16>) -> tensor<16x16x2048xbf16> loc(#loc530)
    %506 = stablehlo.add %438, %505 : tensor<16x16x2048xbf16> loc(#loc530)
    %507 = stablehlo.sqrt %506 : tensor<16x16x2048xbf16> loc(#loc531)
    %cst_119 = stablehlo.constant dense<1.001170e-08> : tensor<bf16> loc(#loc)
    %508 = stablehlo.broadcast_in_dim %cst_119, dims = [] : (tensor<bf16>) -> tensor<16x16x2048xbf16> loc(#loc530)
    %509 = stablehlo.add %507, %508 : tensor<16x16x2048xbf16> loc(#loc530)
    %510 = stablehlo.divide %386, %509 : tensor<16x16x2048xbf16> loc(#loc532)
    %cst_120 = stablehlo.constant dense<0.000000e+00> : tensor<bf16> loc(#loc)
    %511 = stablehlo.broadcast_in_dim %cst_120, dims = [] : (tensor<bf16>) -> tensor<16x2048x16xbf16> loc(#loc530)
    %512 = stablehlo.add %441, %511 : tensor<16x2048x16xbf16> loc(#loc530)
    %513 = stablehlo.sqrt %512 : tensor<16x2048x16xbf16> loc(#loc531)
    %cst_121 = stablehlo.constant dense<1.001170e-08> : tensor<bf16> loc(#loc)
    %514 = stablehlo.broadcast_in_dim %cst_121, dims = [] : (tensor<bf16>) -> tensor<16x2048x16xbf16> loc(#loc530)
    %515 = stablehlo.add %513, %514 : tensor<16x2048x16xbf16> loc(#loc530)
    %516 = stablehlo.divide %389, %515 : tensor<16x2048x16xbf16> loc(#loc532)
    %cst_122 = stablehlo.constant dense<0.000000e+00> : tensor<bf16> loc(#loc)
    %517 = stablehlo.broadcast_in_dim %cst_122, dims = [] : (tensor<bf16>) -> tensor<16x16x8192xbf16> loc(#loc530)
    %518 = stablehlo.add %444, %517 : tensor<16x16x8192xbf16> loc(#loc530)
    %519 = stablehlo.sqrt %518 : tensor<16x16x8192xbf16> loc(#loc531)
    %cst_123 = stablehlo.constant dense<1.001170e-08> : tensor<bf16> loc(#loc)
    %520 = stablehlo.broadcast_in_dim %cst_123, dims = [] : (tensor<bf16>) -> tensor<16x16x8192xbf16> loc(#loc530)
    %521 = stablehlo.add %519, %520 : tensor<16x16x8192xbf16> loc(#loc530)
    %522 = stablehlo.divide %392, %521 : tensor<16x16x8192xbf16> loc(#loc532)
    %cst_124 = stablehlo.constant dense<0.000000e+00> : tensor<bf16> loc(#loc)
    %523 = stablehlo.broadcast_in_dim %cst_124, dims = [] : (tensor<bf16>) -> tensor<16x2048x16xbf16> loc(#loc530)
    %524 = stablehlo.add %447, %523 : tensor<16x2048x16xbf16> loc(#loc530)
    %525 = stablehlo.sqrt %524 : tensor<16x2048x16xbf16> loc(#loc531)
    %cst_125 = stablehlo.constant dense<1.001170e-08> : tensor<bf16> loc(#loc)
    %526 = stablehlo.broadcast_in_dim %cst_125, dims = [] : (tensor<bf16>) -> tensor<16x2048x16xbf16> loc(#loc530)
    %527 = stablehlo.add %525, %526 : tensor<16x2048x16xbf16> loc(#loc530)
    %528 = stablehlo.divide %395, %527 : tensor<16x2048x16xbf16> loc(#loc532)
    %cst_126 = stablehlo.constant dense<0.000000e+00> : tensor<bf16> loc(#loc)
    %529 = stablehlo.broadcast_in_dim %cst_126, dims = [] : (tensor<bf16>) -> tensor<16x16x8192xbf16> loc(#loc530)
    %530 = stablehlo.add %450, %529 : tensor<16x16x8192xbf16> loc(#loc530)
    %531 = stablehlo.sqrt %530 : tensor<16x16x8192xbf16> loc(#loc531)
    %cst_127 = stablehlo.constant dense<1.001170e-08> : tensor<bf16> loc(#loc)
    %532 = stablehlo.broadcast_in_dim %cst_127, dims = [] : (tensor<bf16>) -> tensor<16x16x8192xbf16> loc(#loc530)
    %533 = stablehlo.add %531, %532 : tensor<16x16x8192xbf16> loc(#loc530)
    %534 = stablehlo.divide %398, %533 : tensor<16x16x8192xbf16> loc(#loc532)
    %cst_128 = stablehlo.constant dense<0.000000e+00> : tensor<bf16> loc(#loc)
    %535 = stablehlo.broadcast_in_dim %cst_128, dims = [] : (tensor<bf16>) -> tensor<16x8192x16xbf16> loc(#loc530)
    %536 = stablehlo.add %453, %535 : tensor<16x8192x16xbf16> loc(#loc530)
    %537 = stablehlo.sqrt %536 : tensor<16x8192x16xbf16> loc(#loc531)
    %cst_129 = stablehlo.constant dense<1.001170e-08> : tensor<bf16> loc(#loc)
    %538 = stablehlo.broadcast_in_dim %cst_129, dims = [] : (tensor<bf16>) -> tensor<16x8192x16xbf16> loc(#loc530)
    %539 = stablehlo.add %537, %538 : tensor<16x8192x16xbf16> loc(#loc530)
    %540 = stablehlo.divide %401, %539 : tensor<16x8192x16xbf16> loc(#loc532)
    %cst_130 = stablehlo.constant dense<0.000000e+00> : tensor<bf16> loc(#loc)
    %541 = stablehlo.broadcast_in_dim %cst_130, dims = [] : (tensor<bf16>) -> tensor<16x16x2048xbf16> loc(#loc530)
    %542 = stablehlo.add %456, %541 : tensor<16x16x2048xbf16> loc(#loc530)
    %543 = stablehlo.sqrt %542 : tensor<16x16x2048xbf16> loc(#loc531)
    %cst_131 = stablehlo.constant dense<1.001170e-08> : tensor<bf16> loc(#loc)
    %544 = stablehlo.broadcast_in_dim %cst_131, dims = [] : (tensor<bf16>) -> tensor<16x16x2048xbf16> loc(#loc530)
    %545 = stablehlo.add %543, %544 : tensor<16x16x2048xbf16> loc(#loc530)
    %546 = stablehlo.divide %404, %545 : tensor<16x16x2048xbf16> loc(#loc532)
    %cst_132 = stablehlo.constant dense<0.000000e+00> : tensor<bf16> loc(#loc)
    %547 = stablehlo.broadcast_in_dim %cst_132, dims = [] : (tensor<bf16>) -> tensor<2048x16xbf16> loc(#loc530)
    %548 = stablehlo.add %459, %547 : tensor<2048x16xbf16> loc(#loc530)
    %549 = stablehlo.sqrt %548 : tensor<2048x16xbf16> loc(#loc531)
    %cst_133 = stablehlo.constant dense<1.001170e-08> : tensor<bf16> loc(#loc)
    %550 = stablehlo.broadcast_in_dim %cst_133, dims = [] : (tensor<bf16>) -> tensor<2048x16xbf16> loc(#loc530)
    %551 = stablehlo.add %549, %550 : tensor<2048x16xbf16> loc(#loc530)
    %552 = stablehlo.divide %407, %551 : tensor<2048x16xbf16> loc(#loc532)
    %cst_134 = stablehlo.constant dense<0.000000e+00> : tensor<bf16> loc(#loc)
    %553 = stablehlo.broadcast_in_dim %cst_134, dims = [] : (tensor<bf16>) -> tensor<16x128256xbf16> loc(#loc530)
    %554 = stablehlo.add %462, %553 : tensor<16x128256xbf16> loc(#loc530)
    %555 = stablehlo.sqrt %554 : tensor<16x128256xbf16> loc(#loc531)
    %cst_135 = stablehlo.constant dense<1.001170e-08> : tensor<bf16> loc(#loc)
    %556 = stablehlo.broadcast_in_dim %cst_135, dims = [] : (tensor<bf16>) -> tensor<16x128256xbf16> loc(#loc530)
    %557 = stablehlo.add %555, %556 : tensor<16x128256xbf16> loc(#loc530)
    %558 = stablehlo.divide %410, %557 : tensor<16x128256xbf16> loc(#loc532)
    %cst_136 = stablehlo.constant dense<-9.994500e-04> : tensor<bf16> loc(#loc)
    %559 = stablehlo.broadcast_in_dim %cst_136, dims = [] : (tensor<bf16>) -> tensor<16x2048x16xbf16> loc(#loc533)
    %560 = stablehlo.multiply %559, %468 : tensor<16x2048x16xbf16> loc(#loc533)
    %cst_137 = stablehlo.constant dense<-9.994500e-04> : tensor<bf16> loc(#loc)
    %561 = stablehlo.broadcast_in_dim %cst_137, dims = [] : (tensor<bf16>) -> tensor<16x16x2048xbf16> loc(#loc533)
    %562 = stablehlo.multiply %561, %474 : tensor<16x16x2048xbf16> loc(#loc533)
    %cst_138 = stablehlo.constant dense<-9.994500e-04> : tensor<bf16> loc(#loc)
    %563 = stablehlo.broadcast_in_dim %cst_138, dims = [] : (tensor<bf16>) -> tensor<16x2048x16xbf16> loc(#loc533)
    %564 = stablehlo.multiply %563, %480 : tensor<16x2048x16xbf16> loc(#loc533)
    %cst_139 = stablehlo.constant dense<-9.994500e-04> : tensor<bf16> loc(#loc)
    %565 = stablehlo.broadcast_in_dim %cst_139, dims = [] : (tensor<bf16>) -> tensor<16x16x512xbf16> loc(#loc533)
    %566 = stablehlo.multiply %565, %486 : tensor<16x16x512xbf16> loc(#loc533)
    %cst_140 = stablehlo.constant dense<-9.994500e-04> : tensor<bf16> loc(#loc)
    %567 = stablehlo.broadcast_in_dim %cst_140, dims = [] : (tensor<bf16>) -> tensor<16x2048x16xbf16> loc(#loc533)
    %568 = stablehlo.multiply %567, %492 : tensor<16x2048x16xbf16> loc(#loc533)
    %cst_141 = stablehlo.constant dense<-9.994500e-04> : tensor<bf16> loc(#loc)
    %569 = stablehlo.broadcast_in_dim %cst_141, dims = [] : (tensor<bf16>) -> tensor<16x16x512xbf16> loc(#loc533)
    %570 = stablehlo.multiply %569, %498 : tensor<16x16x512xbf16> loc(#loc533)
    %cst_142 = stablehlo.constant dense<-9.994500e-04> : tensor<bf16> loc(#loc)
    %571 = stablehlo.broadcast_in_dim %cst_142, dims = [] : (tensor<bf16>) -> tensor<16x2048x16xbf16> loc(#loc533)
    %572 = stablehlo.multiply %571, %504 : tensor<16x2048x16xbf16> loc(#loc533)
    %cst_143 = stablehlo.constant dense<-9.994500e-04> : tensor<bf16> loc(#loc)
    %573 = stablehlo.broadcast_in_dim %cst_143, dims = [] : (tensor<bf16>) -> tensor<16x16x2048xbf16> loc(#loc533)
    %574 = stablehlo.multiply %573, %510 : tensor<16x16x2048xbf16> loc(#loc533)
    %cst_144 = stablehlo.constant dense<-9.994500e-04> : tensor<bf16> loc(#loc)
    %575 = stablehlo.broadcast_in_dim %cst_144, dims = [] : (tensor<bf16>) -> tensor<16x2048x16xbf16> loc(#loc533)
    %576 = stablehlo.multiply %575, %516 : tensor<16x2048x16xbf16> loc(#loc533)
    %cst_145 = stablehlo.constant dense<-9.994500e-04> : tensor<bf16> loc(#loc)
    %577 = stablehlo.broadcast_in_dim %cst_145, dims = [] : (tensor<bf16>) -> tensor<16x16x8192xbf16> loc(#loc533)
    %578 = stablehlo.multiply %577, %522 : tensor<16x16x8192xbf16> loc(#loc533)
    %cst_146 = stablehlo.constant dense<-9.994500e-04> : tensor<bf16> loc(#loc)
    %579 = stablehlo.broadcast_in_dim %cst_146, dims = [] : (tensor<bf16>) -> tensor<16x2048x16xbf16> loc(#loc533)
    %580 = stablehlo.multiply %579, %528 : tensor<16x2048x16xbf16> loc(#loc533)
    %cst_147 = stablehlo.constant dense<-9.994500e-04> : tensor<bf16> loc(#loc)
    %581 = stablehlo.broadcast_in_dim %cst_147, dims = [] : (tensor<bf16>) -> tensor<16x16x8192xbf16> loc(#loc533)
    %582 = stablehlo.multiply %581, %534 : tensor<16x16x8192xbf16> loc(#loc533)
    %cst_148 = stablehlo.constant dense<-9.994500e-04> : tensor<bf16> loc(#loc)
    %583 = stablehlo.broadcast_in_dim %cst_148, dims = [] : (tensor<bf16>) -> tensor<16x8192x16xbf16> loc(#loc533)
    %584 = stablehlo.multiply %583, %540 : tensor<16x8192x16xbf16> loc(#loc533)
    %cst_149 = stablehlo.constant dense<-9.994500e-04> : tensor<bf16> loc(#loc)
    %585 = stablehlo.broadcast_in_dim %cst_149, dims = [] : (tensor<bf16>) -> tensor<16x16x2048xbf16> loc(#loc533)
    %586 = stablehlo.multiply %585, %546 : tensor<16x16x2048xbf16> loc(#loc533)
    %cst_150 = stablehlo.constant dense<-9.994500e-04> : tensor<bf16> loc(#loc)
    %587 = stablehlo.broadcast_in_dim %cst_150, dims = [] : (tensor<bf16>) -> tensor<2048x16xbf16> loc(#loc533)
    %588 = stablehlo.multiply %587, %552 : tensor<2048x16xbf16> loc(#loc533)
    %cst_151 = stablehlo.constant dense<-9.994500e-04> : tensor<bf16> loc(#loc)
    %589 = stablehlo.broadcast_in_dim %cst_151, dims = [] : (tensor<bf16>) -> tensor<16x128256xbf16> loc(#loc533)
    %590 = stablehlo.multiply %589, %558 : tensor<16x128256xbf16> loc(#loc533)
    %591 = stablehlo.add %arg5, %560 : tensor<16x2048x16xbf16> loc(#loc331)
    %592 = stablehlo.add %arg6, %562 : tensor<16x16x2048xbf16> loc(#loc331)
    %593 = stablehlo.add %arg8, %564 : tensor<16x2048x16xbf16> loc(#loc331)
    %594 = stablehlo.add %arg9, %566 : tensor<16x16x512xbf16> loc(#loc331)
    %595 = stablehlo.add %arg11, %568 : tensor<16x2048x16xbf16> loc(#loc331)
    %596 = stablehlo.add %arg12, %570 : tensor<16x16x512xbf16> loc(#loc331)
    %597 = stablehlo.add %arg14, %572 : tensor<16x2048x16xbf16> loc(#loc331)
    %598 = stablehlo.add %arg15, %574 : tensor<16x16x2048xbf16> loc(#loc331)
    %599 = stablehlo.add %arg18, %576 : tensor<16x2048x16xbf16> loc(#loc331)
    %600 = stablehlo.add %arg19, %578 : tensor<16x16x8192xbf16> loc(#loc331)
    %601 = stablehlo.add %arg21, %580 : tensor<16x2048x16xbf16> loc(#loc331)
    %602 = stablehlo.add %arg22, %582 : tensor<16x16x8192xbf16> loc(#loc331)
    %603 = stablehlo.add %arg24, %584 : tensor<16x8192x16xbf16> loc(#loc331)
    %604 = stablehlo.add %arg25, %586 : tensor<16x16x2048xbf16> loc(#loc331)
    %605 = stablehlo.add %arg30, %588 : tensor<2048x16xbf16> loc(#loc331)
    %606 = stablehlo.add %arg31, %590 : tensor<16x128256xbf16> loc(#loc331)
    return %0#0, %0#1, %arg3, %arg4, %591, %592, %arg7, %593, %594, %arg10, %595, %596, %arg13, %597, %598, %arg16, %arg17, %599, %600, %arg20, %601, %602, %arg23, %603, %604, %arg26, %arg27, %arg28, %arg29, %605, %606, %358, %169, %175, %181, %187, %193, %199, %205, %211, %217, %223, %229, %235, %241, %247, %253, %259, %265, %271, %277, %283, %289, %295, %301, %307, %313, %319, %325, %331, %337, %343, %349, %355 : tensor<f32>, tensor<f32>, tensor<128256x2048xf32>, tensor<16x2048x2048xbf16>, tensor<16x2048x16xbf16>, tensor<16x16x2048xbf16>, tensor<16x512x2048xbf16>, tensor<16x2048x16xbf16>, tensor<16x16x512xbf16>, tensor<16x512x2048xbf16>, tensor<16x2048x16xbf16>, tensor<16x16x512xbf16>, tensor<16x2048x2048xbf16>, tensor<16x2048x16xbf16>, tensor<16x16x2048xbf16>, tensor<16x32xf32>, tensor<16x8192x2048xbf16>, tensor<16x2048x16xbf16>, tensor<16x16x8192xbf16>, tensor<16x8192x2048xbf16>, tensor<16x2048x16xbf16>, tensor<16x16x8192xbf16>, tensor<16x2048x8192xbf16>, tensor<16x8192x16xbf16>, tensor<16x16x2048xbf16>, tensor<16x2048xf32>, tensor<16x2048xf32>, tensor<2048xf32>, tensor<128256x2048xbf16>, tensor<2048x16xbf16>, tensor<16x128256xbf16>, tensor<i32>, tensor<16x2048x16xbf16>, tensor<16x16x2048xbf16>, tensor<16x2048x16xbf16>, tensor<16x16x512xbf16>, tensor<16x2048x16xbf16>, tensor<16x16x512xbf16>, tensor<16x2048x16xbf16>, tensor<16x16x2048xbf16>, tensor<16x2048x16xbf16>, tensor<16x16x8192xbf16>, tensor<16x2048x16xbf16>, tensor<16x16x8192xbf16>, tensor<16x8192x16xbf16>, tensor<16x16x2048xbf16>, tensor<2048x16xbf16>, tensor<16x128256xbf16>, tensor<16x2048x16xbf16>, tensor<16x16x2048xbf16>, tensor<16x2048x16xbf16>, tensor<16x16x512xbf16>, tensor<16x2048x16xbf16>, tensor<16x16x512xbf16>, tensor<16x2048x16xbf16>, tensor<16x16x2048xbf16>, tensor<16x2048x16xbf16>, tensor<16x16x8192xbf16>, tensor<16x2048x16xbf16>, tensor<16x16x8192xbf16>, tensor<16x8192x16xbf16>, tensor<16x16x2048xbf16>, tensor<2048x16xbf16>, tensor<16x128256xbf16> loc(#loc)
  } loc(#loc)
  func.func private @forward(%arg0: tensor<128256x2048xf32> loc("jit(training_step)/jit(main)/pjit"(#loc286)), %arg1: tensor<16x2048x2048xbf16> loc("jit(training_step)/jit(main)/pjit"(#loc286)), %arg2: tensor<16x2048x16xbf16> loc("jit(training_step)/jit(main)/pjit"(#loc286)), %arg3: tensor<16x16x2048xbf16> loc("jit(training_step)/jit(main)/pjit"(#loc286)), %arg4: tensor<16x512x2048xbf16> loc("jit(training_step)/jit(main)/pjit"(#loc286)), %arg5: tensor<16x2048x16xbf16> loc("jit(training_step)/jit(main)/pjit"(#loc286)), %arg6: tensor<16x16x512xbf16> loc("jit(training_step)/jit(main)/pjit"(#loc286)), %arg7: tensor<16x512x2048xbf16> loc("jit(training_step)/jit(main)/pjit"(#loc286)), %arg8: tensor<16x2048x16xbf16> loc("jit(training_step)/jit(main)/pjit"(#loc286)), %arg9: tensor<16x16x512xbf16> loc("jit(training_step)/jit(main)/pjit"(#loc286)), %arg10: tensor<16x2048x2048xbf16> loc("jit(training_step)/jit(main)/pjit"(#loc286)), %arg11: tensor<16x2048x16xbf16> loc("jit(training_step)/jit(main)/pjit"(#loc286)), %arg12: tensor<16x16x2048xbf16> loc("jit(training_step)/jit(main)/pjit"(#loc286)), %arg13: tensor<16x32xf32> loc("jit(training_step)/jit(main)/pjit"(#loc286)), %arg14: tensor<16x8192x2048xbf16> loc("jit(training_step)/jit(main)/pjit"(#loc286)), %arg15: tensor<16x2048x16xbf16> loc("jit(training_step)/jit(main)/pjit"(#loc286)), %arg16: tensor<16x16x8192xbf16> loc("jit(training_step)/jit(main)/pjit"(#loc286)), %arg17: tensor<16x8192x2048xbf16> loc("jit(training_step)/jit(main)/pjit"(#loc286)), %arg18: tensor<16x2048x16xbf16> loc("jit(training_step)/jit(main)/pjit"(#loc286)), %arg19: tensor<16x16x8192xbf16> loc("jit(training_step)/jit(main)/pjit"(#loc286)), %arg20: tensor<16x2048x8192xbf16> loc("jit(training_step)/jit(main)/pjit"(#loc286)), %arg21: tensor<16x8192x16xbf16> loc("jit(training_step)/jit(main)/pjit"(#loc286)), %arg22: tensor<16x16x2048xbf16> loc("jit(training_step)/jit(main)/pjit"(#loc286)), %arg23: tensor<16x2048xf32> loc("jit(training_step)/jit(main)/pjit"(#loc286)), %arg24: tensor<16x2048xf32> loc("jit(training_step)/jit(main)/pjit"(#loc286)), %arg25: tensor<2048xf32> loc("jit(training_step)/jit(main)/pjit"(#loc286)), %arg26: tensor<128256x2048xbf16> loc("jit(training_step)/jit(main)/pjit"(#loc286)), %arg27: tensor<2048x16xbf16> loc("jit(training_step)/jit(main)/pjit"(#loc286)), %arg28: tensor<16x128256xbf16> loc("jit(training_step)/jit(main)/pjit"(#loc286)), %arg29: tensor<8x32xi32> loc("jit(training_step)/jit(main)/pjit"(#loc286)), %arg30: tensor<8x32xi32> loc("jit(training_step)/jit(main)/pjit"(#loc286)), %arg31: tensor<8x32xi32> loc("jit(training_step)/jit(main)/pjit"(#loc286))) -> (tensor<f32>, tensor<f32>, tensor<1x1x2048xbf16>, tensor<16x8x32x2048xbf16>, tensor<8x32x1xbf16>, tensor<8x32x2048xbf16>, tensor<8x32x2048xbf16>, tensor<8x32x1xbf16>, tensor<2048x128256xbf16>, tensor<8x32x2048xbf16>, tensor<8x32x16xbf16>, tensor<248x128256xf32>, tensor<248x1xf32>, tensor<248x2xi32>, tensor<248xf32>, tensor<8xf32>) {
    %0 = call @_take(%arg0, %arg29) : (tensor<128256x2048xf32>, tensor<8x32xi32>) -> tensor<8x32x2048xf32> loc(#loc480)
    %1 = stablehlo.convert %0 : (tensor<8x32x2048xf32>) -> tensor<8x32x2048xbf16> loc(#loc414)
    %2 = stablehlo.convert %arg31 : (tensor<8x32xi32>) -> tensor<8x32xf32> loc(#loc617)
    %3 = stablehlo.reshape %2 : (tensor<8x32xf32>) -> tensor<8x32x1xf32> loc(#loc618)
    %cst = stablehlo.constant dense<6.400000e+01> : tensor<f32> loc(#loc292)
    %4 = stablehlo.sqrt %cst : tensor<f32> loc(#loc619)
    %5 = stablehlo.convert %4 : tensor<f32> loc(#loc620)
    %cst_0 = stablehlo.constant dense<1.000000e+00> : tensor<f32> loc(#loc292)
    %6 = stablehlo.broadcast_in_dim %cst_0, dims = [] : (tensor<f32>) -> tensor<32x32xf32> loc(#loc621)
    %7 = call @tril(%6) : (tensor<32x32xf32>) -> tensor<32x32xf32> loc(#loc622)
    %8 = stablehlo.broadcast_in_dim %7, dims = [2, 3] : (tensor<32x32xf32>) -> tensor<1x1x32x32xf32> loc(#loc623)
    %cst_1 = stablehlo.constant dense<0.000000e+00> : tensor<f32> loc(#loc292)
    %9 = stablehlo.broadcast_in_dim %cst_1, dims = [] : (tensor<f32>) -> tensor<1x1x32x32xf32> loc(#loc624)
    %10 = stablehlo.compare  EQ, %8, %9,  FLOAT : (tensor<1x1x32x32xf32>, tensor<1x1x32x32xf32>) -> tensor<1x1x32x32xi1> loc(#loc624)
    %cst_2 = stablehlo.constant dense<0xFF800000> : tensor<f32> loc(#loc292)
    %11:2 = call @_where_0(%10, %cst_2) : (tensor<1x1x32x32xi1>, tensor<f32>) -> (tensor<8x32x32x32xi1>, tensor<8x32x32x32xf32>) loc(#loc625)
    %cst_3 = stablehlo.constant dense<0.000000e+00> : tensor<bf16> loc(#loc417)
    %12 = stablehlo.broadcast_in_dim %cst_3, dims = [] : (tensor<bf16>) -> tensor<16x8x32x2048xbf16> loc(#loc418)
    %c = stablehlo.constant dense<0> : tensor<i32> loc(#loc419)
    %13:31 = stablehlo.while(%iterArg = %arg1, %iterArg_23 = %arg2, %iterArg_24 = %arg3, %iterArg_25 = %arg4, %iterArg_26 = %arg5, %iterArg_27 = %arg6, %iterArg_28 = %arg7, %iterArg_29 = %arg8, %iterArg_30 = %arg9, %iterArg_31 = %arg10, %iterArg_32 = %arg11, %iterArg_33 = %arg12, %iterArg_34 = %arg13, %iterArg_35 = %arg14, %iterArg_36 = %arg15, %iterArg_37 = %arg16, %iterArg_38 = %arg17, %iterArg_39 = %arg18, %iterArg_40 = %arg19, %iterArg_41 = %arg20, %iterArg_42 = %arg21, %iterArg_43 = %arg22, %iterArg_44 = %arg23, %iterArg_45 = %arg24, %iterArg_46 = %3, %iterArg_47 = %5, %iterArg_48 = %11#0, %iterArg_49 = %11#1, %iterArg_50 = %c, %iterArg_51 = %1, %iterArg_52 = %12) : tensor<16x2048x2048xbf16>, tensor<16x2048x16xbf16>, tensor<16x16x2048xbf16>, tensor<16x512x2048xbf16>, tensor<16x2048x16xbf16>, tensor<16x16x512xbf16>, tensor<16x512x2048xbf16>, tensor<16x2048x16xbf16>, tensor<16x16x512xbf16>, tensor<16x2048x2048xbf16>, tensor<16x2048x16xbf16>, tensor<16x16x2048xbf16>, tensor<16x32xf32>, tensor<16x8192x2048xbf16>, tensor<16x2048x16xbf16>, tensor<16x16x8192xbf16>, tensor<16x8192x2048xbf16>, tensor<16x2048x16xbf16>, tensor<16x16x8192xbf16>, tensor<16x2048x8192xbf16>, tensor<16x8192x16xbf16>, tensor<16x16x2048xbf16>, tensor<16x2048xf32>, tensor<16x2048xf32>, tensor<8x32x1xf32>, tensor<f32>, tensor<8x32x32x32xi1>, tensor<8x32x32x32xf32>, tensor<i32>, tensor<8x32x2048xbf16>, tensor<16x8x32x2048xbf16>
     cond {
      %c_53 = stablehlo.constant dense<16> : tensor<i32> loc(#loc420)
      %84 = stablehlo.compare  LT, %iterArg_50, %c_53,  SIGNED : (tensor<i32>, tensor<i32>) -> tensor<i1> loc(#loc421)
      stablehlo.return %84 : tensor<i1> loc(#loc420)
    } do {
      %c_53 = stablehlo.constant dense<0> : tensor<i32> loc(#loc420)
      %84 = stablehlo.compare  LT, %iterArg_50, %c_53,  SIGNED : (tensor<i32>, tensor<i32>) -> tensor<i1> loc(#loc422)
      %85 = stablehlo.convert %iterArg_50 : tensor<i32> loc(#loc423)
      %c_54 = stablehlo.constant dense<16> : tensor<i32> loc(#loc420)
      %86 = stablehlo.add %85, %c_54 : tensor<i32> loc(#loc424)
      %87 = stablehlo.select %84, %86, %iterArg_50 : tensor<i1>, tensor<i32> loc(#loc425)
      %c_55 = stablehlo.constant dense<0> : tensor<i32> loc(#loc420)
      %c_56 = stablehlo.constant dense<0> : tensor<i32> loc(#loc420)
      %88 = stablehlo.dynamic_slice %iterArg, %87, %c_55, %c_56, sizes = [1, 2048, 2048] : (tensor<16x2048x2048xbf16>, tensor<i32>, tensor<i32>, tensor<i32>) -> tensor<1x2048x2048xbf16> loc(#loc426)
      %89 = stablehlo.reshape %88 : (tensor<1x2048x2048xbf16>) -> tensor<2048x2048xbf16> loc(#loc427)
      %c_57 = stablehlo.constant dense<0> : tensor<i32> loc(#loc420)
      %90 = stablehlo.compare  LT, %iterArg_50, %c_57,  SIGNED : (tensor<i32>, tensor<i32>) -> tensor<i1> loc(#loc422)
      %91 = stablehlo.convert %iterArg_50 : tensor<i32> loc(#loc423)
      %c_58 = stablehlo.constant dense<16> : tensor<i32> loc(#loc420)
      %92 = stablehlo.add %91, %c_58 : tensor<i32> loc(#loc424)
      %93 = stablehlo.select %90, %92, %iterArg_50 : tensor<i1>, tensor<i32> loc(#loc425)
      %c_59 = stablehlo.constant dense<0> : tensor<i32> loc(#loc420)
      %c_60 = stablehlo.constant dense<0> : tensor<i32> loc(#loc420)
      %94 = stablehlo.dynamic_slice %iterArg_23, %93, %c_59, %c_60, sizes = [1, 2048, 16] : (tensor<16x2048x16xbf16>, tensor<i32>, tensor<i32>, tensor<i32>) -> tensor<1x2048x16xbf16> loc(#loc426)
      %95 = stablehlo.reshape %94 : (tensor<1x2048x16xbf16>) -> tensor<2048x16xbf16> loc(#loc427)
      %c_61 = stablehlo.constant dense<0> : tensor<i32> loc(#loc420)
      %96 = stablehlo.compare  LT, %iterArg_50, %c_61,  SIGNED : (tensor<i32>, tensor<i32>) -> tensor<i1> loc(#loc422)
      %97 = stablehlo.convert %iterArg_50 : tensor<i32> loc(#loc423)
      %c_62 = stablehlo.constant dense<16> : tensor<i32> loc(#loc420)
      %98 = stablehlo.add %97, %c_62 : tensor<i32> loc(#loc424)
      %99 = stablehlo.select %96, %98, %iterArg_50 : tensor<i1>, tensor<i32> loc(#loc425)
      %c_63 = stablehlo.constant dense<0> : tensor<i32> loc(#loc420)
      %c_64 = stablehlo.constant dense<0> : tensor<i32> loc(#loc420)
      %100 = stablehlo.dynamic_slice %iterArg_24, %99, %c_63, %c_64, sizes = [1, 16, 2048] : (tensor<16x16x2048xbf16>, tensor<i32>, tensor<i32>, tensor<i32>) -> tensor<1x16x2048xbf16> loc(#loc426)
      %101 = stablehlo.reshape %100 : (tensor<1x16x2048xbf16>) -> tensor<16x2048xbf16> loc(#loc427)
      %c_65 = stablehlo.constant dense<0> : tensor<i32> loc(#loc420)
      %102 = stablehlo.compare  LT, %iterArg_50, %c_65,  SIGNED : (tensor<i32>, tensor<i32>) -> tensor<i1> loc(#loc422)
      %103 = stablehlo.convert %iterArg_50 : tensor<i32> loc(#loc423)
      %c_66 = stablehlo.constant dense<16> : tensor<i32> loc(#loc420)
      %104 = stablehlo.add %103, %c_66 : tensor<i32> loc(#loc424)
      %105 = stablehlo.select %102, %104, %iterArg_50 : tensor<i1>, tensor<i32> loc(#loc425)
      %c_67 = stablehlo.constant dense<0> : tensor<i32> loc(#loc420)
      %c_68 = stablehlo.constant dense<0> : tensor<i32> loc(#loc420)
      %106 = stablehlo.dynamic_slice %iterArg_25, %105, %c_67, %c_68, sizes = [1, 512, 2048] : (tensor<16x512x2048xbf16>, tensor<i32>, tensor<i32>, tensor<i32>) -> tensor<1x512x2048xbf16> loc(#loc426)
      %107 = stablehlo.reshape %106 : (tensor<1x512x2048xbf16>) -> tensor<512x2048xbf16> loc(#loc427)
      %c_69 = stablehlo.constant dense<0> : tensor<i32> loc(#loc420)
      %108 = stablehlo.compare  LT, %iterArg_50, %c_69,  SIGNED : (tensor<i32>, tensor<i32>) -> tensor<i1> loc(#loc422)
      %109 = stablehlo.convert %iterArg_50 : tensor<i32> loc(#loc423)
      %c_70 = stablehlo.constant dense<16> : tensor<i32> loc(#loc420)
      %110 = stablehlo.add %109, %c_70 : tensor<i32> loc(#loc424)
      %111 = stablehlo.select %108, %110, %iterArg_50 : tensor<i1>, tensor<i32> loc(#loc425)
      %c_71 = stablehlo.constant dense<0> : tensor<i32> loc(#loc420)
      %c_72 = stablehlo.constant dense<0> : tensor<i32> loc(#loc420)
      %112 = stablehlo.dynamic_slice %iterArg_26, %111, %c_71, %c_72, sizes = [1, 2048, 16] : (tensor<16x2048x16xbf16>, tensor<i32>, tensor<i32>, tensor<i32>) -> tensor<1x2048x16xbf16> loc(#loc426)
      %113 = stablehlo.reshape %112 : (tensor<1x2048x16xbf16>) -> tensor<2048x16xbf16> loc(#loc427)
      %c_73 = stablehlo.constant dense<0> : tensor<i32> loc(#loc420)
      %114 = stablehlo.compare  LT, %iterArg_50, %c_73,  SIGNED : (tensor<i32>, tensor<i32>) -> tensor<i1> loc(#loc422)
      %115 = stablehlo.convert %iterArg_50 : tensor<i32> loc(#loc423)
      %c_74 = stablehlo.constant dense<16> : tensor<i32> loc(#loc420)
      %116 = stablehlo.add %115, %c_74 : tensor<i32> loc(#loc424)
      %117 = stablehlo.select %114, %116, %iterArg_50 : tensor<i1>, tensor<i32> loc(#loc425)
      %c_75 = stablehlo.constant dense<0> : tensor<i32> loc(#loc420)
      %c_76 = stablehlo.constant dense<0> : tensor<i32> loc(#loc420)
      %118 = stablehlo.dynamic_slice %iterArg_27, %117, %c_75, %c_76, sizes = [1, 16, 512] : (tensor<16x16x512xbf16>, tensor<i32>, tensor<i32>, tensor<i32>) -> tensor<1x16x512xbf16> loc(#loc426)
      %119 = stablehlo.reshape %118 : (tensor<1x16x512xbf16>) -> tensor<16x512xbf16> loc(#loc427)
      %c_77 = stablehlo.constant dense<0> : tensor<i32> loc(#loc420)
      %120 = stablehlo.compare  LT, %iterArg_50, %c_77,  SIGNED : (tensor<i32>, tensor<i32>) -> tensor<i1> loc(#loc422)
      %121 = stablehlo.convert %iterArg_50 : tensor<i32> loc(#loc423)
      %c_78 = stablehlo.constant dense<16> : tensor<i32> loc(#loc420)
      %122 = stablehlo.add %121, %c_78 : tensor<i32> loc(#loc424)
      %123 = stablehlo.select %120, %122, %iterArg_50 : tensor<i1>, tensor<i32> loc(#loc425)
      %c_79 = stablehlo.constant dense<0> : tensor<i32> loc(#loc420)
      %c_80 = stablehlo.constant dense<0> : tensor<i32> loc(#loc420)
      %124 = stablehlo.dynamic_slice %iterArg_28, %123, %c_79, %c_80, sizes = [1, 512, 2048] : (tensor<16x512x2048xbf16>, tensor<i32>, tensor<i32>, tensor<i32>) -> tensor<1x512x2048xbf16> loc(#loc426)
      %125 = stablehlo.reshape %124 : (tensor<1x512x2048xbf16>) -> tensor<512x2048xbf16> loc(#loc427)
      %c_81 = stablehlo.constant dense<0> : tensor<i32> loc(#loc420)
      %126 = stablehlo.compare  LT, %iterArg_50, %c_81,  SIGNED : (tensor<i32>, tensor<i32>) -> tensor<i1> loc(#loc422)
      %127 = stablehlo.convert %iterArg_50 : tensor<i32> loc(#loc423)
      %c_82 = stablehlo.constant dense<16> : tensor<i32> loc(#loc420)
      %128 = stablehlo.add %127, %c_82 : tensor<i32> loc(#loc424)
      %129 = stablehlo.select %126, %128, %iterArg_50 : tensor<i1>, tensor<i32> loc(#loc425)
      %c_83 = stablehlo.constant dense<0> : tensor<i32> loc(#loc420)
      %c_84 = stablehlo.constant dense<0> : tensor<i32> loc(#loc420)
      %130 = stablehlo.dynamic_slice %iterArg_29, %129, %c_83, %c_84, sizes = [1, 2048, 16] : (tensor<16x2048x16xbf16>, tensor<i32>, tensor<i32>, tensor<i32>) -> tensor<1x2048x16xbf16> loc(#loc426)
      %131 = stablehlo.reshape %130 : (tensor<1x2048x16xbf16>) -> tensor<2048x16xbf16> loc(#loc427)
      %c_85 = stablehlo.constant dense<0> : tensor<i32> loc(#loc420)
      %132 = stablehlo.compare  LT, %iterArg_50, %c_85,  SIGNED : (tensor<i32>, tensor<i32>) -> tensor<i1> loc(#loc422)
      %133 = stablehlo.convert %iterArg_50 : tensor<i32> loc(#loc423)
      %c_86 = stablehlo.constant dense<16> : tensor<i32> loc(#loc420)
      %134 = stablehlo.add %133, %c_86 : tensor<i32> loc(#loc424)
      %135 = stablehlo.select %132, %134, %iterArg_50 : tensor<i1>, tensor<i32> loc(#loc425)
      %c_87 = stablehlo.constant dense<0> : tensor<i32> loc(#loc420)
      %c_88 = stablehlo.constant dense<0> : tensor<i32> loc(#loc420)
      %136 = stablehlo.dynamic_slice %iterArg_30, %135, %c_87, %c_88, sizes = [1, 16, 512] : (tensor<16x16x512xbf16>, tensor<i32>, tensor<i32>, tensor<i32>) -> tensor<1x16x512xbf16> loc(#loc426)
      %137 = stablehlo.reshape %136 : (tensor<1x16x512xbf16>) -> tensor<16x512xbf16> loc(#loc427)
      %c_89 = stablehlo.constant dense<0> : tensor<i32> loc(#loc420)
      %138 = stablehlo.compare  LT, %iterArg_50, %c_89,  SIGNED : (tensor<i32>, tensor<i32>) -> tensor<i1> loc(#loc422)
      %139 = stablehlo.convert %iterArg_50 : tensor<i32> loc(#loc423)
      %c_90 = stablehlo.constant dense<16> : tensor<i32> loc(#loc420)
      %140 = stablehlo.add %139, %c_90 : tensor<i32> loc(#loc424)
      %141 = stablehlo.select %138, %140, %iterArg_50 : tensor<i1>, tensor<i32> loc(#loc425)
      %c_91 = stablehlo.constant dense<0> : tensor<i32> loc(#loc420)
      %c_92 = stablehlo.constant dense<0> : tensor<i32> loc(#loc420)
      %142 = stablehlo.dynamic_slice %iterArg_31, %141, %c_91, %c_92, sizes = [1, 2048, 2048] : (tensor<16x2048x2048xbf16>, tensor<i32>, tensor<i32>, tensor<i32>) -> tensor<1x2048x2048xbf16> loc(#loc426)
      %143 = stablehlo.reshape %142 : (tensor<1x2048x2048xbf16>) -> tensor<2048x2048xbf16> loc(#loc427)
      %c_93 = stablehlo.constant dense<0> : tensor<i32> loc(#loc420)
      %144 = stablehlo.compare  LT, %iterArg_50, %c_93,  SIGNED : (tensor<i32>, tensor<i32>) -> tensor<i1> loc(#loc422)
      %145 = stablehlo.convert %iterArg_50 : tensor<i32> loc(#loc423)
      %c_94 = stablehlo.constant dense<16> : tensor<i32> loc(#loc420)
      %146 = stablehlo.add %145, %c_94 : tensor<i32> loc(#loc424)
      %147 = stablehlo.select %144, %146, %iterArg_50 : tensor<i1>, tensor<i32> loc(#loc425)
      %c_95 = stablehlo.constant dense<0> : tensor<i32> loc(#loc420)
      %c_96 = stablehlo.constant dense<0> : tensor<i32> loc(#loc420)
      %148 = stablehlo.dynamic_slice %iterArg_32, %147, %c_95, %c_96, sizes = [1, 2048, 16] : (tensor<16x2048x16xbf16>, tensor<i32>, tensor<i32>, tensor<i32>) -> tensor<1x2048x16xbf16> loc(#loc426)
      %149 = stablehlo.reshape %148 : (tensor<1x2048x16xbf16>) -> tensor<2048x16xbf16> loc(#loc427)
      %c_97 = stablehlo.constant dense<0> : tensor<i32> loc(#loc420)
      %150 = stablehlo.compare  LT, %iterArg_50, %c_97,  SIGNED : (tensor<i32>, tensor<i32>) -> tensor<i1> loc(#loc422)
      %151 = stablehlo.convert %iterArg_50 : tensor<i32> loc(#loc423)
      %c_98 = stablehlo.constant dense<16> : tensor<i32> loc(#loc420)
      %152 = stablehlo.add %151, %c_98 : tensor<i32> loc(#loc424)
      %153 = stablehlo.select %150, %152, %iterArg_50 : tensor<i1>, tensor<i32> loc(#loc425)
      %c_99 = stablehlo.constant dense<0> : tensor<i32> loc(#loc420)
      %c_100 = stablehlo.constant dense<0> : tensor<i32> loc(#loc420)
      %154 = stablehlo.dynamic_slice %iterArg_33, %153, %c_99, %c_100, sizes = [1, 16, 2048] : (tensor<16x16x2048xbf16>, tensor<i32>, tensor<i32>, tensor<i32>) -> tensor<1x16x2048xbf16> loc(#loc426)
      %155 = stablehlo.reshape %154 : (tensor<1x16x2048xbf16>) -> tensor<16x2048xbf16> loc(#loc427)
      %c_101 = stablehlo.constant dense<0> : tensor<i32> loc(#loc420)
      %156 = stablehlo.compare  LT, %iterArg_50, %c_101,  SIGNED : (tensor<i32>, tensor<i32>) -> tensor<i1> loc(#loc422)
      %157 = stablehlo.convert %iterArg_50 : tensor<i32> loc(#loc423)
      %c_102 = stablehlo.constant dense<16> : tensor<i32> loc(#loc420)
      %158 = stablehlo.add %157, %c_102 : tensor<i32> loc(#loc424)
      %159 = stablehlo.select %156, %158, %iterArg_50 : tensor<i1>, tensor<i32> loc(#loc425)
      %c_103 = stablehlo.constant dense<0> : tensor<i32> loc(#loc420)
      %160 = stablehlo.dynamic_slice %iterArg_34, %159, %c_103, sizes = [1, 32] : (tensor<16x32xf32>, tensor<i32>, tensor<i32>) -> tensor<1x32xf32> loc(#loc426)
      %161 = stablehlo.reshape %160 : (tensor<1x32xf32>) -> tensor<32xf32> loc(#loc427)
      %c_104 = stablehlo.constant dense<0> : tensor<i32> loc(#loc420)
      %162 = stablehlo.compare  LT, %iterArg_50, %c_104,  SIGNED : (tensor<i32>, tensor<i32>) -> tensor<i1> loc(#loc422)
      %163 = stablehlo.convert %iterArg_50 : tensor<i32> loc(#loc423)
      %c_105 = stablehlo.constant dense<16> : tensor<i32> loc(#loc420)
      %164 = stablehlo.add %163, %c_105 : tensor<i32> loc(#loc424)
      %165 = stablehlo.select %162, %164, %iterArg_50 : tensor<i1>, tensor<i32> loc(#loc425)
      %c_106 = stablehlo.constant dense<0> : tensor<i32> loc(#loc420)
      %c_107 = stablehlo.constant dense<0> : tensor<i32> loc(#loc420)
      %166 = stablehlo.dynamic_slice %iterArg_35, %165, %c_106, %c_107, sizes = [1, 8192, 2048] : (tensor<16x8192x2048xbf16>, tensor<i32>, tensor<i32>, tensor<i32>) -> tensor<1x8192x2048xbf16> loc(#loc426)
      %167 = stablehlo.reshape %166 : (tensor<1x8192x2048xbf16>) -> tensor<8192x2048xbf16> loc(#loc427)
      %c_108 = stablehlo.constant dense<0> : tensor<i32> loc(#loc420)
      %168 = stablehlo.compare  LT, %iterArg_50, %c_108,  SIGNED : (tensor<i32>, tensor<i32>) -> tensor<i1> loc(#loc422)
      %169 = stablehlo.convert %iterArg_50 : tensor<i32> loc(#loc423)
      %c_109 = stablehlo.constant dense<16> : tensor<i32> loc(#loc420)
      %170 = stablehlo.add %169, %c_109 : tensor<i32> loc(#loc424)
      %171 = stablehlo.select %168, %170, %iterArg_50 : tensor<i1>, tensor<i32> loc(#loc425)
      %c_110 = stablehlo.constant dense<0> : tensor<i32> loc(#loc420)
      %c_111 = stablehlo.constant dense<0> : tensor<i32> loc(#loc420)
      %172 = stablehlo.dynamic_slice %iterArg_36, %171, %c_110, %c_111, sizes = [1, 2048, 16] : (tensor<16x2048x16xbf16>, tensor<i32>, tensor<i32>, tensor<i32>) -> tensor<1x2048x16xbf16> loc(#loc426)
      %173 = stablehlo.reshape %172 : (tensor<1x2048x16xbf16>) -> tensor<2048x16xbf16> loc(#loc427)
      %c_112 = stablehlo.constant dense<0> : tensor<i32> loc(#loc420)
      %174 = stablehlo.compare  LT, %iterArg_50, %c_112,  SIGNED : (tensor<i32>, tensor<i32>) -> tensor<i1> loc(#loc422)
      %175 = stablehlo.convert %iterArg_50 : tensor<i32> loc(#loc423)
      %c_113 = stablehlo.constant dense<16> : tensor<i32> loc(#loc420)
      %176 = stablehlo.add %175, %c_113 : tensor<i32> loc(#loc424)
      %177 = stablehlo.select %174, %176, %iterArg_50 : tensor<i1>, tensor<i32> loc(#loc425)
      %c_114 = stablehlo.constant dense<0> : tensor<i32> loc(#loc420)
      %c_115 = stablehlo.constant dense<0> : tensor<i32> loc(#loc420)
      %178 = stablehlo.dynamic_slice %iterArg_37, %177, %c_114, %c_115, sizes = [1, 16, 8192] : (tensor<16x16x8192xbf16>, tensor<i32>, tensor<i32>, tensor<i32>) -> tensor<1x16x8192xbf16> loc(#loc426)
      %179 = stablehlo.reshape %178 : (tensor<1x16x8192xbf16>) -> tensor<16x8192xbf16> loc(#loc427)
      %c_116 = stablehlo.constant dense<0> : tensor<i32> loc(#loc420)
      %180 = stablehlo.compare  LT, %iterArg_50, %c_116,  SIGNED : (tensor<i32>, tensor<i32>) -> tensor<i1> loc(#loc422)
      %181 = stablehlo.convert %iterArg_50 : tensor<i32> loc(#loc423)
      %c_117 = stablehlo.constant dense<16> : tensor<i32> loc(#loc420)
      %182 = stablehlo.add %181, %c_117 : tensor<i32> loc(#loc424)
      %183 = stablehlo.select %180, %182, %iterArg_50 : tensor<i1>, tensor<i32> loc(#loc425)
      %c_118 = stablehlo.constant dense<0> : tensor<i32> loc(#loc420)
      %c_119 = stablehlo.constant dense<0> : tensor<i32> loc(#loc420)
      %184 = stablehlo.dynamic_slice %iterArg_38, %183, %c_118, %c_119, sizes = [1, 8192, 2048] : (tensor<16x8192x2048xbf16>, tensor<i32>, tensor<i32>, tensor<i32>) -> tensor<1x8192x2048xbf16> loc(#loc426)
      %185 = stablehlo.reshape %184 : (tensor<1x8192x2048xbf16>) -> tensor<8192x2048xbf16> loc(#loc427)
      %c_120 = stablehlo.constant dense<0> : tensor<i32> loc(#loc420)
      %186 = stablehlo.compare  LT, %iterArg_50, %c_120,  SIGNED : (tensor<i32>, tensor<i32>) -> tensor<i1> loc(#loc422)
      %187 = stablehlo.convert %iterArg_50 : tensor<i32> loc(#loc423)
      %c_121 = stablehlo.constant dense<16> : tensor<i32> loc(#loc420)
      %188 = stablehlo.add %187, %c_121 : tensor<i32> loc(#loc424)
      %189 = stablehlo.select %186, %188, %iterArg_50 : tensor<i1>, tensor<i32> loc(#loc425)
      %c_122 = stablehlo.constant dense<0> : tensor<i32> loc(#loc420)
      %c_123 = stablehlo.constant dense<0> : tensor<i32> loc(#loc420)
      %190 = stablehlo.dynamic_slice %iterArg_39, %189, %c_122, %c_123, sizes = [1, 2048, 16] : (tensor<16x2048x16xbf16>, tensor<i32>, tensor<i32>, tensor<i32>) -> tensor<1x2048x16xbf16> loc(#loc426)
      %191 = stablehlo.reshape %190 : (tensor<1x2048x16xbf16>) -> tensor<2048x16xbf16> loc(#loc427)
      %c_124 = stablehlo.constant dense<0> : tensor<i32> loc(#loc420)
      %192 = stablehlo.compare  LT, %iterArg_50, %c_124,  SIGNED : (tensor<i32>, tensor<i32>) -> tensor<i1> loc(#loc422)
      %193 = stablehlo.convert %iterArg_50 : tensor<i32> loc(#loc423)
      %c_125 = stablehlo.constant dense<16> : tensor<i32> loc(#loc420)
      %194 = stablehlo.add %193, %c_125 : tensor<i32> loc(#loc424)
      %195 = stablehlo.select %192, %194, %iterArg_50 : tensor<i1>, tensor<i32> loc(#loc425)
      %c_126 = stablehlo.constant dense<0> : tensor<i32> loc(#loc420)
      %c_127 = stablehlo.constant dense<0> : tensor<i32> loc(#loc420)
      %196 = stablehlo.dynamic_slice %iterArg_40, %195, %c_126, %c_127, sizes = [1, 16, 8192] : (tensor<16x16x8192xbf16>, tensor<i32>, tensor<i32>, tensor<i32>) -> tensor<1x16x8192xbf16> loc(#loc426)
      %197 = stablehlo.reshape %196 : (tensor<1x16x8192xbf16>) -> tensor<16x8192xbf16> loc(#loc427)
      %c_128 = stablehlo.constant dense<0> : tensor<i32> loc(#loc420)
      %198 = stablehlo.compare  LT, %iterArg_50, %c_128,  SIGNED : (tensor<i32>, tensor<i32>) -> tensor<i1> loc(#loc422)
      %199 = stablehlo.convert %iterArg_50 : tensor<i32> loc(#loc423)
      %c_129 = stablehlo.constant dense<16> : tensor<i32> loc(#loc420)
      %200 = stablehlo.add %199, %c_129 : tensor<i32> loc(#loc424)
      %201 = stablehlo.select %198, %200, %iterArg_50 : tensor<i1>, tensor<i32> loc(#loc425)
      %c_130 = stablehlo.constant dense<0> : tensor<i32> loc(#loc420)
      %c_131 = stablehlo.constant dense<0> : tensor<i32> loc(#loc420)
      %202 = stablehlo.dynamic_slice %iterArg_41, %201, %c_130, %c_131, sizes = [1, 2048, 8192] : (tensor<16x2048x8192xbf16>, tensor<i32>, tensor<i32>, tensor<i32>) -> tensor<1x2048x8192xbf16> loc(#loc426)
      %203 = stablehlo.reshape %202 : (tensor<1x2048x8192xbf16>) -> tensor<2048x8192xbf16> loc(#loc427)
      %c_132 = stablehlo.constant dense<0> : tensor<i32> loc(#loc420)
      %204 = stablehlo.compare  LT, %iterArg_50, %c_132,  SIGNED : (tensor<i32>, tensor<i32>) -> tensor<i1> loc(#loc422)
      %205 = stablehlo.convert %iterArg_50 : tensor<i32> loc(#loc423)
      %c_133 = stablehlo.constant dense<16> : tensor<i32> loc(#loc420)
      %206 = stablehlo.add %205, %c_133 : tensor<i32> loc(#loc424)
      %207 = stablehlo.select %204, %206, %iterArg_50 : tensor<i1>, tensor<i32> loc(#loc425)
      %c_134 = stablehlo.constant dense<0> : tensor<i32> loc(#loc420)
      %c_135 = stablehlo.constant dense<0> : tensor<i32> loc(#loc420)
      %208 = stablehlo.dynamic_slice %iterArg_42, %207, %c_134, %c_135, sizes = [1, 8192, 16] : (tensor<16x8192x16xbf16>, tensor<i32>, tensor<i32>, tensor<i32>) -> tensor<1x8192x16xbf16> loc(#loc426)
      %209 = stablehlo.reshape %208 : (tensor<1x8192x16xbf16>) -> tensor<8192x16xbf16> loc(#loc427)
      %c_136 = stablehlo.constant dense<0> : tensor<i32> loc(#loc420)
      %210 = stablehlo.compare  LT, %iterArg_50, %c_136,  SIGNED : (tensor<i32>, tensor<i32>) -> tensor<i1> loc(#loc422)
      %211 = stablehlo.convert %iterArg_50 : tensor<i32> loc(#loc423)
      %c_137 = stablehlo.constant dense<16> : tensor<i32> loc(#loc420)
      %212 = stablehlo.add %211, %c_137 : tensor<i32> loc(#loc424)
      %213 = stablehlo.select %210, %212, %iterArg_50 : tensor<i1>, tensor<i32> loc(#loc425)
      %c_138 = stablehlo.constant dense<0> : tensor<i32> loc(#loc420)
      %c_139 = stablehlo.constant dense<0> : tensor<i32> loc(#loc420)
      %214 = stablehlo.dynamic_slice %iterArg_43, %213, %c_138, %c_139, sizes = [1, 16, 2048] : (tensor<16x16x2048xbf16>, tensor<i32>, tensor<i32>, tensor<i32>) -> tensor<1x16x2048xbf16> loc(#loc426)
      %215 = stablehlo.reshape %214 : (tensor<1x16x2048xbf16>) -> tensor<16x2048xbf16> loc(#loc427)
      %c_140 = stablehlo.constant dense<0> : tensor<i32> loc(#loc420)
      %216 = stablehlo.compare  LT, %iterArg_50, %c_140,  SIGNED : (tensor<i32>, tensor<i32>) -> tensor<i1> loc(#loc422)
      %217 = stablehlo.convert %iterArg_50 : tensor<i32> loc(#loc423)
      %c_141 = stablehlo.constant dense<16> : tensor<i32> loc(#loc420)
      %218 = stablehlo.add %217, %c_141 : tensor<i32> loc(#loc424)
      %219 = stablehlo.select %216, %218, %iterArg_50 : tensor<i1>, tensor<i32> loc(#loc425)
      %c_142 = stablehlo.constant dense<0> : tensor<i32> loc(#loc420)
      %220 = stablehlo.dynamic_slice %iterArg_44, %219, %c_142, sizes = [1, 2048] : (tensor<16x2048xf32>, tensor<i32>, tensor<i32>) -> tensor<1x2048xf32> loc(#loc426)
      %221 = stablehlo.reshape %220 : (tensor<1x2048xf32>) -> tensor<2048xf32> loc(#loc427)
      %c_143 = stablehlo.constant dense<0> : tensor<i32> loc(#loc420)
      %222 = stablehlo.compare  LT, %iterArg_50, %c_143,  SIGNED : (tensor<i32>, tensor<i32>) -> tensor<i1> loc(#loc422)
      %223 = stablehlo.convert %iterArg_50 : tensor<i32> loc(#loc423)
      %c_144 = stablehlo.constant dense<16> : tensor<i32> loc(#loc420)
      %224 = stablehlo.add %223, %c_144 : tensor<i32> loc(#loc424)
      %225 = stablehlo.select %222, %224, %iterArg_50 : tensor<i1>, tensor<i32> loc(#loc425)
      %c_145 = stablehlo.constant dense<0> : tensor<i32> loc(#loc420)
      %226 = stablehlo.dynamic_slice %iterArg_45, %225, %c_145, sizes = [1, 2048] : (tensor<16x2048xf32>, tensor<i32>, tensor<i32>) -> tensor<1x2048xf32> loc(#loc426)
      %227 = stablehlo.reshape %226 : (tensor<1x2048xf32>) -> tensor<2048xf32> loc(#loc427)
      %228:2 = func.call @None(%iterArg_46, %iterArg_47, %iterArg_48, %iterArg_49, %iterArg_51, %89, %95, %101, %107, %113, %119, %125, %131, %137, %143, %149, %155, %161, %167, %173, %179, %185, %191, %197, %203, %209, %215, %221, %227) : (tensor<8x32x1xf32>, tensor<f32>, tensor<8x32x32x32xi1>, tensor<8x32x32x32xf32>, tensor<8x32x2048xbf16>, tensor<2048x2048xbf16>, tensor<2048x16xbf16>, tensor<16x2048xbf16>, tensor<512x2048xbf16>, tensor<2048x16xbf16>, tensor<16x512xbf16>, tensor<512x2048xbf16>, tensor<2048x16xbf16>, tensor<16x512xbf16>, tensor<2048x2048xbf16>, tensor<2048x16xbf16>, tensor<16x2048xbf16>, tensor<32xf32>, tensor<8192x2048xbf16>, tensor<2048x16xbf16>, tensor<16x8192xbf16>, tensor<8192x2048xbf16>, tensor<2048x16xbf16>, tensor<16x8192xbf16>, tensor<2048x8192xbf16>, tensor<8192x16xbf16>, tensor<16x2048xbf16>, tensor<2048xf32>, tensor<2048xf32>) -> (tensor<8x32x2048xbf16>, tensor<8x32x2048xbf16>) loc(#loc428)
      %229 = stablehlo.broadcast_in_dim %228#1, dims = [1, 2, 3] : (tensor<8x32x2048xbf16>) -> tensor<1x8x32x2048xbf16> loc(#loc429)
      %c_146 = stablehlo.constant dense<0> : tensor<i32> loc(#loc420)
      %230 = stablehlo.compare  LT, %iterArg_50, %c_146,  SIGNED : (tensor<i32>, tensor<i32>) -> tensor<i1> loc(#loc422)
      %231 = stablehlo.convert %iterArg_50 : tensor<i32> loc(#loc423)
      %c_147 = stablehlo.constant dense<16> : tensor<i32> loc(#loc420)
      %232 = stablehlo.add %231, %c_147 : tensor<i32> loc(#loc424)
      %233 = stablehlo.select %230, %232, %iterArg_50 : tensor<i1>, tensor<i32> loc(#loc425)
      %c_148 = stablehlo.constant dense<0> : tensor<i32> loc(#loc420)
      %c_149 = stablehlo.constant dense<0> : tensor<i32> loc(#loc420)
      %c_150 = stablehlo.constant dense<0> : tensor<i32> loc(#loc420)
      %234 = stablehlo.dynamic_update_slice %iterArg_52, %229, %233, %c_148, %c_149, %c_150 : (tensor<16x8x32x2048xbf16>, tensor<1x8x32x2048xbf16>, tensor<i32>, tensor<i32>, tensor<i32>, tensor<i32>) -> tensor<16x8x32x2048xbf16> loc(#loc430)
      %c_151 = stablehlo.constant dense<1> : tensor<i32> loc(#loc420)
      %235 = stablehlo.add %iterArg_50, %c_151 : tensor<i32> loc(#loc424)
      stablehlo.return %iterArg, %iterArg_23, %iterArg_24, %iterArg_25, %iterArg_26, %iterArg_27, %iterArg_28, %iterArg_29, %iterArg_30, %iterArg_31, %iterArg_32, %iterArg_33, %iterArg_34, %iterArg_35, %iterArg_36, %iterArg_37, %iterArg_38, %iterArg_39, %iterArg_40, %iterArg_41, %iterArg_42, %iterArg_43, %iterArg_44, %iterArg_45, %iterArg_46, %iterArg_47, %iterArg_48, %iterArg_49, %235, %228#0, %234 : tensor<16x2048x2048xbf16>, tensor<16x2048x16xbf16>, tensor<16x16x2048xbf16>, tensor<16x512x2048xbf16>, tensor<16x2048x16xbf16>, tensor<16x16x512xbf16>, tensor<16x512x2048xbf16>, tensor<16x2048x16xbf16>, tensor<16x16x512xbf16>, tensor<16x2048x2048xbf16>, tensor<16x2048x16xbf16>, tensor<16x16x2048xbf16>, tensor<16x32xf32>, tensor<16x8192x2048xbf16>, tensor<16x2048x16xbf16>, tensor<16x16x8192xbf16>, tensor<16x8192x2048xbf16>, tensor<16x2048x16xbf16>, tensor<16x16x8192xbf16>, tensor<16x2048x8192xbf16>, tensor<16x8192x16xbf16>, tensor<16x16x2048xbf16>, tensor<16x2048xf32>, tensor<16x2048xf32>, tensor<8x32x1xf32>, tensor<f32>, tensor<8x32x32x32xi1>, tensor<8x32x32x32xf32>, tensor<i32>, tensor<8x32x2048xbf16>, tensor<16x8x32x2048xbf16> loc(#loc420)
    } loc(#loc420)
    %14 = stablehlo.multiply %13#29, %13#29 : tensor<8x32x2048xbf16> loc(#loc483)
    %15 = call @integer_pow(%13#29) : (tensor<8x32x2048xbf16>) -> tensor<8x32x2048xbf16> loc(#loc483)
    %cst_4 = stablehlo.constant dense<2.000000e+00> : tensor<bf16> loc(#loc292)
    %16 = stablehlo.broadcast_in_dim %cst_4, dims = [] : (tensor<bf16>) -> tensor<8x32x2048xbf16> loc(#loc484)
    %17 = stablehlo.multiply %16, %15 : tensor<8x32x2048xbf16> loc(#loc484)
    %18 = stablehlo.convert %14 : (tensor<8x32x2048xbf16>) -> tensor<8x32x2048xf32> loc(#loc485)
    %cst_5 = stablehlo.constant dense<0.000000e+00> : tensor<f32> loc(#loc486)
    %19 = stablehlo.reduce(%18 init: %cst_5) applies stablehlo.add across dimensions = [2] : (tensor<8x32x2048xf32>, tensor<f32>) -> tensor<8x32xf32> loc(#loc486)
    %20 = stablehlo.broadcast_in_dim %19, dims = [0, 1] : (tensor<8x32xf32>) -> tensor<8x32x1xf32> loc(#loc487)
    %cst_6 = stablehlo.constant dense<2.048000e+03> : tensor<f32> loc(#loc292)
    %21 = stablehlo.broadcast_in_dim %cst_6, dims = [] : (tensor<f32>) -> tensor<8x32x1xf32> loc(#loc488)
    %22 = stablehlo.divide %20, %21 : tensor<8x32x1xf32> loc(#loc488)
    %23 = stablehlo.convert %22 : (tensor<8x32x1xf32>) -> tensor<8x32x1xbf16> loc(#loc485)
    %cst_7 = stablehlo.constant dense<1.001360e-05> : tensor<bf16> loc(#loc292)
    %24 = stablehlo.broadcast_in_dim %cst_7, dims = [] : (tensor<bf16>) -> tensor<8x32x1xbf16> loc(#loc489)
    %25 = stablehlo.add %23, %24 : tensor<8x32x1xbf16> loc(#loc489)
    %26 = stablehlo.rsqrt %25 : tensor<8x32x1xbf16> loc(#loc490)
    %27 = stablehlo.divide %26, %25 : tensor<8x32x1xbf16> loc(#loc491)
    %cst_8 = stablehlo.constant dense<-5.000000e-01> : tensor<bf16> loc(#loc292)
    %28 = stablehlo.broadcast_in_dim %cst_8, dims = [] : (tensor<bf16>) -> tensor<8x32x1xbf16> loc(#loc492)
    %29 = stablehlo.multiply %28, %27 : tensor<8x32x1xbf16> loc(#loc492)
    %30 = stablehlo.broadcast_in_dim %26, dims = [0, 1, 2] : (tensor<8x32x1xbf16>) -> tensor<8x32x2048xbf16> loc(#loc492)
    %31 = stablehlo.multiply %13#29, %30 : tensor<8x32x2048xbf16> loc(#loc492)
    %32 = stablehlo.convert %arg25 : (tensor<2048xf32>) -> tensor<2048xbf16> loc(#loc493)
    %33 = stablehlo.broadcast_in_dim %32, dims = [2] : (tensor<2048xbf16>) -> tensor<1x1x2048xbf16> loc(#loc494)
    %34 = stablehlo.broadcast_in_dim %33, dims = [0, 1, 2] : (tensor<1x1x2048xbf16>) -> tensor<8x32x2048xbf16> loc(#loc495)
    %35 = stablehlo.multiply %34, %31 : tensor<8x32x2048xbf16> loc(#loc495)
    %36 = stablehlo.transpose %arg26, dims = [1, 0] : (tensor<128256x2048xbf16>) -> tensor<2048x128256xbf16> loc(#loc434)
    %37 = stablehlo.dot_general %35, %36, contracting_dims = [2] x [0], precision = [DEFAULT, DEFAULT] : (tensor<8x32x2048xbf16>, tensor<2048x128256xbf16>) -> tensor<8x32x128256xbf16> loc(#loc435)
    %38 = stablehlo.dot_general %35, %arg27, contracting_dims = [2] x [0], precision = [DEFAULT, DEFAULT] : (tensor<8x32x2048xbf16>, tensor<2048x16xbf16>) -> tensor<8x32x16xbf16> loc(#loc436)
    %39 = stablehlo.dot_general %38, %arg28, contracting_dims = [2] x [0], precision = [DEFAULT, DEFAULT] : (tensor<8x32x16xbf16>, tensor<16x128256xbf16>) -> tensor<8x32x128256xbf16> loc(#loc436)
    %cst_9 = stablehlo.constant dense<6.250000e-02> : tensor<bf16> loc(#loc292)
    %40 = stablehlo.broadcast_in_dim %cst_9, dims = [] : (tensor<bf16>) -> tensor<8x32x128256xbf16> loc(#loc437)
    %41 = stablehlo.multiply %39, %40 : tensor<8x32x128256xbf16> loc(#loc437)
    %42 = stablehlo.add %37, %41 : tensor<8x32x128256xbf16> loc(#loc438)
    %43 = stablehlo.slice %42 [0:8, 0:31, 0:128256] : (tensor<8x32x128256xbf16>) -> tensor<8x31x128256xbf16> loc(#loc309)
    %44 = stablehlo.slice %arg30 [0:8, 1:32] : (tensor<8x32xi32>) -> tensor<8x31xi32> loc(#loc310)
    %cst_10 = stablehlo.constant dense<1.000000e+00> : tensor<f32> loc(#loc292)
    %45 = stablehlo.broadcast_in_dim %cst_10, dims = [] : (tensor<f32>) -> tensor<8x31xf32> loc(#loc341)
    %cst_11 = stablehlo.constant dense<0.000000e+00> : tensor<f32> loc(#loc342)
    %46 = stablehlo.reduce(%45 init: %cst_11) applies stablehlo.add across dimensions = [1] : (tensor<8x31xf32>, tensor<f32>) -> tensor<8xf32> loc(#loc342)
    %cst_12 = stablehlo.constant dense<1.000000e-10> : tensor<f32> loc(#loc292)
    %47 = stablehlo.broadcast_in_dim %cst_12, dims = [] : (tensor<f32>) -> tensor<8xf32> loc(#loc343)
    %48 = stablehlo.maximum %46, %47 : tensor<8xf32> loc(#loc343)
    %49 = stablehlo.convert %43 : (tensor<8x31x128256xbf16>) -> tensor<8x31x128256xf32> loc(#loc344)
    %50 = stablehlo.reshape %49 : (tensor<8x31x128256xf32>) -> tensor<248x128256xf32> loc(#loc345)
    %51 = stablehlo.reshape %44 : (tensor<8x31xi32>) -> tensor<248xi32> loc(#loc346)
    %52 = stablehlo.reshape %45 : (tensor<8x31xf32>) -> tensor<248xf32> loc(#loc347)
    %53:3 = call @log_softmax(%50) : (tensor<248x128256xf32>) -> (tensor<248x128256xf32>, tensor<248x128256xf32>, tensor<248x1xf32>) loc(#loc348)
    %54 = stablehlo.iota dim = 0 : tensor<248xi32> loc(#loc349)
    %c_13 = stablehlo.constant dense<0> : tensor<i32> loc(#loc292)
    %55 = stablehlo.broadcast_in_dim %c_13, dims = [] : (tensor<i32>) -> tensor<248xi32> loc(#loc350)
    %56 = stablehlo.compare  LT, %54, %55,  SIGNED : (tensor<248xi32>, tensor<248xi32>) -> tensor<248xi1> loc(#loc350)
    %c_14 = stablehlo.constant dense<248> : tensor<i32> loc(#loc292)
    %57 = stablehlo.broadcast_in_dim %c_14, dims = [] : (tensor<i32>) -> tensor<248xi32> loc(#loc351)
    %58 = stablehlo.add %54, %57 : tensor<248xi32> loc(#loc351)
    %59 = stablehlo.select %56, %58, %54 : tensor<248xi1>, tensor<248xi32> loc(#loc352)
    %c_15 = stablehlo.constant dense<0> : tensor<i32> loc(#loc292)
    %60 = stablehlo.broadcast_in_dim %c_15, dims = [] : (tensor<i32>) -> tensor<248xi32> loc(#loc350)
    %61 = stablehlo.compare  LT, %51, %60,  SIGNED : (tensor<248xi32>, tensor<248xi32>) -> tensor<248xi1> loc(#loc350)
    %c_16 = stablehlo.constant dense<128256> : tensor<i32> loc(#loc292)
    %62 = stablehlo.broadcast_in_dim %c_16, dims = [] : (tensor<i32>) -> tensor<248xi32> loc(#loc351)
    %63 = stablehlo.add %51, %62 : tensor<248xi32> loc(#loc351)
    %64 = stablehlo.select %61, %63, %51 : tensor<248xi1>, tensor<248xi32> loc(#loc352)
    %65 = stablehlo.broadcast_in_dim %59, dims = [0] : (tensor<248xi32>) -> tensor<248x1xi32> loc(#loc353)
    %66 = stablehlo.broadcast_in_dim %64, dims = [0] : (tensor<248xi32>) -> tensor<248x1xi32> loc(#loc353)
    %67 = stablehlo.concatenate %65, %66, dim = 1 : (tensor<248x1xi32>, tensor<248x1xi32>) -> tensor<248x2xi32> loc(#loc354)
    %68 = "stablehlo.gather"(%53#0, %67) <{dimension_numbers = #stablehlo.gather<collapsed_slice_dims = [0, 1], start_index_map = [0, 1], index_vector_dim = 1>, indices_are_sorted = false, slice_sizes = array<i64: 1, 1>}> : (tensor<248x128256xf32>, tensor<248x2xi32>) -> tensor<248xf32> loc(#loc355)
    %69 = stablehlo.multiply %68, %52 : tensor<248xf32> loc(#loc356)
    %70 = stablehlo.reshape %69 : (tensor<248xf32>) -> tensor<8x31xf32> loc(#loc357)
    %cst_17 = stablehlo.constant dense<0.000000e+00> : tensor<f32> loc(#loc358)
    %71 = stablehlo.reduce(%70 init: %cst_17) applies stablehlo.add across dimensions = [1] : (tensor<8x31xf32>, tensor<f32>) -> tensor<8xf32> loc(#loc358)
    %72 = stablehlo.divide %71, %48 : tensor<8xf32> loc(#loc359)
    %cst_18 = stablehlo.constant dense<0.000000e+00> : tensor<f32> loc(#loc358)
    %73 = stablehlo.reduce(%72 init: %cst_18) applies stablehlo.add across dimensions = [0] : (tensor<8xf32>, tensor<f32>) -> tensor<f32> loc(#loc358)
    %cst_19 = stablehlo.constant dense<8.000000e+00> : tensor<f32> loc(#loc292)
    %74 = stablehlo.divide %73, %cst_19 : tensor<f32> loc(#loc359)
    %75 = stablehlo.negate %74 : tensor<f32> loc(#loc360)
    %76 = call @argmax(%49) : (tensor<8x31x128256xf32>) -> tensor<8x31xi32> loc(#loc361)
    %77 = stablehlo.compare  EQ, %76, %44,  SIGNED : (tensor<8x31xi32>, tensor<8x31xi32>) -> tensor<8x31xi1> loc(#loc362)
    %78 = stablehlo.convert %77 : (tensor<8x31xi1>) -> tensor<8x31xf32> loc(#loc363)
    %79 = stablehlo.multiply %78, %45 : tensor<8x31xf32> loc(#loc364)
    %cst_20 = stablehlo.constant dense<0.000000e+00> : tensor<f32> loc(#loc365)
    %80 = stablehlo.reduce(%79 init: %cst_20) applies stablehlo.add across dimensions = [1] : (tensor<8x31xf32>, tensor<f32>) -> tensor<8xf32> loc(#loc365)
    %81 = stablehlo.divide %80, %48 : tensor<8xf32> loc(#loc366)
    %cst_21 = stablehlo.constant dense<0.000000e+00> : tensor<f32> loc(#loc365)
    %82 = stablehlo.reduce(%81 init: %cst_21) applies stablehlo.add across dimensions = [0] : (tensor<8xf32>, tensor<f32>) -> tensor<f32> loc(#loc365)
    %cst_22 = stablehlo.constant dense<8.000000e+00> : tensor<f32> loc(#loc292)
    %83 = stablehlo.divide %82, %cst_22 : tensor<f32> loc(#loc366)
    return %75, %83, %33, %13#30, %26, %13#29, %17, %29, %36, %35, %38, %53#1, %53#2, %67, %52, %48 : tensor<f32>, tensor<f32>, tensor<1x1x2048xbf16>, tensor<16x8x32x2048xbf16>, tensor<8x32x1xbf16>, tensor<8x32x2048xbf16>, tensor<8x32x2048xbf16>, tensor<8x32x1xbf16>, tensor<2048x128256xbf16>, tensor<8x32x2048xbf16>, tensor<8x32x16xbf16>, tensor<248x128256xf32>, tensor<248x1xf32>, tensor<248x2xi32>, tensor<248xf32>, tensor<8xf32> loc(#loc292)
  } loc(#loc292)
  func.func private @_take(%arg0: tensor<128256x2048xf32> loc("jit(training_step)/jit(main)/jvp(jit(forward))/pjit"(#loc413)), %arg1: tensor<8x32xi32> loc("jit(training_step)/jit(main)/jvp(jit(forward))/pjit"(#loc413))) -> tensor<8x32x2048xf32> {
    %c = stablehlo.constant dense<0> : tensor<i32> loc(#loc480)
    %0 = stablehlo.broadcast_in_dim %c, dims = [] : (tensor<i32>) -> tensor<8x32xi32> loc(#loc496)
    %1 = stablehlo.compare  LT, %arg1, %0,  SIGNED : (tensor<8x32xi32>, tensor<8x32xi32>) -> tensor<8x32xi1> loc(#loc496)
    %c_0 = stablehlo.constant dense<128256> : tensor<i32> loc(#loc480)
    %2 = stablehlo.broadcast_in_dim %c_0, dims = [] : (tensor<i32>) -> tensor<8x32xi32> loc(#loc497)
    %3 = stablehlo.add %arg1, %2 : tensor<8x32xi32> loc(#loc497)
    %4 = call @_where(%1, %3, %arg1) : (tensor<8x32xi1>, tensor<8x32xi32>, tensor<8x32xi32>) -> tensor<8x32xi32> loc(#loc498)
    %5 = stablehlo.broadcast_in_dim %4, dims = [0, 1] : (tensor<8x32xi32>) -> tensor<8x32x1xi32> loc(#loc499)
    %c_1 = stablehlo.constant dense<0> : tensor<1xi32> loc(#loc500)
    %c_2 = stablehlo.constant dense<0> : tensor<1xi32> loc(#loc500)
    %c_3 = stablehlo.constant dense<128256> : tensor<i32> loc(#loc500)
    %6 = stablehlo.broadcast_in_dim %c_3, dims = [] : (tensor<i32>) -> tensor<1xi32> loc(#loc499)
    %c_4 = stablehlo.constant dense<2048> : tensor<i32> loc(#loc500)
    %7 = stablehlo.broadcast_in_dim %c_4, dims = [] : (tensor<i32>) -> tensor<1xi32> loc(#loc499)
    %8 = stablehlo.concatenate %6, %7, dim = 0 : (tensor<1xi32>, tensor<1xi32>) -> tensor<2xi32> loc(#loc501)
    %c_5 = stablehlo.constant dense<0> : tensor<i32> loc(#loc500)
    %9 = stablehlo.broadcast_in_dim %c_5, dims = [] : (tensor<i32>) -> tensor<1xi32> loc(#loc496)
    %10 = stablehlo.compare  LT, %c_1, %9,  SIGNED : (tensor<1xi32>, tensor<1xi32>) -> tensor<1xi1> loc(#loc496)
    %c_6 = stablehlo.constant dense<2> : tensor<i32> loc(#loc500)
    %11 = stablehlo.broadcast_in_dim %c_6, dims = [] : (tensor<i32>) -> tensor<1xi32> loc(#loc497)
    %12 = stablehlo.add %c_1, %11 : tensor<1xi32> loc(#loc497)
    %13 = stablehlo.select %10, %12, %c_1 : tensor<1xi1>, tensor<1xi32> loc(#loc502)
    %14 = stablehlo.broadcast_in_dim %13, dims = [0] : (tensor<1xi32>) -> tensor<1x1xi32> loc(#loc499)
    %15 = "stablehlo.gather"(%8, %14) <{dimension_numbers = #stablehlo.gather<collapsed_slice_dims = [0], start_index_map = [0], index_vector_dim = 1>, indices_are_sorted = false, slice_sizes = array<i64: 1>}> : (tensor<2xi32>, tensor<1x1xi32>) -> tensor<1xi32> loc(#loc500)
    %c_7 = stablehlo.constant dense<1> : tensor<i32> loc(#loc500)
    %16 = stablehlo.broadcast_in_dim %c_7, dims = [] : (tensor<i32>) -> tensor<1xi32> loc(#loc499)
    %c_8 = stablehlo.constant dense<2048> : tensor<i32> loc(#loc500)
    %17 = stablehlo.broadcast_in_dim %c_8, dims = [] : (tensor<i32>) -> tensor<1xi32> loc(#loc499)
    %18 = stablehlo.concatenate %16, %17, dim = 0 : (tensor<1xi32>, tensor<1xi32>) -> tensor<2xi32> loc(#loc501)
    %c_9 = stablehlo.constant dense<0> : tensor<i32> loc(#loc500)
    %19 = stablehlo.broadcast_in_dim %c_9, dims = [] : (tensor<i32>) -> tensor<1xi32> loc(#loc496)
    %20 = stablehlo.compare  LT, %c_2, %19,  SIGNED : (tensor<1xi32>, tensor<1xi32>) -> tensor<1xi1> loc(#loc496)
    %c_10 = stablehlo.constant dense<2> : tensor<i32> loc(#loc500)
    %21 = stablehlo.broadcast_in_dim %c_10, dims = [] : (tensor<i32>) -> tensor<1xi32> loc(#loc497)
    %22 = stablehlo.add %c_2, %21 : tensor<1xi32> loc(#loc497)
    %23 = stablehlo.select %20, %22, %c_2 : tensor<1xi1>, tensor<1xi32> loc(#loc502)
    %24 = stablehlo.broadcast_in_dim %23, dims = [0] : (tensor<1xi32>) -> tensor<1x1xi32> loc(#loc499)
    %25 = "stablehlo.gather"(%18, %24) <{dimension_numbers = #stablehlo.gather<collapsed_slice_dims = [0], start_index_map = [0], index_vector_dim = 1>, indices_are_sorted = false, slice_sizes = array<i64: 1>}> : (tensor<2xi32>, tensor<1x1xi32>) -> tensor<1xi32> loc(#loc500)
    %26 = stablehlo.subtract %15, %25 : tensor<1xi32> loc(#loc503)
    %c_11 = stablehlo.constant dense<0> : tensor<i32> loc(#loc500)
    %27 = stablehlo.broadcast_in_dim %c_11, dims = [] : (tensor<i32>) -> tensor<8x32x1xi32> loc(#loc504)
    %28 = stablehlo.compare  GE, %5, %27,  SIGNED : (tensor<8x32x1xi32>, tensor<8x32x1xi32>) -> tensor<8x32x1xi1> loc(#loc504)
    %29 = stablehlo.broadcast_in_dim %26, dims = [2] : (tensor<1xi32>) -> tensor<1x1x1xi32> loc(#loc499)
    %30 = stablehlo.broadcast_in_dim %29, dims = [0, 1, 2] : (tensor<1x1x1xi32>) -> tensor<8x32x1xi32> loc(#loc505)
    %31 = stablehlo.compare  LE, %5, %30,  SIGNED : (tensor<8x32x1xi32>, tensor<8x32x1xi32>) -> tensor<8x32x1xi1> loc(#loc505)
    %32 = stablehlo.and %28, %31 : tensor<8x32x1xi1> loc(#loc506)
    %c_12 = stablehlo.constant dense<true> : tensor<i1> loc(#loc507)
    %33 = stablehlo.reduce(%32 init: %c_12) applies stablehlo.and across dimensions = [2] : (tensor<8x32x1xi1>, tensor<i1>) -> tensor<8x32xi1> loc(#loc507)
    %34 = "stablehlo.gather"(%arg0, %5) <{dimension_numbers = #stablehlo.gather<offset_dims = [2], collapsed_slice_dims = [0], start_index_map = [0], index_vector_dim = 2>, indices_are_sorted = false, slice_sizes = array<i64: 1, 2048>}> : (tensor<128256x2048xf32>, tensor<8x32x1xi32>) -> tensor<8x32x2048xf32> loc(#loc500)
    %35 = stablehlo.broadcast_in_dim %33, dims = [0, 1] : (tensor<8x32xi1>) -> tensor<8x32x2048xi1> loc(#loc499)
    %cst = stablehlo.constant dense<0x7FC00000> : tensor<f32> loc(#loc500)
    %36 = stablehlo.broadcast_in_dim %cst, dims = [] : (tensor<f32>) -> tensor<8x32x2048xf32> loc(#loc499)
    %37 = stablehlo.select %35, %34, %36 : tensor<8x32x2048xi1>, tensor<8x32x2048xf32> loc(#loc502)
    return %37 : tensor<8x32x2048xf32> loc(#loc480)
  } loc(#loc480)
  func.func private @_where(%arg0: tensor<8x32xi1> loc("jit(training_step)/jit(main)/jvp(jit(forward))/jit(_take)/pjit"(#loc413)), %arg1: tensor<8x32xi32> loc("jit(training_step)/jit(main)/jvp(jit(forward))/jit(_take)/pjit"(#loc413)), %arg2: tensor<8x32xi32> loc("jit(training_step)/jit(main)/jvp(jit(forward))/jit(_take)/pjit"(#loc413))) -> tensor<8x32xi32> {
    %0 = stablehlo.select %arg0, %arg1, %arg2 : tensor<8x32xi1>, tensor<8x32xi32> loc(#loc508)
    return %0 : tensor<8x32xi32> loc(#loc498)
  } loc(#loc498)
  func.func private @tril(%arg0: tensor<32x32xf32> loc("jit(training_step)/jit(main)/jvp(jit(forward))/pjit"(#loc562))) -> tensor<32x32xf32> {
    %0 = stablehlo.iota dim = 0 : tensor<32x32xi32> loc(#loc626)
    %c = stablehlo.constant dense<0> : tensor<i32> loc(#loc622)
    %1 = stablehlo.broadcast_in_dim %c, dims = [] : (tensor<i32>) -> tensor<32x32xi32> loc(#loc627)
    %2 = stablehlo.add %0, %1 : tensor<32x32xi32> loc(#loc627)
    %3 = stablehlo.iota dim = 1 : tensor<32x32xi32> loc(#loc626)
    %4 = stablehlo.compare  GE, %2, %3,  SIGNED : (tensor<32x32xi32>, tensor<32x32xi32>) -> tensor<32x32xi1> loc(#loc628)
    %cst = stablehlo.constant dense<0.000000e+00> : tensor<f32> loc(#loc622)
    %5 = stablehlo.broadcast_in_dim %cst, dims = [] : (tensor<f32>) -> tensor<32x32xf32> loc(#loc629)
    %6 = stablehlo.select %4, %arg0, %5 : tensor<32x32xi1>, tensor<32x32xf32> loc(#loc630)
    return %6 : tensor<32x32xf32> loc(#loc622)
  } loc(#loc622)
  func.func private @_where_0(%arg0: tensor<1x1x32x32xi1> loc("jit(training_step)/jit(main)/jvp(jit(forward))/pjit"(#loc564)), %arg1: tensor<f32> loc("jit(training_step)/jit(main)/jvp(jit(forward))/pjit"(#loc564))) -> (tensor<8x32x32x32xi1>, tensor<8x32x32x32xf32>) {
    %0 = stablehlo.convert %arg1 : tensor<f32> loc(#loc631)
    %1 = stablehlo.broadcast_in_dim %arg0, dims = [0, 1, 2, 3] : (tensor<1x1x32x32xi1>) -> tensor<8x32x32x32xi1> loc(#loc632)
    %2 = stablehlo.broadcast_in_dim %0, dims = [] : (tensor<f32>) -> tensor<8x32x32x32xf32> loc(#loc632)
    return %1, %2 : tensor<8x32x32x32xi1>, tensor<8x32x32x32xf32> loc(#loc625)
  } loc(#loc625)
  func.func private @None(%arg0: tensor<8x32x1xf32> loc("jit(training_step)/jit(main)/jvp(jit(forward))/while/body/closed_call"(#loc336)), %arg1: tensor<f32> loc("jit(training_step)/jit(main)/jvp(jit(forward))/while/body/closed_call"(#loc336)), %arg2: tensor<8x32x32x32xi1> loc("jit(training_step)/jit(main)/jvp(jit(forward))/while/body/closed_call"(#loc336)), %arg3: tensor<8x32x32x32xf32> loc("jit(training_step)/jit(main)/jvp(jit(forward))/while/body/closed_call"(#loc336)), %arg4: tensor<8x32x2048xbf16> loc("jit(training_step)/jit(main)/jvp(jit(forward))/while/body/closed_call"(#loc336)), %arg5: tensor<2048x2048xbf16> loc("jit(training_step)/jit(main)/jvp(jit(forward))/while/body/closed_call"(#loc336)), %arg6: tensor<2048x16xbf16> loc("jit(training_step)/jit(main)/jvp(jit(forward))/while/body/closed_call"(#loc336)), %arg7: tensor<16x2048xbf16> loc("jit(training_step)/jit(main)/jvp(jit(forward))/while/body/closed_call"(#loc336)), %arg8: tensor<512x2048xbf16> loc("jit(training_step)/jit(main)/jvp(jit(forward))/while/body/closed_call"(#loc336)), %arg9: tensor<2048x16xbf16> loc("jit(training_step)/jit(main)/jvp(jit(forward))/while/body/closed_call"(#loc336)), %arg10: tensor<16x512xbf16> loc("jit(training_step)/jit(main)/jvp(jit(forward))/while/body/closed_call"(#loc336)), %arg11: tensor<512x2048xbf16> loc("jit(training_step)/jit(main)/jvp(jit(forward))/while/body/closed_call"(#loc336)), %arg12: tensor<2048x16xbf16> loc("jit(training_step)/jit(main)/jvp(jit(forward))/while/body/closed_call"(#loc336)), %arg13: tensor<16x512xbf16> loc("jit(training_step)/jit(main)/jvp(jit(forward))/while/body/closed_call"(#loc336)), %arg14: tensor<2048x2048xbf16> loc("jit(training_step)/jit(main)/jvp(jit(forward))/while/body/closed_call"(#loc336)), %arg15: tensor<2048x16xbf16> loc("jit(training_step)/jit(main)/jvp(jit(forward))/while/body/closed_call"(#loc336)), %arg16: tensor<16x2048xbf16> loc("jit(training_step)/jit(main)/jvp(jit(forward))/while/body/closed_call"(#loc336)), %arg17: tensor<32xf32> loc("jit(training_step)/jit(main)/jvp(jit(forward))/while/body/closed_call"(#loc336)), %arg18: tensor<8192x2048xbf16> loc("jit(training_step)/jit(main)/jvp(jit(forward))/while/body/closed_call"(#loc336)), %arg19: tensor<2048x16xbf16> loc("jit(training_step)/jit(main)/jvp(jit(forward))/while/body/closed_call"(#loc336)), %arg20: tensor<16x8192xbf16> loc("jit(training_step)/jit(main)/jvp(jit(forward))/while/body/closed_call"(#loc336)), %arg21: tensor<8192x2048xbf16> loc("jit(training_step)/jit(main)/jvp(jit(forward))/while/body/closed_call"(#loc336)), %arg22: tenso…
#loc419 = loc("jit(training_step)/jit(main)/jvp(jit(forward))/scan"(#loc336))
#loc420 = loc("jit(training_step)/jit(main)/jvp(jit(forward))/while"(#loc336))
#loc421 = loc("jit(training_step)/jit(main)/jvp(jit(forward))/while/cond/lt"(#loc336))
#loc422 = loc("jit(training_step)/jit(main)/jvp(jit(forward))/while/body/lt"(#loc336))
#loc423 = loc("jit(training_step)/jit(main)/jvp(jit(forward))/while/body/convert_element_type"(#loc336))
#loc424 = loc("jit(training_step)/jit(main)/jvp(jit(forward))/while/body/add"(#loc336))
#loc425 = loc("jit(training_step)/jit(main)/jvp(jit(forward))/while/body/select_n"(#loc336))
#loc426 = loc("jit(training_step)/jit(main)/jvp(jit(forward))/while/body/dynamic_slice"(#loc336))
#loc427 = loc("jit(training_step)/jit(main)/jvp(jit(forward))/while/body/squeeze"(#loc336))
#loc429 = loc("jit(training_step)/jit(main)/jvp(jit(forward))/while/body/broadcast_in_dim"(#loc336))
#loc430 = loc("jit(training_step)/jit(main)/jvp(jit(forward))/while/body/dynamic_update_slice"(#loc336))
#loc432 = loc(callsite(#loc225 at #loc337))
#loc433 = loc(callsite(#loc226 at #loc337))
#loc434 = loc("jit(training_step)/jit(main)/jvp(jit(forward))/transpose"(#loc338))
#loc435 = loc("jit(training_step)/jit(main)/jvp(jit(forward))/dot_general"(#loc338))
#loc436 = loc("jit(training_step)/jit(main)/jvp(jit(forward))/dot_general"(#loc339))
#loc437 = loc("jit(training_step)/jit(main)/jvp(jit(forward))/mul"(#loc339))
#loc438 = loc("jit(training_step)/jit(main)/jvp(jit(forward))/add"(#loc340))
#loc439 = loc(callsite(#loc212 at #loc367))
#loc440 = loc(callsite(#loc215 at #loc336))
#loc441 = loc("jit(training_step)/jit(main)/transpose(jvp(jit(forward)))/mul"(#loc339))
#loc442 = loc("jit(training_step)/jit(main)/transpose(jvp(jit(forward)))/dot_general"(#loc339))
#loc443 = loc("jit(training_step)/jit(main)/transpose(jvp(jit(forward)))/transpose"(#loc339))
#loc444 = loc("jit(training_step)/jit(main)/transpose(jvp(jit(forward)))/dot_general"(#loc338))
#loc445 = loc("jit(training_step)/jit(main)/transpose(jvp(jit(forward)))/add_any"(#loc338))
#loc446 = loc("jit(training_step)/jit(main)/transpose(jvp(jit(forward)))/empty"(#loc336))
#loc447 = loc("jit(training_step)/jit(main)/transpose(jvp(jit(forward)))/broadcast_in_dim"(#loc336))
#loc448 = loc("jit(training_step)/jit(main)/transpose(jvp(jit(forward)))/scan"(#loc336))
#loc449 = loc("jit(training_step)/jit(main)/transpose(jvp(jit(forward)))/while"(#loc336))
#loc450 = loc("jit(training_step)/jit(main)/transpose(jvp(jit(forward)))/while/cond/lt"(#loc336))
#loc451 = loc("jit(training_step)/jit(main)/transpose(jvp(jit(forward)))/while/body/sub"(#loc336))
#loc452 = loc("jit(training_step)/jit(main)/transpose(jvp(jit(forward)))/while/body/lt"(#loc336))
#loc453 = loc("jit(training_step)/jit(main)/transpose(jvp(jit(forward)))/while/body/convert_element_type"(#loc336))
#loc454 = loc("jit(training_step)/jit(main)/transpose(jvp(jit(forward)))/while/body/add"(#loc336))
#loc455 = loc("jit(training_step)/jit(main)/transpose(jvp(jit(forward)))/while/body/select_n"(#loc336))
#loc456 = loc("jit(training_step)/jit(main)/transpose(jvp(jit(forward)))/while/body/dynamic_slice"(#loc336))
#loc457 = loc("jit(training_step)/jit(main)/transpose(jvp(jit(forward)))/while/body/squeeze"(#loc336))
#loc459 = loc("jit(training_step)/jit(main)/transpose(jvp(jit(forward)))/while/body/broadcast_in_dim"(#loc336))
#loc460 = loc("jit(training_step)/jit(main)/transpose(jvp(jit(forward)))/while/body/dynamic_update_slice"(#loc336))
#loc461 = loc(callsite(#loc177 at #loc402))
#loc462 = loc("jit(training_step)/jit(main)/add"(#loc402))
#loc463 = loc("jit(training_step)/jit(main)/sqrt"(#loc403))
#loc464 = loc("jit(training_step)/jit(main)/div"(#loc405))
#loc465 = loc("jit(training_step)/jit(main)/mul"(#loc405))
#loc466 = loc("jit(training_step)/jit(main)/select_n"(#loc405))
#loc468 = loc(callsite(#loc192 at #loc407))
#loc470 = loc("jit(training_step)/jit(main)/convert_element_type"(#loc409))
#loc471 = loc("jit(training_step)/jit(main)/pow"(#loc409))
#loc472 = loc("jit(training_step)/jit(main)/sub"(#loc409))
#loc473 = loc("jit(training_step)/jit(main)/div"(#loc409))
#loc474 = loc("jit(training_step)/jit(main)/convert_element_type"(#loc410))
#loc475 = loc("jit(training_step)/jit(main)/pow"(#loc410))
#loc476 = loc("jit(training_step)/jit(main)/sub"(#loc410))
#loc477 = loc("jit(training_step)/jit(main)/div"(#loc410))
#loc478 = loc(callsite(#loc198 at #loc411))
#loc479 = loc(callsite(#loc200 at #loc412))
#loc481 = loc(callsite(#loc212 at #loc415))
#loc484 = loc("jit(training_step)/jit(main)/jvp(jit(forward))/mul"(#loc431))
#loc485 = loc("jit(training_step)/jit(main)/jvp(jit(forward))/convert_element_type"(#loc431))
#loc486 = loc("jit(training_step)/jit(main)/jvp(jit(forward))/reduce_sum"(#loc431))
#loc487 = loc("jit(training_step)/jit(main)/jvp(jit(forward))/broadcast_in_dim"(#loc431))
#loc488 = loc("jit(training_step)/jit(main)/jvp(jit(forward))/div"(#loc431))
#loc489 = loc("jit(training_step)/jit(main)/jvp(jit(forward))/add"(#loc432))
#loc490 = loc("jit(training_step)/jit(main)/jvp(jit(forward))/rsqrt"(#loc432))
#loc491 = loc("jit(training_step)/jit(main)/jvp(jit(forward))/div"(#loc432))
#loc492 = loc("jit(training_step)/jit(main)/jvp(jit(forward))/mul"(#loc432))
#loc493 = loc("jit(training_step)/jit(main)/jvp(jit(forward))/convert_element_type"(#loc433))
#loc494 = loc("jit(training_step)/jit(main)/jvp(jit(forward))/broadcast_in_dim"(#loc433))
#loc495 = loc("jit(training_step)/jit(main)/jvp(jit(forward))/mul"(#loc433))
#loc496 = loc("jit(training_step)/jit(main)/jvp(jit(forward))/jit(_take)/lt"(#loc413))
#loc497 = loc("jit(training_step)/jit(main)/jvp(jit(forward))/jit(_take)/add"(#loc413))
#loc499 = loc("jit(training_step)/jit(main)/jvp(jit(forward))/jit(_take)/broadcast_in_dim"(#loc413))
#loc500 = loc("jit(training_step)/jit(main)/jvp(jit(forward))/jit(_take)/gather"(#loc413))
#loc501 = loc("jit(training_step)/jit(main)/jvp(jit(forward))/jit(_take)/concatenate"(#loc413))
#loc502 = loc("jit(training_step)/jit(main)/jvp(jit(forward))/jit(_take)/select_n"(#loc413))
#loc503 = loc("jit(training_step)/jit(main)/jvp(jit(forward))/jit(_take)/sub"(#loc413))
#loc504 = loc("jit(training_step)/jit(main)/jvp(jit(forward))/jit(_take)/ge"(#loc413))
#loc505 = loc("jit(training_step)/jit(main)/jvp(jit(forward))/jit(_take)/le"(#loc413))
#loc506 = loc("jit(training_step)/jit(main)/jvp(jit(forward))/jit(_take)/and"(#loc413))
#loc507 = loc("jit(training_step)/jit(main)/jvp(jit(forward))/jit(_take)/reduce_and"(#loc413))
#loc508 = loc("jit(training_step)/jit(main)/jvp(jit(forward))/jit(_take)/jit(_where)/select_n"(#loc413))
#loc509 = loc(callsite(#loc254 at #loc439))
#loc510 = loc(callsite(#loc214 at #loc440))
#loc511 = loc(callsite(#loc279 at #loc415))
#loc512 = loc("jit(training_step)/jit(main)/transpose(jvp(jit(forward)))/mul"(#loc433))
#loc513 = loc("jit(training_step)/jit(main)/transpose(jvp(jit(forward)))/mul"(#loc432))
#loc514 = loc("jit(training_step)/jit(main)/transpose(jvp(jit(forward)))/reduce_sum"(#loc432))
#loc515 = loc("jit(training_step)/jit(main)/transpose(jvp(jit(forward)))/reshape"(#loc432))
#loc516 = loc("jit(training_step)/jit(main)/transpose(jvp(jit(forward)))/convert_element_type"(#loc431))
#loc517 = loc("jit(training_step)/jit(main)/transpose(jvp(jit(forward)))/div"(#loc431))
#loc518 = loc("jit(training_step)/jit(main)/transpose(jvp(jit(forward)))/reduce_sum"(#loc431))
#loc519 = loc("jit(training_step)/jit(main)/transpose(jvp(jit(forward)))/broadcast_in_dim"(#loc431))
#loc520 = loc("jit(training_step)/jit(main)/transpose(jvp(jit(forward)))/mul"(#loc431))
#loc521 = loc("jit(training_step)/jit(main)/transpose(jvp(jit(forward)))/add_any"(#loc432))
#loc522 = loc(callsite(#loc176 at #loc461))
#loc523 = loc("jit(training_step)/jit(main)/convert_element_type"(#loc461))
#loc524 = loc("jit(training_step)/jit(main)/reduce_sum"(#loc461))
#loc526 = loc(callsite(#loc191 at #loc468))
#loc527 = loc("jit(training_step)/jit(main)/lt"(#loc469))
#loc528 = loc("jit(training_step)/jit(main)/add"(#loc469))
#loc530 = loc("jit(training_step)/jit(main)/add"(#loc478))
#loc531 = loc("jit(training_step)/jit(main)/sqrt"(#loc478))
#loc532 = loc("jit(training_step)/jit(main)/div"(#loc478))
#loc533 = loc("jit(training_step)/jit(main)/mul"(#loc479))
#loc534 = loc(callsite(#loc211 at #loc481))
#loc538 = loc(callsite(#loc250 at #loc481))
#loc539 = loc(callsite(#loc254 at #loc481))
#loc540 = loc(callsite(#loc253 at #loc509))
#loc541 = loc(callsite(#loc263 at #loc481))
#loc542 = loc(callsite(#loc266 at #loc509))
#loc543 = loc(callsite(#loc269 at #loc481))
#loc544 = loc(callsite(#loc276 at #loc481))
#loc545 = loc(callsite(#loc213 at #loc510))
#loc546 = loc(callsite(#loc278 at #loc511))
#loc548 = loc(callsite(#loc280 at #loc511))
#loc549 = loc("jit(training_step)/jit(main)/transpose(jvp(jit(forward)))/while/body/remat2"(#loc510))
#loc550 = loc("jit(training_step)/jit(main)/jit(_where)/select_n"(#loc469))
#loc551 = loc("jit(training_step)/jit(main)/mul"(#loc522))
#loc553 = loc("jit(training_step)/jit(main)/mul"(#loc525))
#loc554 = loc("jit(training_step)/jit(main)/add"(#loc525))
#loc555 = loc(callsite(#loc190 at #loc526))
#loc556 = loc("jit(training_step)/jit(main)/mul"(#loc526))
#loc557 = loc("jit(training_step)/jit(main)/add"(#loc526))
#loc558 = loc(callsite(#loc210 at #loc534))
#loc559 = loc(callsite(#loc217 at #loc534))
#loc560 = loc(callsite(#loc218 at #loc535))
#loc561 = loc(callsite(#loc219 at #loc535))
#loc563 = loc(callsite(#loc221 at #loc535))
#loc565 = loc(callsite(#loc226 at #loc536))
#loc566 = loc(callsite(#loc226 at #loc537))
#loc568 = loc(callsite(#loc225 at #loc537))
#loc569 = loc(callsite(#loc227 at #loc538))
#loc570 = loc(callsite(#loc229 at #loc538))
#loc571 = loc(callsite(#loc230 at #loc538))
#loc572 = loc(callsite(#loc251 at #loc535))
#loc573 = loc(callsite(#loc252 at #loc535))
#loc574 = loc(callsite(#loc253 at #loc539))
#loc575 = loc(callsite(#loc255 at #loc534))
#loc576 = loc(callsite(#loc256 at #loc534))
#loc577 = loc(callsite(#loc257 at #loc534))
#loc578 = loc(callsite(#loc258 at #loc535))
#loc579 = loc(callsite(#loc259 at #loc540))
#loc580 = loc(callsite(#loc260 at #loc540))
#loc581 = loc(callsite(#loc261 at #loc534))
#loc582 = loc(callsite(#loc262 at #loc535))
#loc583 = loc(callsite(#loc227 at #loc541))
#loc584 = loc(callsite(#loc229 at #loc541))
#loc585 = loc(callsite(#loc230 at #loc541))
#loc586 = loc(callsite(#loc264 at #loc535))
#loc587 = loc(callsite(#loc265 at #loc535))
#loc588 = loc(callsite(#loc266 at #loc539))
#loc589 = loc(callsite(#loc259 at #loc542))
#loc590 = loc(callsite(#loc260 at #loc542))
#loc591 = loc(callsite(#loc267 at #loc535))
#loc593 = loc(callsite(#loc227 at #loc543))
#loc594 = loc(callsite(#loc229 at #loc543))
#loc595 = loc(callsite(#loc230 at #loc543))
#loc596 = loc(callsite(#loc270 at #loc535))
#loc597 = loc(callsite(#loc271 at #loc535))
#loc598 = loc(callsite(#loc272 at #loc535))
#loc599 = loc(callsite(#loc273 at #loc535))
#loc600 = loc(callsite(#loc274 at #loc535))
#loc601 = loc(callsite(#loc275 at #loc544))
#loc602 = loc(callsite(#loc227 at #loc544))
#loc603 = loc(callsite(#loc229 at #loc544))
#loc604 = loc(callsite(#loc230 at #loc544))
#loc605 = loc(callsite(#loc277 at #loc545))
#loc607 = loc(callsite(#loc225 at #loc536))
#loc608 = loc(callsite(#loc227 at #loc546))
#loc609 = loc(callsite(#loc229 at #loc546))
#loc610 = loc(callsite(#loc230 at #loc546))
#loc612 = loc(callsite(#loc227 at #loc548))
#loc613 = loc(callsite(#loc229 at #loc548))
#loc614 = loc(callsite(#loc230 at #loc548))
#loc615 = loc(callsite(#loc281 at #loc545))
#loc616 = loc("jit(training_step)/jit(main)/integer_pow"(#loc555))
#loc617 = loc("jit(training_step)/jit(main)/jvp(jit(forward))/convert_element_type"(#loc558))
#loc618 = loc("jit(training_step)/jit(main)/jvp(jit(forward))/reshape"(#loc559))
#loc619 = loc("jit(training_step)/jit(main)/jvp(jit(forward))/sqrt"(#loc560))
#loc620 = loc("jit(training_step)/jit(main)/jvp(jit(forward))/convert_element_type"(#loc561))
#loc621 = loc("jit(training_step)/jit(main)/jvp(jit(forward))/broadcast_in_dim"(#loc562))
#loc623 = loc("jit(training_step)/jit(main)/jvp(jit(forward))/broadcast_in_dim"(#loc563))
#loc624 = loc("jit(training_step)/jit(main)/jvp(jit(forward))/eq"(#loc564))
#loc626 = loc("jit(training_step)/jit(main)/jvp(jit(forward))/jit(tril)/iota"(#loc562))
#loc627 = loc("jit(training_step)/jit(main)/jvp(jit(forward))/jit(tril)/add"(#loc562))
#loc628 = loc("jit(training_step)/jit(main)/jvp(jit(forward))/jit(tril)/ge"(#loc562))
#loc629 = loc("jit(training_step)/jit(main)/jvp(jit(forward))/jit(tril)/broadcast_in_dim"(#loc562))
#loc630 = loc("jit(training_step)/jit(main)/jvp(jit(forward))/jit(tril)/select_n"(#loc562))
#loc631 = loc("jit(training_step)/jit(main)/jvp(jit(forward))/jit(_where)/convert_element_type"(#loc564))
#loc632 = loc("jit(training_step)/jit(main)/jvp(jit(forward))/jit(_where)/broadcast_in_dim"(#loc564))
#loc633 = loc("jit(training_step)/jit(main)/jvp(jit(forward))/while/body/convert_element_type"(#loc565))
#loc634 = loc("jit(training_step)/jit(main)/jvp(jit(forward))/while/body/broadcast_in_dim"(#loc565))
#loc635 = loc("jit(training_step)/jit(main)/jvp(jit(forward))/while/body/convert_element_type"(#loc566))
#loc636 = loc("jit(training_step)/jit(main)/jvp(jit(forward))/while/body/broadcast_in_dim"(#loc566))
#loc637 = loc("jit(training_step)/jit(main)/jvp(jit(forward))/while/body/integer_pow"(#loc567))
#loc638 = loc("jit(training_step)/jit(main)/jvp(jit(forward))/while/body/convert_element_type"(#loc567))
#loc639 = loc("jit(training_step)/jit(main)/jvp(jit(forward))/while/body/reduce_sum"(#loc567))
#loc640 = loc("jit(training_step)/jit(main)/jvp(jit(forward))/while/body/broadcast_in_dim"(#loc567))
#loc641 = loc("jit(training_step)/jit(main)/jvp(jit(forward))/while/body/div"(#loc567))
#loc642 = loc("jit(training_step)/jit(main)/jvp(jit(forward))/while/body/add"(#loc568))
#loc643 = loc("jit(training_step)/jit(main)/jvp(jit(forward))/while/body/rsqrt"(#loc568))
#loc644 = loc("jit(training_step)/jit(main)/jvp(jit(forward))/while/body/mul"(#loc568))
#loc645 = loc("jit(training_step)/jit(main)/jvp(jit(forward))/while/body/mul"(#loc566))
#loc646 = loc("jit(training_step)/jit(main)/jvp(jit(forward))/while/body/transpose"(#loc569))
#loc647 = loc("jit(training_step)/jit(main)/jvp(jit(forward))/while/body/dot_general"(#loc569))
#loc648 = loc("jit(training_step)/jit(main)/jvp(jit(forward))/while/body/dot_general"(#loc570))
#loc649 = loc("jit(training_step)/jit(main)/jvp(jit(forward))/while/body/mul"(#loc570))
#loc650 = loc("jit(training_step)/jit(main)/jvp(jit(forward))/while/body/add"(#loc571))
#loc651 = loc("jit(training_step)/jit(main)/jvp(jit(forward))/while/body/reshape"(#loc572))
#loc652 = loc("jit(training_step)/jit(main)/jvp(jit(forward))/while/body/transpose"(#loc573))
#loc653 = loc("jit(training_step)/jit(main)/jvp(jit(forward))/while/body/convert_element_type"(#loc574))
#loc654 = loc("jit(training_step)/jit(main)/jvp(jit(forward))/while/body/broadcast_in_dim"(#loc575))
#loc655 = loc("jit(training_step)/jit(main)/jvp(jit(forward))/while/body/mul"(#loc575))
#loc656 = loc("jit(training_step)/jit(main)/jvp(jit(forward))/while/body/concatenate"(#loc576))
#loc657 = loc("jit(training_step)/jit(main)/jvp(jit(forward))/while/body/cos"(#loc577))
#loc658 = loc("jit(training_step)/jit(main)/jvp(jit(forward))/while/body/broadcast_in_dim"(#loc578))
#loc659 = loc("jit(training_step)/jit(main)/jvp(jit(forward))/while/body/mul"(#loc574))
#loc660 = loc("jit(training_step)/jit(main)/jvp(jit(forward))/while/body/slice"(#loc579))
#loc661 = loc("jit(training_step)/jit(main)/jvp(jit(forward))/while/body/neg"(#loc580))
#loc662 = loc("jit(training_step)/jit(main)/jvp(jit(forward))/while/body/concatenate"(#loc580))
#loc663 = loc("jit(training_step)/jit(main)/jvp(jit(forward))/while/body/sin"(#loc581))
#loc664 = loc("jit(training_step)/jit(main)/jvp(jit(forward))/while/body/broadcast_in_dim"(#loc582))
#loc665 = loc("jit(training_step)/jit(main)/jvp(jit(forward))/while/body/add"(#loc574))
#loc666 = loc("jit(training_step)/jit(main)/jvp(jit(forward))/while/body/transpose"(#loc583))
#loc667 = loc("jit(training_step)/jit(main)/jvp(jit(forward))/while/body/dot_general"(#loc583))
#loc668 = loc("jit(training_step)/jit(main)/jvp(jit(forward))/while/body/dot_general"(#loc584))
#loc669 = loc("jit(training_step)/jit(main)/jvp(jit(forward))/while/body/mul"(#loc584))
#loc670 = loc("jit(training_step)/jit(main)/jvp(jit(forward))/while/body/add"(#loc585))
#loc671 = loc("jit(training_step)/jit(main)/jvp(jit(forward))/while/body/reshape"(#loc586))
#loc672 = loc("jit(training_step)/jit(main)/jvp(jit(forward))/while/body/transpose"(#loc587))
#loc673 = loc("jit(training_step)/jit(main)/jvp(jit(forward))/while/body/convert_element_type"(#loc588))
#loc674 = loc("jit(training_step)/jit(main)/jvp(jit(forward))/while/body/mul"(#loc588))
#loc675 = loc("jit(training_step)/jit(main)/jvp(jit(forward))/while/body/slice"(#loc589))
#loc676 = loc("jit(training_step)/jit(main)/jvp(jit(forward))/while/body/neg"(#loc590))
#loc677 = loc("jit(training_step)/jit(main)/jvp(jit(forward))/while/body/concatenate"(#loc590))
#loc678 = loc("jit(training_step)/jit(main)/jvp(jit(forward))/while/body/add"(#loc588))
#loc679 = loc("jit(training_step)/jit(main)/jvp(jit(forward))/while/body/broadcast_in_dim"(#loc591))
#loc680 = loc("jit(training_step)/jit(main)/jvp(jit(forward))/while/body/reshape"(#loc591))
#loc681 = loc("jit(training_step)/jit(main)/jvp(jit(forward))/while/body/bhqd,bhkd->bhqk/dot_general"(#loc561))
#loc682 = loc("jit(training_step)/jit(main)/jvp(jit(forward))/while/body/div"(#loc561))
#loc684 = loc("jit(training_step)/jit(main)/jvp(jit(forward))/while/body/reduce_max"(#loc592))
#loc685 = loc("jit(training_step)/jit(main)/jvp(jit(forward))/while/body/max"(#loc592))
#loc686 = loc("jit(training_step)/jit(main)/jvp(jit(forward))/while/body/broadcast_in_dim"(#loc592))
#loc687 = loc("jit(training_step)/jit(main)/jvp(jit(forward))/while/body/sub"(#loc592))
#loc688 = loc("jit(training_step)/jit(main)/jvp(jit(forward))/while/body/exp"(#loc592))
#loc689 = loc("jit(training_step)/jit(main)/jvp(jit(forward))/while/body/reduce_sum"(#loc592))
#loc690 = loc("jit(training_step)/jit(main)/jvp(jit(forward))/while/body/div"(#loc592))
#loc691 = loc("jit(training_step)/jit(main)/jvp(jit(forward))/while/body/transpose"(#loc593))
#loc692 = loc("jit(training_step)/jit(main)/jvp(jit(forward))/while/body/dot_general"(#loc593))
#loc693 = loc("jit(training_step)/jit(main)/jvp(jit(forward))/while/body/dot_general"(#loc594))
#loc694 = loc("jit(training_step)/jit(main)/jvp(jit(forward))/while/body/mul"(#loc594))
#loc695 = loc("jit(training_step)/jit(main)/jvp(jit(forward))/while/body/add"(#loc595))
#loc696 = loc("jit(training_step)/jit(main)/jvp(jit(forward))/while/body/reshape"(#loc596))
#loc697 = loc("jit(training_step)/jit(main)/jvp(jit(forward))/while/body/transpose"(#loc597))
#loc698 = loc("jit(training_step)/jit(main)/jvp(jit(forward))/while/body/broadcast_in_dim"(#loc598))
#loc699 = loc("jit(training_step)/jit(main)/jvp(jit(forward))/while/body/reshape"(#loc598))
#loc700 = loc("jit(training_step)/jit(main)/jvp(jit(forward))/while/body/bhqk,bhkd->bhqd/dot_general"(#loc599))
#loc701 = loc("jit(training_step)/jit(main)/jvp(jit(forward))/while/body/transpose"(#loc600))
#loc702 = loc("jit(training_step)/jit(main)/jvp(jit(forward))/while/body/reshape"(#loc600))
#loc703 = loc("jit(training_step)/jit(main)/jvp(jit(forward))/while/body/convert_element_type"(#loc601))
#loc704 = loc("jit(training_step)/jit(main)/jvp(jit(forward))/while/body/transpose"(#loc602))
#loc705 = loc("jit(training_step)/jit(main)/jvp(jit(forward))/while/body/dot_general"(#loc602))
#loc706 = loc("jit(training_step)/jit(main)/jvp(jit(forward))/while/body/dot_general"(#loc603))
#loc707 = loc("jit(training_step)/jit(main)/jvp(jit(forward))/while/body/mul"(#loc603))
#loc708 = loc("jit(training_step)/jit(main)/jvp(jit(forward))/while/body/add"(#loc604))
#loc709 = loc("jit(training_step)/jit(main)/jvp(jit(forward))/while/body/add"(#loc605))
#loc710 = loc("jit(training_step)/jit(main)/jvp(jit(forward))/while/body/integer_pow"(#loc606))
#loc711 = loc("jit(training_step)/jit(main)/jvp(jit(forward))/while/body/convert_element_type"(#loc606))
#loc712 = loc("jit(training_step)/jit(main)/jvp(jit(forward))/while/body/reduce_sum"(#loc606))
#loc713 = loc("jit(training_step)/jit(main)/jvp(jit(forward))/while/body/broadcast_in_dim"(#loc606))
#loc714 = loc("jit(training_step)/jit(main)/jvp(jit(forward))/while/body/div"(#loc606))
#loc715 = loc("jit(training_step)/jit(main)/jvp(jit(forward))/while/body/add"(#loc607))
#loc716 = loc("jit(training_step)/jit(main)/jvp(jit(forward))/while/body/rsqrt"(#loc607))
#loc717 = loc("jit(training_step)/jit(main)/jvp(jit(forward))/while/body/mul"(#loc607))
#loc718 = loc("jit(training_step)/jit(main)/jvp(jit(forward))/while/body/mul"(#loc565))
#loc719 = loc("jit(training_step)/jit(main)/jvp(jit(forward))/while/body/transpose"(#loc608))
#loc720 = loc("jit(training_step)/jit(main)/jvp(jit(forward))/while/body/dot_general"(#loc608))
#loc721 = loc("jit(training_step)/jit(main)/jvp(jit(forward))/while/body/dot_general"(#loc609))
#loc722 = loc("jit(training_step)/jit(main)/jvp(jit(forward))/while/body/mul"(#loc609))
#loc723 = loc("jit(training_step)/jit(main)/jvp(jit(forward))/while/body/add"(#loc610))
#loc725 = loc("jit(training_step)/jit(main)/jvp(jit(forward))/while/body/mul"(#loc611))
#loc726 = loc("jit(training_step)/jit(main)/jvp(jit(forward))/while/body/transpose"(#loc612))
#loc727 = loc("jit(training_step)/jit(main)/jvp(jit(forward))/while/body/dot_general"(#loc612))
#loc728 = loc("jit(training_step)/jit(main)/jvp(jit(forward))/while/body/dot_general"(#loc613))
#loc729 = loc("jit(training_step)/jit(main)/jvp(jit(forward))/while/body/mul"(#loc613))
#loc730 = loc("jit(training_step)/jit(main)/jvp(jit(forward))/while/body/add"(#loc614))
#loc731 = loc("jit(training_step)/jit(main)/jvp(jit(forward))/while/body/add"(#loc615))
#loc732 = loc("jit(training_step)/jit(main)/jvp(jit(forward))/while/body/jit(_where)/select_n"(#loc564))
#loc733 = loc("jit(training_step)/jit(main)/jvp(jit(forward))/while/body/jit(silu)/neg"(#loc611))
#loc734 = loc("jit(training_step)/jit(main)/jvp(jit(forward))/while/body/jit(silu)/exp"(#loc611))
#loc735 = loc("jit(training_step)/jit(main)/jvp(jit(forward))/while/body/jit(silu)/logistic"(#loc611))
#loc736 = loc("jit(training_step)/jit(main)/jvp(jit(forward))/while/body/jit(silu)/add"(#loc611))
#loc737 = loc("jit(training_step)/jit(main)/jvp(jit(forward))/while/body/jit(silu)/div"(#loc611))
#loc738 = loc("jit(training_step)/jit(main)/jvp(jit(forward))/while/body/jit(silu)/mul"(#loc611))
#loc740 = loc("jit(training_step)/jit(main)/transpose(jvp(jit(forward)))/while/body/checkpoint/rematted_computation/mul"(#loc567))
#loc741 = loc("jit(training_step)/jit(main)/transpose(jvp(jit(forward)))/while/body/checkpoint/rematted_computation/convert_element_type"(#loc567))
#loc742 = loc("jit(training_step)/jit(main)/transpose(jvp(jit(forward)))/while/body/checkpoint/rematted_computation/reduce_sum"(#loc567))
#loc743 = loc("jit(training_step)/jit(main)/transpose(jvp(jit(forward)))/while/body/checkpoint/rematted_computation/broadcast_in_dim"(#loc567))
#loc744 = loc("jit(training_step)/jit(main)/transpose(jvp(jit(forward)))/while/body/checkpoint/rematted_computation/div"(#loc567))
#loc745 = loc("jit(training_step)/jit(main)/transpose(jvp(jit(forward)))/while/body/checkpoint/rematted_computation/add"(#loc568))
#loc746 = loc("jit(training_step)/jit(main)/transpose(jvp(jit(forward)))/while/body/checkpoint/rematted_computation/rsqrt"(#loc568))
#loc747 = loc("jit(training_step)/jit(main)/transpose(jvp(jit(forward)))/while/body/checkpoint/rematted_computation/div"(#loc568))
#loc748 = loc("jit(training_step)/jit(main)/transpose(jvp(jit(forward)))/while/body/checkpoint/rematted_computation/mul"(#loc568))
#loc749 = loc("jit(training_step)/jit(main)/transpose(jvp(jit(forward)))/while/body/checkpoint/rematted_computation/convert_element_type"(#loc566))
#loc750 = loc("jit(training_step)/jit(main)/transpose(jvp(jit(forward)))/while/body/checkpoint/rematted_computation/broadcast_in_dim"(#loc566))
#loc751 = loc("jit(training_step)/jit(main)/transpose(jvp(jit(forward)))/while/body/checkpoint/rematted_computation/mul"(#loc566))
#loc752 = loc("jit(training_step)/jit(main)/transpose(jvp(jit(forward)))/while/body/checkpoint/rematted_computation/transpose"(#loc569))
#loc753 = loc("jit(training_step)/jit(main)/transpose(jvp(jit(forward)))/while/body/checkpoint/rematted_computation/dot_general"(#loc569))
#loc754 = loc("jit(training_step)/jit(main)/transpose(jvp(jit(forward)))/while/body/checkpoint/rematted_computation/dot_general"(#loc570))
#loc755 = loc("jit(training_step)/jit(main)/transpose(jvp(jit(forward)))/while/body/checkpoint/rematted_computation/mul"(#loc570))
#loc756 = loc("jit(training_step)/jit(main)/transpose(jvp(jit(forward)))/while/body/checkpoint/rematted_computation/add"(#loc571))
#loc757 = loc("jit(training_step)/jit(main)/transpose(jvp(jit(forward)))/while/body/checkpoint/rematted_computation/transpose"(#loc583))
#loc758 = loc("jit(training_step)/jit(main)/transpose(jvp(jit(forward)))/while/body/checkpoint/rematted_computation/dot_general"(#loc583))
#loc759 = loc("jit(training_step)/jit(main)/transpose(jvp(jit(forward)))/while/body/checkpoint/rematted_computation/dot_general"(#loc584))
#loc760 = loc("jit(training_step)/jit(main)/transpose(jvp(jit(forward)))/while/body/checkpoint/rematted_computation/mul"(#loc584))
#loc761 = loc("jit(training_step)/jit(main)/transpose(jvp(jit(forward)))/while/body/checkpoint/rematted_computation/add"(#loc585))
#loc762 = loc("jit(training_step)/jit(main)/transpose(jvp(jit(forward)))/while/body/checkpoint/rematted_computation/transpose"(#loc593))
#loc763 = loc("jit(training_step)/jit(main)/transpose(jvp(jit(forward)))/while/body/checkpoint/rematted_computation/dot_general"(#loc593))
#loc764 = loc("jit(training_step)/jit(main)/transpose(jvp(jit(forward)))/while/body/checkpoint/rematted_computation/dot_general"(#loc594))
#loc765 = loc("jit(training_step)/jit(main)/transpose(jvp(jit(forward)))/while/body/checkpoint/rematted_computation/mul"(#loc594))
#loc766 = loc("jit(training_step)/jit(main)/transpose(jvp(jit(forward)))/while/body/checkpoint/rematted_computation/add"(#loc595))
#loc767 = loc("jit(training_step)/jit(main)/transpose(jvp(jit(forward)))/while/body/checkpoint/rematted_computation/reshape"(#loc572))
#loc768 = loc("jit(training_step)/jit(main)/transpose(jvp(jit(forward)))/while/body/checkpoint/rematted_computation/transpose"(#loc573))
#loc769 = loc("jit(training_step)/jit(main)/transpose(jvp(jit(forward)))/while/body/checkpoint/rematted_computation/reshape"(#loc586))
#loc770 = loc("jit(training_step)/jit(main)/transpose(jvp(jit(forward)))/while/body/checkpoint/rematted_computation/transpose"(#loc587))
#loc771 = loc("jit(training_step)/jit(main)/transpose(jvp(jit(forward)))/while/body/checkpoint/rematted_computation/reshape"(#loc596))
#loc772 = loc("jit(training_step)/jit(main)/transpose(jvp(jit(forward)))/while/body/checkpoint/rematted_computation/transpose"(#loc597))
#loc773 = loc("jit(training_step)/jit(main)/transpose(jvp(jit(forward)))/while/body/checkpoint/rematted_computation/convert_element_type"(#loc558))
#loc774 = loc("jit(training_step)/jit(main)/transpose(jvp(jit(forward)))/while/body/checkpoint/rematted_computation/reshape"(#loc559))
#loc775 = loc("jit(training_step)/jit(main)/transpose(jvp(jit(forward)))/while/body/checkpoint/rematted_computation/broadcast_in_dim"(#loc575))
#loc776 = loc("jit(training_step)/jit(main)/transpose(jvp(jit(forward)))/while/body/checkpoint/rematted_computation/mul"(#loc575))
#loc777 = loc("jit(training_step)/jit(main)/transpose(jvp(jit(forward)))/while/body/checkpoint/rematted_computation/concatenate"(#loc576))
#loc778 = loc("jit(training_step)/jit(main)/transpose(jvp(jit(forward)))/while/body/checkpoint/rematted_computation/cos"(#loc577))
#loc779 = loc("jit(training_step)/jit(main)/transpose(jvp(jit(forward)))/while/body/checkpoint/rematted_computation/sin"(#loc581))
#loc780 = loc("jit(training_step)/jit(main)/transpose(jvp(jit(forward)))/while/body/checkpoint/rematted_computation/broadcast_in_dim"(#loc578))
#loc781 = loc("jit(training_step)/jit(main)/transpose(jvp(jit(forward)))/while/body/checkpoint/rematted_computation/broadcast_in_dim"(#loc582))
#loc782 = loc("jit(training_step)/jit(main)/transpose(jvp(jit(forward)))/while/body/checkpoint/rematted_computation/convert_element_type"(#loc574))
#loc783 = loc("jit(training_step)/jit(main)/transpose(jvp(jit(forward)))/while/body/checkpoint/rematted_computation/mul"(#loc574))
#loc784 = loc("jit(training_step)/jit(main)/transpose(jvp(jit(forward)))/while/body/checkpoint/rematted_computation/slice"(#loc579))
#loc785 = loc("jit(training_step)/jit(main)/transpose(jvp(jit(forward)))/while/body/checkpoint/rematted_computation/neg"(#loc580))
#loc786 = loc("jit(training_step)/jit(main)/transpose(jvp(jit(forward)))/while/body/checkpoint/rematted_computation/concatenate"(#loc580))
#loc787 = loc("jit(training_step)/jit(main)/transpose(jvp(jit(forward)))/while/body/checkpoint/rematted_computation/add"(#loc574))
#loc788 = loc("jit(training_step)/jit(main)/transpose(jvp(jit(forward)))/while/body/checkpoint/rematted_computation/convert_element_type"(#loc588))
#loc789 = loc("jit(training_step)/jit(main)/transpose(jvp(jit(forward)))/while/body/checkpoint/rematted_computation/mul"(#loc588))
#loc790 = loc("jit(training_step)/jit(main)/transpose(jvp(jit(forward)))/while/body/checkpoint/rematted_computation/slice"(#loc589))
#loc791 = loc("jit(training_step)/jit(main)/transpose(jvp(jit(forward)))/while/body/checkpoint/rematted_computation/neg"(#loc590))
#loc792 = loc("jit(training_step)/jit(main)/transpose(jvp(jit(forward)))/while/body/checkpoint/rematted_computation/concatenate"(#loc590))
#loc793 = loc("jit(training_step)/jit(main)/transpose(jvp(jit(forward)))/while/body/checkpoint/rematted_computation/add"(#loc588))
#loc794 = loc("jit(training_step)/jit(main)/transpose(jvp(jit(forward)))/while/body/checkpoint/rematted_computation/broadcast_in_dim"(#loc591))
#loc795 = loc("jit(training_step)/jit(main)/transpose(jvp(jit(forward)))/while/body/checkpoint/rematted_computation/reshape"(#loc591))
#loc796 = loc("jit(training_step)/jit(main)/transpose(jvp(jit(forward)))/while/body/checkpoint/rematted_computation/broadcast_in_dim"(#loc598))
#loc797 = loc("jit(training_step)/jit(main)/transpose(jvp(jit(forward)))/while/body/checkpoint/rematted_computation/reshape"(#loc598))
#loc798 = loc("jit(training_step)/jit(main)/transpose(jvp(jit(forward)))/while/body/checkpoint/rematted_computation/bhqd,bhkd->bhqk/dot_general"(#loc561))
#loc799 = loc("jit(training_step)/jit(main)/transpose(jvp(jit(forward)))/while/body/checkpoint/rematted_computation/sqrt"(#loc560))
#loc800 = loc("jit(training_step)/jit(main)/transpose(jvp(jit(forward)))/while/body/checkpoint/rematted_computation/convert_element_type"(#loc561))
#loc801 = loc("jit(training_step)/jit(main)/transpose(jvp(jit(forward)))/while/body/checkpoint/rematted_computation/div"(#loc561))
#loc802 = loc("jit(training_step)/jit(main)/transpose(jvp(jit(forward)))/while/body/checkpoint/rematted_computation/broadcast_in_dim"(#loc562))
#loc804 = loc("jit(training_step)/jit(main)/transpose(jvp(jit(forward)))/while/body/checkpoint/rematted_computation/broadcast_in_dim"(#loc563))
#loc805 = loc("jit(training_step)/jit(main)/transpose(jvp(jit(forward)))/while/body/checkpoint/rematted_computation/eq"(#loc564))
#loc807 = loc("jit(training_step)/jit(main)/transpose(jvp(jit(forward)))/while/body/checkpoint/rematted_computation/reduce_max"(#loc592))
#loc808 = loc("jit(training_step)/jit(main)/transpose(jvp(jit(forward)))/while/body/checkpoint/rematted_computation/max"(#loc592))
#loc809 = loc("jit(training_step)/jit(main)/transpose(jvp(jit(forward)))/while/body/checkpoint/rematted_computation/broadcast_in_dim"(#loc592))
#loc810 = loc("jit(training_step)/jit(main)/transpose(jvp(jit(forward)))/while/body/checkpoint/rematted_computation/sub"(#loc592))
#loc811 = loc("jit(training_step)/jit(main)/transpose(jvp(jit(forward)))/while/body/checkpoint/rematted_computation/exp"(#loc592))
#loc812 = loc("jit(training_step)/jit(main)/transpose(jvp(jit(forward)))/while/body/checkpoint/rematted_computation/reduce_sum"(#loc592))
#loc813 = loc("jit(training_step)/jit(main)/transpose(jvp(jit(forward)))/while/body/checkpoint/rematted_computation/div"(#loc592))
#loc815 = loc("jit(training_step)/jit(main)/transpose(jvp(jit(forward)))/while/body/checkpoint/rematted_computation/bhqk,bhkd->bhqd/dot_general"(#loc599))
#loc816 = loc("jit(training_step)/jit(main)/transpose(jvp(jit(forward)))/while/body/checkpoint/rematted_computation/transpose"(#loc600))
#loc817 = loc("jit(training_step)/jit(main)/transpose(jvp(jit(forward)))/while/body/checkpoint/rematted_computation/reshape"(#loc600))
#loc818 = loc("jit(training_step)/jit(main)/transpose(jvp(jit(forward)))/while/body/checkpoint/rematted_computation/convert_element_type"(#loc601))
#loc819 = loc("jit(training_step)/jit(main)/transpose(jvp(jit(forward)))/while/body/checkpoint/rematted_computation/transpose"(#loc602))
#loc820 = loc("jit(training_step)/jit(main)/transpose(jvp(jit(forward)))/while/body/checkpoint/rematted_computation/dot_general"(#loc602))
#loc821 = loc("jit(training_step)/jit(main)/transpose(jvp(jit(forward)))/while/body/checkpoint/rematted_computation/dot_general"(#loc603))
#loc822 = loc("jit(training_step)/jit(main)/transpose(jvp(jit(forward)))/while/body/checkpoint/rematted_computation/mul"(#loc603))
#loc823 = loc("jit(training_step)/jit(main)/transpose(jvp(jit(forward)))/while/body/checkpoint/rematted_computation/add"(#loc604))
#loc824 = loc("jit(training_step)/jit(main)/transpose(jvp(jit(forward)))/while/body/checkpoint/rematted_computation/add"(#loc605))
#loc826 = loc("jit(training_step)/jit(main)/transpose(jvp(jit(forward)))/while/body/checkpoint/rematted_computation/mul"(#loc606))
#loc827 = loc("jit(training_step)/jit(main)/transpose(jvp(jit(forward)))/while/body/checkpoint/rematted_computation/convert_element_type"(#loc606))
#loc828 = loc("jit(training_step)/jit(main)/transpose(jvp(jit(forward)))/while/body/checkpoint/rematted_computation/reduce_sum"(#loc606))
#loc829 = loc("jit(training_step)/jit(main)/transpose(jvp(jit(forward)))/while/body/checkpoint/rematted_computation/broadcast_in_dim"(#loc606))
#loc830 = loc("jit(training_step)/jit(main)/transpose(jvp(jit(forward)))/while/body/checkpoint/rematted_computation/div"(#loc606))
#loc831 = loc("jit(training_step)/jit(main)/transpose(jvp(jit(forward)))/while/body/checkpoint/rematted_computation/add"(#loc607))
#loc832 = loc("jit(training_step)/jit(main)/transpose(jvp(jit(forward)))/while/body/checkpoint/rematted_computation/rsqrt"(#loc607))
#loc833 = loc("jit(training_step)/jit(main)/transpose(jvp(jit(forward)))/while/body/checkpoint/rematted_computation/div"(#loc607))
#loc834 = loc("jit(training_step)/jit(main)/transpose(jvp(jit(forward)))/while/body/checkpoint/rematted_computation/mul"(#loc607))
#loc835 = loc("jit(training_step)/jit(main)/transpose(jvp(jit(forward)))/while/body/checkpoint/rematted_computation/convert_element_type"(#loc565))
#loc836 = loc("jit(training_step)/jit(main)/transpose(jvp(jit(forward)))/while/body/checkpoint/rematted_computation/broadcast_in_dim"(#loc565))
#loc837 = loc("jit(training_step)/jit(main)/transpose(jvp(jit(forward)))/while/body/checkpoint/rematted_computation/mul"(#loc565))
#loc838 = loc("jit(training_step)/jit(main)/transpose(jvp(jit(forward)))/while/body/checkpoint/rematted_computation/transpose"(#loc608))
#loc839 = loc("jit(training_step)/jit(main)/transpose(jvp(jit(forward)))/while/body/checkpoint/rematted_computation/dot_general"(#loc608))
#loc840 = loc("jit(training_step)/jit(main)/transpose(jvp(jit(forward)))/while/body/checkpoint/rematted_computation/dot_general"(#loc609))
#loc841 = loc("jit(training_step)/jit(main)/transpose(jvp(jit(forward)))/while/body/checkpoint/rematted_computation/mul"(#loc609))
#loc842 = loc("jit(training_step)/jit(main)/transpose(jvp(jit(forward)))/while/body/checkpoint/rematted_computation/add"(#loc610))
#loc844 = loc("jit(training_step)/jit(main)/transpose(jvp(jit(forward)))/while/body/checkpoint/rematted_computation/mul"(#loc611))
#loc845 = loc("jit(training_step)/jit(main)/transpose(jvp(jit(forward)))/while/body/checkpoint/rematted_computation/transpose"(#loc612))
#loc846 = loc("jit(training_step)/jit(main)/transpose(jvp(jit(forward)))/while/body/checkpoint/rematted_computation/dot_general"(#loc613))
#loc847 = loc("jit(training_step)/jit(main)/transpose(jvp(jit(forward)))/while/body/checkpoint/mul"(#loc613))
#loc848 = loc("jit(training_step)/jit(main)/transpose(jvp(jit(forward)))/while/body/checkpoint/dot_general"(#loc613))
#loc849 = loc("jit(training_step)/jit(main)/transpose(jvp(jit(forward)))/while/body/checkpoint/transpose"(#loc613))
#loc850 = loc("jit(training_step)/jit(main)/transpose(jvp(jit(forward)))/while/body/checkpoint/dot_general"(#loc612))
#loc851 = loc("jit(training_step)/jit(main)/transpose(jvp(jit(forward)))/while/body/checkpoint/add_any"(#loc612))
#loc852 = loc("jit(training_step)/jit(main)/transpose(jvp(jit(forward)))/while/body/checkpoint/mul"(#loc611))
#loc853 = loc("jit(training_step)/jit(main)/transpose(jvp(jit(forward)))/while/body/checkpoint/mul"(#loc609))
#loc854 = loc("jit(training_step)/jit(main)/transpose(jvp(jit(forward)))/while/body/checkpoint/dot_general"(#loc609))
#loc855 = loc("jit(training_step)/jit(main)/transpose(jvp(jit(forward)))/while/body/checkpoint/transpose"(#loc609))
#loc856 = loc("jit(training_step)/jit(main)/transpose(jvp(jit(forward)))/while/body/checkpoint/dot_general"(#loc608))
#loc857 = loc("jit(training_step)/jit(main)/transpose(jvp(jit(forward)))/while/body/checkpoint/add_any"(#loc608))
#loc858 = loc("jit(training_step)/jit(main)/transpose(jvp(jit(forward)))/while/body/checkpoint/add_any"(#loc609))
#loc859 = loc("jit(training_step)/jit(main)/transpose(jvp(jit(forward)))/while/body/checkpoint/mul"(#loc565))
#loc860 = loc("jit(training_step)/jit(main)/transpose(jvp(jit(forward)))/while/body/checkpoint/mul"(#loc607))
#loc861 = loc("jit(training_step)/jit(main)/transpose(jvp(jit(forward)))/while/body/checkpoint/reduce_sum"(#loc607))
#loc862 = loc("jit(training_step)/jit(main)/transpose(jvp(jit(forward)))/while/body/checkpoint/reshape"(#loc607))
#loc863 = loc("jit(training_step)/jit(main)/transpose(jvp(jit(forward)))/while/body/checkpoint/convert_element_type"(#loc606))
#loc864 = loc("jit(training_step)/jit(main)/transpose(jvp(jit(forward)))/while/body/checkpoint/div"(#loc606))
#loc865 = loc("jit(training_step)/jit(main)/transpose(jvp(jit(forward)))/while/body/checkpoint/reduce_sum"(#loc606))
#loc866 = loc("jit(training_step)/jit(main)/transpose(jvp(jit(forward)))/while/body/checkpoint/broadcast_in_dim"(#loc606))
#loc867 = loc("jit(training_step)/jit(main)/transpose(jvp(jit(forward)))/while/body/checkpoint/mul"(#loc606))
#loc868 = loc("jit(training_step)/jit(main)/transpose(jvp(jit(forward)))/while/body/checkpoint/add_any"(#loc606))
#loc869 = loc("jit(training_step)/jit(main)/transpose(jvp(jit(forward)))/while/body/checkpoint/add_any"(#loc607))
#loc870 = loc("jit(training_step)/jit(main)/transpose(jvp(jit(forward)))/while/body/checkpoint/mul"(#loc603))
#loc871 = loc("jit(training_step)/jit(main)/transpose(jvp(jit(forward)))/while/body/checkpoint/dot_general"(#loc603))
#loc872 = loc("jit(training_step)/jit(main)/transpose(jvp(jit(forward)))/while/body/checkpoint/transpose"(#loc603))
#loc873 = loc("jit(training_step)/jit(main)/transpose(jvp(jit(forward)))/while/body/checkpoint/dot_general"(#loc602))
#loc874 = loc("jit(training_step)/jit(main)/transpose(jvp(jit(forward)))/while/body/checkpoint/add_any"(#loc602))
#loc875 = loc("jit(training_step)/jit(main)/transpose(jvp(jit(forward)))/while/body/checkpoint/convert_element_type"(#loc601))
#loc876 = loc("jit(training_step)/jit(main)/transpose(jvp(jit(forward)))/while/body/checkpoint/reshape"(#loc600))
#loc877 = loc("jit(training_step)/jit(main)/transpose(jvp(jit(forward)))/while/body/checkpoint/transpose"(#loc600))
#loc878 = loc("jit(training_step)/jit(main)/transpose(jvp(jit(forward)))/while/body/checkpoint/bhqk,bhkd->bhqd/dot_general"(#loc599))
#loc879 = loc("jit(training_step)/jit(main)/transpose(jvp(jit(forward)))/while/body/checkpoint/bhqk,bhkd->bhqd/transpose"(#loc599))
#loc880 = loc("jit(training_step)/jit(main)/transpose(jvp(jit(forward)))/while/body/checkpoint/bhqk,bhkd->bhqd/convert_element_type"(#loc599))
#loc881 = loc("jit(training_step)/jit(main)/transpose(jvp(jit(forward)))/while/body/checkpoint/reshape"(#loc598))
#loc882 = loc("jit(training_step)/jit(main)/transpose(jvp(jit(forward)))/while/body/checkpoint/reduce_sum"(#loc598))
#loc883 = loc("jit(training_step)/jit(main)/transpose(jvp(jit(forward)))/while/body/checkpoint/transpose"(#loc597))
#loc884 = loc("jit(training_step)/jit(main)/transpose(jvp(jit(forward)))/while/body/checkpoint/reshape"(#loc596))
#loc885 = loc("jit(training_step)/jit(main)/transpose(jvp(jit(forward)))/while/body/checkpoint/mul"(#loc594))
#loc886 = loc("jit(training_step)/jit(main)/transpose(jvp(jit(forward)))/while/body/checkpoint/dot_general"(#loc594))
#loc887 = loc("jit(training_step)/jit(main)/transpose(jvp(jit(forward)))/while/body/checkpoint/transpose"(#loc594))
#loc888 = loc("jit(training_step)/jit(main)/transpose(jvp(jit(forward)))/while/body/checkpoint/dot_general"(#loc593))
#loc889 = loc("jit(training_step)/jit(main)/transpose(jvp(jit(forward)))/while/body/checkpoint/add_any"(#loc593))
#loc890 = loc("jit(training_step)/jit(main)/transpose(jvp(jit(forward)))/while/body/checkpoint/mul"(#loc592))
#loc891 = loc("jit(training_step)/jit(main)/transpose(jvp(jit(forward)))/while/body/checkpoint/reduce_sum"(#loc592))
#loc892 = loc("jit(training_step)/jit(main)/transpose(jvp(jit(forward)))/while/body/checkpoint/reshape"(#loc592))
#loc893 = loc("jit(training_step)/jit(main)/transpose(jvp(jit(forward)))/while/body/checkpoint/neg"(#loc592))
#loc894 = loc("jit(training_step)/jit(main)/transpose(jvp(jit(forward)))/while/body/checkpoint/broadcast_in_dim"(#loc592))
#loc895 = loc("jit(training_step)/jit(main)/transpose(jvp(jit(forward)))/while/body/checkpoint/div"(#loc592))
#loc896 = loc("jit(training_step)/jit(main)/transpose(jvp(jit(forward)))/while/body/checkpoint/add_any"(#loc592))
#loc897 = loc("jit(training_step)/jit(main)/transpose(jvp(jit(forward)))/while/body/checkpoint/div"(#loc561))
#loc898 = loc("jit(training_step)/jit(main)/transpose(jvp(jit(forward)))/while/body/checkpoint/bhqd,bhkd->bhqk/dot_general"(#loc561))
#loc899 = loc("jit(training_step)/jit(main)/transpose(jvp(jit(forward)))/while/body/checkpoint/reshape"(#loc591))
#loc900 = loc("jit(training_step)/jit(main)/transpose(jvp(jit(forward)))/while/body/checkpoint/reduce_sum"(#loc591))
#loc901 = loc("jit(training_step)/jit(main)/transpose(jvp(jit(forward)))/while/body/checkpoint/mul"(#loc588))
#loc902 = loc("jit(training_step)/jit(main)/transpose(jvp(jit(forward)))/while/body/checkpoint/convert_element_type"(#loc588))
#loc903 = loc("jit(training_step)/jit(main)/transpose(jvp(jit(forward)))/while/body/checkpoint/slice"(#loc590))
#loc904 = loc("jit(training_step)/jit(main)/transpose(jvp(jit(forward)))/while/body/checkpoint/pad"(#loc589))
#loc905 = loc("jit(training_step)/jit(main)/transpose(jvp(jit(forward)))/while/body/checkpoint/neg"(#loc590))
#loc906 = loc("jit(training_step)/jit(main)/transpose(jvp(jit(forward)))/while/body/checkpoint/add_any"(#loc589))
#loc907 = loc("jit(training_step)/jit(main)/transpose(jvp(jit(forward)))/while/body/checkpoint/add_any"(#loc588))
#loc908 = loc("jit(training_step)/jit(main)/transpose(jvp(jit(forward)))/while/body/checkpoint/transpose"(#loc587))
#loc909 = loc("jit(training_step)/jit(main)/transpose(jvp(jit(forward)))/while/body/checkpoint/reshape"(#loc586))
#loc910 = loc("jit(training_step)/jit(main)/transpose(jvp(jit(forward)))/while/body/checkpoint/mul"(#loc584))
#loc911 = loc("jit(training_step)/jit(main)/transpose(jvp(jit(forward)))/while/body/checkpoint/dot_general"(#loc584))
#loc912 = loc("jit(training_step)/jit(main)/transpose(jvp(jit(forward)))/while/body/checkpoint/transpose"(#loc584))
#loc913 = loc("jit(training_step)/jit(main)/transpose(jvp(jit(forward)))/while/body/checkpoint/add_any"(#loc584))
#loc914 = loc("jit(training_step)/jit(main)/transpose(jvp(jit(forward)))/while/body/checkpoint/dot_general"(#loc583))
#loc915 = loc("jit(training_step)/jit(main)/transpose(jvp(jit(forward)))/while/body/checkpoint/add_any"(#loc583))
#loc916 = loc("jit(training_step)/jit(main)/transpose(jvp(jit(forward)))/while/body/checkpoint/mul"(#loc574))
#loc917 = loc("jit(training_step)/jit(main)/transpose(jvp(jit(forward)))/while/body/checkpoint/convert_element_type"(#loc574))
#loc918 = loc("jit(training_step)/jit(main)/transpose(jvp(jit(forward)))/while/body/checkpoint/slice"(#loc580))
#loc919 = loc("jit(training_step)/jit(main)/transpose(jvp(jit(forward)))/while/body/checkpoint/pad"(#loc579))
#loc920 = loc("jit(training_step)/jit(main)/transpose(jvp(jit(forward)))/while/body/checkpoint/neg"(#loc580))
#loc921 = loc("jit(training_step)/jit(main)/transpose(jvp(jit(forward)))/while/body/checkpoint/add_any"(#loc579))
#loc922 = loc("jit(training_step)/jit(main)/transpose(jvp(jit(forward)))/while/body/checkpoint/add_any"(#loc574))
#loc923 = loc("jit(training_step)/jit(main)/transpose(jvp(jit(forward)))/while/body/checkpoint/transpose"(#loc573))
#loc924 = loc("jit(training_step)/jit(main)/transpose(jvp(jit(forward)))/while/body/checkpoint/reshape"(#loc572))
#loc925 = loc("jit(training_step)/jit(main)/transpose(jvp(jit(forward)))/while/body/checkpoint/mul"(#loc570))
#loc926 = loc("jit(training_step)/jit(main)/transpose(jvp(jit(forward)))/while/body/checkpoint/dot_general"(#loc570))
#loc927 = loc("jit(training_step)/jit(main)/transpose(jvp(jit(forward)))/while/body/checkpoint/transpose"(#loc570))
#loc928 = loc("jit(training_step)/jit(main)/transpose(jvp(jit(forward)))/while/body/checkpoint/add_any"(#loc570))
#loc929 = loc("jit(training_step)/jit(main)/transpose(jvp(jit(forward)))/while/body/checkpoint/dot_general"(#loc569))
#loc930 = loc("jit(training_step)/jit(main)/transpose(jvp(jit(forward)))/while/body/checkpoint/add_any"(#loc569))
#loc931 = loc("jit(training_step)/jit(main)/transpose(jvp(jit(forward)))/while/body/checkpoint/mul"(#loc566))
#loc932 = loc("jit(training_step)/jit(main)/transpose(jvp(jit(forward)))/while/body/checkpoint/mul"(#loc568))
#loc933 = loc("jit(training_step)/jit(main)/transpose(jvp(jit(forward)))/while/body/checkpoint/reduce_sum"(#loc568))
#loc934 = loc("jit(training_step)/jit(main)/transpose(jvp(jit(forward)))/while/body/checkpoint/reshape"(#loc568))
#loc935 = loc("jit(training_step)/jit(main)/transpose(jvp(jit(forward)))/while/body/checkpoint/convert_element_type"(#loc567))
#loc936 = loc("jit(training_step)/jit(main)/transpose(jvp(jit(forward)))/while/body/checkpoint/div"(#loc567))
#loc937 = loc("jit(training_step)/jit(main)/transpose(jvp(jit(forward)))/while/body/checkpoint/reduce_sum"(#loc567))
#loc938 = loc("jit(training_step)/jit(main)/transpose(jvp(jit(forward)))/while/body/checkpoint/broadcast_in_dim"(#loc567))
#loc939 = loc("jit(training_step)/jit(main)/transpose(jvp(jit(forward)))/while/body/checkpoint/mul"(#loc567))
#loc940 = loc("jit(training_step)/jit(main)/transpose(jvp(jit(forward)))/while/body/checkpoint/add_any"(#loc567))
#loc941 = loc("jit(training_step)/jit(main)/transpose(jvp(jit(forward)))/while/body/checkpoint/add_any"(#loc568))
#loc942 = loc("jit(training_step)/jit(main)/transpose(jvp(jit(forward)))/while/body/checkpoint/rematted_computation/jit(tril)/iota"(#loc562))
#loc943 = loc("jit(training_step)/jit(main)/transpose(jvp(jit(forward)))/while/body/checkpoint/rematted_computation/jit(tril)/add"(#loc562))
#loc944 = loc("jit(training_step)/jit(main)/transpose(jvp(jit(forward)))/while/body/checkpoint/rematted_computation/jit(tril)/ge"(#loc562))
#loc945 = loc("jit(training_step)/jit(main)/transpose(jvp(jit(forward)))/while/body/checkpoint/rematted_computation/jit(tril)/broadcast_in_dim"(#loc562))
#loc946 = loc("jit(training_step)/jit(main)/transpose(jvp(jit(forward)))/while/body/checkpoint/rematted_computation/jit(tril)/select_n"(#loc562))
#loc947 = loc("jit(training_step)/jit(main)/transpose(jvp(jit(forward)))/while/body/checkpoint/rematted_computation/jit(_where)/convert_element_type"(#loc564))
#loc948 = loc("jit(training_step)/jit(main)/transpose(jvp(jit(forward)))/while/body/checkpoint/rematted_computation/jit(_where)/broadcast_in_dim"(#loc564))
#loc949 = loc("jit(training_step)/jit(main)/transpose(jvp(jit(forward)))/while/body/checkpoint/rematted_computation/jit(_where)/select_n"(#loc564))
#loc950 = loc("jit(training_step)/jit(main)/transpose(jvp(jit(forward)))/while/body/checkpoint/rematted_computation/mul"(#loc592))
#loc951 = loc("jit(training_step)/jit(main)/transpose(jvp(jit(forward)))/while/body/checkpoint/rematted_computation/jit(silu)/neg"(#loc611))
#loc952 = loc("jit(training_step)/jit(main)/transpose(jvp(jit(forward)))/while/body/checkpoint/rematted_computation/jit(silu)/exp"(#loc611))
#loc953 = loc("jit(training_step)/jit(main)/transpose(jvp(jit(forward)))/while/body/checkpoint/rematted_computation/jit(silu)/logistic"(#loc611))
#loc954 = loc("jit(training_step)/jit(main)/transpose(jvp(jit(forward)))/while/body/checkpoint/rematted_computation/jit(silu)/add"(#loc611))
#loc955 = loc("jit(training_step)/jit(main)/transpose(jvp(jit(forward)))/while/body/checkpoint/rematted_computation/jit(silu)/div"(#loc611))
#loc956 = loc("jit(training_step)/jit(main)/transpose(jvp(jit(forward)))/while/body/checkpoint/rematted_computation/jit(silu)/sub"(#loc611))
#loc957 = loc("jit(training_step)/jit(main)/transpose(jvp(jit(forward)))/while/body/checkpoint/rematted_computation/jit(silu)/mul"(#loc611))
#loc958 = loc("jit(training_step)/jit(main)/transpose(jvp(jit(forward)))/while/body/checkpoint/rematted_computation/jit(silu)/add_any"(#loc611))
